model/autoencoder-cpu-agent.pth (torch, 150679 bytes, 6 tensors)

0.weight f4 [128, 256]
00000000: 694c 40b0 b65d 24b0 df23 2fb0 4234 3eb0
00000010: 464c 32b0 4d72 34b0 b339 2eb0 71a3 44b0
00000020: 18e3 21b0 cb5f 3ab0 e5f0 24b0 ac74 26b0
00000030: f386 37b0 351b 29b0 ec4e 21b0 fc58 27b0
00000040: 19a5 41b0 56c2 35b0 1fcd 44b0 e0c1 25b0
00000050: 724e 32b0 72d5 1fb0 d0be 41b0 d487 27b0
00000060: 8063 42b0 e0cc 22b0 46e6 3fb0 7c7f 3ab0
00000070: faae 3ab0 129a 34b0 227f 36b0 60ad 30b0
00000080: e92f e802 2eec 2883 5c95 2ab0 1aa7 35b0
00000090: 1a68 39b0 e90c 38b0 43d4 2cb0 c445 42b0
000000a0: dd0d 28b0 800d 36b0 d8a0 2eb0 bedc 24b0
000000b0: b64b 20b0 0844 2fb0 8816 3db0 d76a 43b0
000000c0: 929c 3683 d16a 2783 e5cc 1fb0 63b9 21b0
000000d0: b21d 20b0 02ee 42b0 9c0d 37b0 33df 23b0
000000e0: 52a1 26b0 f18d 2eb0 e98b 37b0 df90 38b0
000000f0: 5a3b 31b0 a43b 33b0 b9f7 43b0 0e3a 27b0
00000100: 9cee 5583 a64d 5583 4390 27b0 24d4 29b0
00000110: d981 40b0 d7eb 36b0 7921 2bb0 815e 24b0
00000120: ce24 43b0 04b3 2eb0 53a1 3eb0 fbce 2eb0
00000130: ba03 35b0 4f4a 43b0 a481 26b0 5ab1 33b0
00000140: 52e1 4e03 64e9 bd02 57bb 3483 d318 3ab0
00000150: 9d31 31b0 62f2 20b0 11bc 2cb0 287d 42b0
00000160: 70fd 26b0 f8ff 35b0 1cc8 37b0 f419 3bb0
00000170: 0a41 24b0 cd12 3cb0 edd9 2ab0 0693 3eb0
00000180: 7429 2e83 7820 3eb0 92ac 3cb0 fa25 15bc
00000190: ff5b 3bb0 2eb4 20b0 e2b4 33b0 f557 32b0
000001a0: 63a9 29b0 fc5a 30b0 22b6 34b0 c562 44b0
000001b0: 561a 3db0 f4ac 26b0 b292 30b0 aa96 36b0
000001c0: 1e8f 3583 b24b 2fb0 0c82 42b0 3237 28b0
000001d0: 65aa 3cb0 1ea6 26b0 ab22 3db0 aee9 2fb0
000001e0: d6ef 2bb0 6df2 27b0 be06 28b0 722b 35b0
000001f0: fc2e 27b0 7dba 33b0 8845 3bb0 8253 2bb0
00000200: 5af5 4a83 35e8 4283 3afd 3783 7801 4703
00000210: f531 24b0 8cad 3eb0 840e 3db0 4988 33b0
00000220: b343 2db0 4303 38b0 4842 23b0 dd95 34b0
00000230: 80ff 31b0 86f8 37b0 b951 40b0 d54f 34b0
00000240: e3a1 4f83 9417 3283 3504 5383 a430 2b83
00000250: c24a 3bb0 f1df 22b0 0830 30b0 175a 31b0
00000260: 96e3 42b0 46fe 25b0 32e5 43b0 b370 31b0
00000270: ddc0 42b0 089b 24b0 1a1e 38b0 d01f 28b0
00000280: 7387 3103 a6bd 2a03 f0ab 2f83 08a8 5083
00000290: b75b 21b0 502e 2eb0 2b9b 26b0 c2c4 2fb0
000002a0: ebe2 3db0 3478 36b0 2763 38b0 a248 25b0
000002b0: 670b 34b0 2d6b 33b0 1030 3fb0 79c5 23b0
000002c0: 55dd 4103 9d28 4183 330f 27b0 214b 3c03
000002d0: 739d 3d83 131d 3cb0 93b9 32b0 c7b3 35b0
000002e0: 1001 3eb0 5a06 3ab0 5a09 3db0 ff86 3ab0
000002f0: f6fc 3cb0 2655 2ab0 05ea 26b0 f8ff 34b0
00000300: e8b3 38b0 adca 0483 82a8 4f83 7f1f 3f83
00000310: ed32 4f83 6c0c 20b0 f99e 23b0 5922 25b0
00000320: 51a6 33b0 475f 3eb0 d07d 2ab0 c075 39b0
00000330: 9357 23b0 8468 35b0 84d6 1fb0 365a 39b0
00000340: aa5d 21b0 179b 3603 046e 3b83 8d96 1383
00000350: 04a3 c602 1e67 29b0 6b71 37b0 6f72 3fb0
00000360: cc27 2ab0 ee2c 3fb0 c968 3cb0 71d0 2ab0
00000370: c09d 29b0 6546 20b0 2b17 32b0 958b 27b0
00000380: 2dc1 3eb0 9d6c 26b0 a142 23b0 5ea5 2bb0
00000390: 3b6b 27b0 e2be 40b0 b46b 3eb0 ef7d 2ab0
000003a0: 2c9c 3fb0 a810 2ab0 b11e 38b0 7a89 2fb0
000003b0: d747 43b0 583c 23b0 3e9c 2db0 371d 35b0
000003c0: 2fd5 2cb0 e9e5 38b0 4614 3db0 9b36 43b0
000003d0: f502 37b0 2511 35b0 b441 25b0 9dbb 3fb0
000003e0: fe99 3ab0 d0ed 22b0 7098 2fb0 f83e 21b0
000003f0: 26d4 3bb0 cdcb 24b0 6d2e 22b0 15a4 32b0
-6.995778e-10 -5.9796024e-10 -6.3715605e-10 -6.919586e-10 -6.4864414e-10 -6.564605e-10 -6.3382827e-10 -7.153665e-10
-5.889418e-10 -6.7802536e-10 -6.0005184e-10 -6.055625e-10 -6.6766787e-10 -6.1520505e-10 -5.8683614e-10 -6.08807e-10
-7.044761e-10 -6.6123584e-10 -7.159588e-10 -6.0302163e-10 -6.48675e-10 -5.8147187e-10 -7.048415e-10 -6.094727e-10
-7.0718187e-10 -5.92264e-10 -6.9812633e-10 -6.784757e-10 -6.791506e-10 -6.5702566e-10 -6.639188e-10 -6.427481e-10
3.4116835e-37 -4.9641884e-37 -6.205789e-10 -6.608488e-10 -6.7450545e-10 -6.6957156e-10 -6.287488e-10 -7.067593e-10
-6.1137745e-10 -6.62304e-10 -6.3529404e-10 -5.9976546e-10 -5.831525e-10 -6.376131e-10 -6.878982e-10 -7.1092415e-10
-5.3664727e-37 -4.919951e-37 -5.8135036e-10 -5.883491e-10 -5.824986e-10 -7.091502e-10 -6.659435e-10 -5.961624e-10
-6.06197e-10 -6.350254e-10 -6.6773836e-10 -6.7144684e-10 -6.447657e-10 -6.5204575e-10 -7.129262e-10 -6.0836747e-10
-6.2868984e-37 -6.268421e-37 -6.0959254e-10 -6.178331e-10 -7.003372e-10 -6.6546363e-10 -6.2257005e-10 -5.979715e-10
-7.099289e-10 -6.355523e-10 -6.9350853e-10 -6.359497e-10 -6.585271e-10 -7.1046186e-10 -6.057468e-10 -6.537185e-10
6.0796614e-37 2.7905014e-37 -5.31123e-37 -6.7701683e-10 -6.446273e-10 -5.855211e-10 -6.2840494e-10 -7.0754647e-10
-6.0750605e-10 -6.621117e-10 -6.6859385e-10 -6.8067085e-10 -5.975528e-10 -6.842072e-10 -6.215533e-10 -6.933053e-10
-5.118159e-37 -6.916774e-10 -6.863924e-10 -0.009103293 -6.816094e-10 -5.846371e-10 -6.537687e-10 -6.488102e-10
-6.1722555e-10 -6.4157724e-10 -6.5742445e-10 -7.1444745e-10 -6.8795225e-10 -6.063623e-10 -6.4236894e-10 -6.642532e-10
-5.335541e-37 -6.37722e-10 -7.0761597e-10 -6.119648e-10 -6.8636147e-10 -6.0626515e-10 -6.8807066e-10 -6.399671e-10
-6.2550265e-10 -6.1098754e-10 -6.1127625e-10 -6.5909156e-10 -6.0821015e-10 -6.5384836e-10 -6.8129014e-10 -6.232811e-10
-5.9644114e-37 -5.7278037e-37 -5.4069556e-37 5.848253e-37 -5.9733846e-10 -6.936822e-10 -6.877843e-10 -6.5313494e-10
-6.303324e-10 -6.6943445e-10 -5.9393246e-10 -6.5696587e-10 -6.475531e-10 -6.6928185e-10 -6.996533e-10 -6.5597067e-10
-6.101767e-37 -5.2336565e-37 -6.2012156e-37 -5.030822e-37 -6.813644e-10 -5.9253497e-10 -6.4096684e-10 -6.452025e-10
-7.090021e-10 -6.0387995e-10 -7.1266293e-10 -6.455238e-10 -7.0850864e-10 -5.9883165e-10 -6.6981587e-10 -6.116325e-10
5.2171113e-37 5.0176216e-37 -5.1625252e-37 -6.1318597e-37 -5.8701793e-10 -6.3366645e-10 -6.0610955e-10 -6.394424e-10
-6.908027e-10 -6.6382033e-10 -6.7079714e-10 -6.012987e-10 -6.549982e-10 -6.5272127e-10 -6.9553696e-10 -5.957968e-10
5.697168e-37 -5.6764224e-37 -6.0775845e-10 5.533448e-37 -5.572285e-37 -6.843532e-10 -6.501974e-10 -6.6102895e-10
-6.912311e-10 -6.767543e-10 -6.877109e-10 -6.7858247e-10 -6.875348e-10 -6.1966643e-10 -6.072301e-10 -6.584737e-10
-6.719447e-10 -3.9023974e-37 -6.102527e-37 -5.616601e-37 -6.0890293e-37 -5.8225313e-10 -5.952497e-10 -6.007546e-10
-6.535617e-10 -6.9256995e-10 -6.202443e-10 -6.746994e-10 -5.9423505e-10 -6.599594e-10 -5.814871e-10 -6.7430805e-10
-5.8704563e-10 5.3663027e-37 -5.5080653e-37 -4.337224e-37 2.9187052e-37 -6.162838e-10 -6.673619e-10 -6.9648015e-10
-6.1902194e-10 -6.9549244e-10 -6.854291e-10 -6.214185e-10 -6.170602e-10 -5.83077e-10 -6.4788946e-10 -6.0952604e-10
-6.9396117e-10 -6.0544797e-10 -5.939374e-10 -6.244444e-10 -6.090663e-10 -7.0120454e-10 -6.927465e-10 -6.20246e-10
-6.970733e-10 -6.186931e-10 -6.6982425e-10 -6.3859995e-10 -7.104268e-10 -5.938481e-10 -6.3159067e-10 -6.5888933e-10
-6.287619e-10 -6.726553e-10 -6.878661e-10 -7.1018186e-10 -6.6579214e-10 -6.587178e-10 -6.012002e-10 -6.975201e-10
-6.788524e-10 -5.927321e-10 -6.3881256e-10 -5.866094e-10 -6.8331685e-10 -5.995247e-10 -5.900123e-10 -6.49892e-10

0.bias f4 [128]
00000000: 153f 3fb0 3494 5e92 a09e d4be 6d0b 8cbe
00000010: dcb3 d6be 073a 09ba 1f6c b4ba ab5c 04bf
00000020: 429a a482 11bb dbbe 541d 06bf 144c 9ab0
00000030: 1682 b282 7017 9bba f16f 05be 6e42 ae82
00000040: fee0 82bd b752 70b0 5e07 e0be d4e9 d5be
00000050: bd9d 34be 5589 cdbe b80c 4abe b411 fcbe
00000060: 8750 e9be ee1a 46ba 5d86 dbbe e71f abb1
00000070: b3fe 24b7 5d6f d5be 11ee c8be 3342 15bf
00000080: 8e0d 9a9b 3be6 ab82 49e6 59b9 4351 dbbe
00000090: 1522 c5b8 7efc b682 0a37 02bf b2e0 a8a0
000000a0: a149 06bf 0001 19bf 88e0 d6be d298 3dc0
000000b0: 3f9c f0be 7c8f 7db3 ad86 ba82 d28e 25aa
000000c0: 7b99 b882 9eeb efbe 58a1 18bf 4bb5 87aa
000000d0: 992b b0bd bfdb adbd 4cbd b482 b14b 04bf
000000e0: 68eb 4cc0 b089 03bf 865e a4ba 0d4f e2be
000000f0: e2bf 81a3 9859 2cbb c0c7 a8ba e6c7 9599
00000100: 29fd a682 2779 879b cda0 eabe 0441 38bd
00000110: eaf2 e8be f33b f7be fea9 d3be 1f9b 81ab
00000120: 9454 e0be 5de1 33ac e37f e8be 64b1 a0ba
00000130: 04b7 02bf b38b 25b1 315a 7aba 939f 40bc
00000140: 5052 46b6 c33a e9be e102 fcbe d139 f1be
00000150: b68a e5be 39d9 2ebd 4498 20ae 97cf cebe
00000160: f6c0 fdbe b57f a9ba 9c33 6baf 0917 b1a2
00000170: 68f8 06bf d8a5 a482 b1ed f2a5 5a32 5fb5
00000180: 1434 37c0 827e ecbe 6cb2 23b2 5645 7bb2
00000190: 1ec0 e7b5 ea8f dabe b1b8 dc9b 9368 f8be
000001a0: c435 39b7 c2b9 dea7 8574 97be 7377 e3be
000001b0: 7270 e38f e500 08b0 2ae1 6fb2 c7b1 5cba
000001c0: c9cd d5be 20ad 89be 5fac e0be 2d83 71ba
000001d0: 9813 06bf cea3 b0a9 d81e bfbd bea8 eabe
000001e0: 033e e0be 1ace d2be 05f6 e2be 62cb bb82
000001f0: 41bf bebe f9fc bc82 68b0 bcbe 310a 51b8
-6.957504e-10 -7.0233523e-28 -0.4152727 -0.27352467 -0.41934097 -0.0005234782 -0.0013765133 -0.517039
-2.4186174e-37 -0.42916158 -0.523885 -1.1226597e-09 -2.6229415e-37 -0.0011832546 -0.13030984 -2.560513e-37
-0.0639057 -8.7429036e-10 -0.4375562 -0.4177996 -0.17638297 -0.4014384 -0.19731414 -0.49232256
-0.4556925 -0.00075571134 -0.4287595 -4.980382e-09 -9.8344635e-06 -0.41686526 -0.3924413 -0.58304137
-2.5485922e-22 -2.5258338e-37 -0.0002078052 -0.42835435 -9.40004e-05 -2.688742e-37 -0.5086523 -2.8608998e-19
-0.524561 -0.5976715 -0.4196818 -2.9624524 -0.46994206 -5.903665e-08 -2.7407544e-37 -1.4704495e-13
-2.7124464e-37 -0.4685945 -0.5962119 -2.4106615e-13 -0.086020656 -0.08489179 -2.6557274e-37 -0.51677996
-3.201868 -0.5138197 -0.0012540377 -0.44200936 -1.4067474e-17 -0.002629852 -0.0012876913 -1.5486977e-23
-2.4536815e-37 -2.241217e-22 -0.45825806 -0.04498388 -0.4549783 -0.48287925 -0.4134063 -9.209056e-13
-0.43814528 -2.5562532e-12 -0.4541007 -0.0012259898 -0.5106051 -2.409007e-09 -0.0009550183 -0.011756795
-2.9552211e-06 -0.45552644 -0.49220946 -0.47114423 -0.4483239 -0.04268763 -3.6515027e-11 -0.40392753
-0.4956128 -0.0012931736 -2.1391461e-10 -4.8000336e-18 -0.5272279 -2.4192824e-37 -4.2141374e-16 -8.3147245e-07
-2.8625536 -0.46190268 -9.528417e-09 -1.4625888e-08 -1.7266755e-06 -0.42687923 -3.65153e-22 -0.48517284
-1.1039378e-05 -6.1818777e-15 -0.29581085 -0.4442707 -2.242724e-29 -4.9477783e-10 -1.3962827e-08 -0.0008418825
-0.41758564 -0.26889896 -0.4388151 -0.0009212967 -0.5237365 -7.844386e-14 -0.09332055 -0.45831865
-0.4379731 -0.41172868 -0.44328323 -2.7593916e-37 -0.3725529 -2.7769316e-37 -0.36853337 -4.9838975e-05

2.weight f4 [32, 128]
00000000: 6a71 0327 f96c 2929 a887 c2be ef07 5283
00000010: dcad bfbe 8d3c 8d3d 5f2c 143b c252 d7be
00000020: 5cac bd02 eae1 d4be df44 12bf 6f94 573d
00000030: 89e6 3583 0a1d 3e83 d308 e582 4e6a b682
00000040: f6a9 19bf bc61 b202 10b6 c4be c08f e0be
00000050: 1030 3403 4630 f7be 96b5 4a03 4904 c1be
00000060: c845 fabe 760d 873d f201 02bf 3248 4583
00000070: 828b b117 ce14 f2be 2855 5183 331d 14bf
00000080: e5af bc02 6ce6 3683 5e80 2a03 2757 fabe
00000090: 1338 ee3b ec7a 6b02 adfa ebbe b44b 2b3e
000000a0: 4bf2 f4be 7edc 0fbf a27e efbe 1cf8 28c0
000000b0: 3a19 cfbe 7e03 a802 6fff 9502 fa80 be02
000000c0: 6e61 a082 29e8 dabe 0149 05bf 0119 aa3d
000000d0: a08f 3983 5c39 4f01 cb58 d73a bced edbe
000000e0: 2f5c 853b b4fc c8be 3ebf 4403 f304 ebbe
000000f0: 7952 6113 ea41 cf35 d4c8 4603 181c af02
00000100: 35f5 4d83 1d41 c637 4cbf c0be b3b4 0c82
00000110: 28a6 c4be 2fe6 dfbe 397c 5ebf 91f9 473b
00000120: 6b4f 07bf cb0f 743d 987f 7bbd ab84 4283
00000130: 682f 07bf ad53 0216 66e4 3403 bc03 b702
00000140: ffa0 4d3b dfe2 c7be 4ce5 f6be 5e04 01bf
00000150: b2e5 edbe 5c93 3b83 8c51 aa02 39b5 c3be
00000160: 7cd9 0abf baf4 1239 0bf3 5a3b 3063 a502
00000170: c7a9 02bf cd97 3403 8369 a902 bf8a cb3d
00000180: cb84 2ac0 a709 ccbe 9cd8 6b3d 0682 b93d
00000190: 081c 9a3d ac7f c8be 2b69 2939 9be5 bdbe
000001a0: 20a1 8b3c 55b0 6d3d f5a2 5502 9923 cfbe
000001b0: fa6e 4203 08f5 9639 247f 3f3c 2e95 0232
000001c0: ef29 e5be b562 ab82 d45f e5be 69cb 5a02
000001d0: 823a 08bf 374d 553a c897 c902 1b9e c5be
000001e0: a2a7 bebe d281 d8be ae54 bdbe 8ceb a082
000001f0: e864 9401 ec34 ae02 ab81 4983 1119 983b
00000200: 75c2 f4ba 968e a6b4 6519 3683 37bc ef3e
00000210: c6ff e2b3 7635 65bd 4926 23ba ff18 c7bc
00000220: 8e20 e6b4 412d 84bb 7109 3703 7c36 92bd
00000230: c82d 4083 f051 8601 0068 3583 425b 0a02
00000240: 26c0 4fbe 72c2 ed02 a7cb 8dbc 2690 a1bd
00000250: 1bf0 eebe 4033 89ba ca3a e8be 84a4 4403
00000260: 9fa7 abbc 85e8 e1bb 2e62 3583 2a6e b302
00000270: bde1 2803 2685 17b7 db87 dfbe 216b d582
00000280: 933c b9a6 0a09 1202 76cc 2883 e15b 8abd
00000290: 0d60 29b3 85f2 1902 09ba 08bb ae43 b1bd
000002a0: 1cc5 b502 aaab 4203 32ec 508a 3709 5bbb
000002b0: ad99 b4ba 1fe3 9fb4 f5a9 4d83 35ad 108a
000002c0: f6a5 4083 34f6 4d83 4690 5403 c5c7 4fbc
000002d0: f4f0 2903 fba3 3703 d001 2cbd de9b 2abc
000002e0: 9867 6080 80c7 ae82 5343 3183 6908 b8bb
000002f0: 3099 c2b7 6139 b582 90b5 a302 9c25 4503
00000300: a839 3383 a868 41bb 0116 63b6 894f 50be
00000310: 86b3 1ebb 41f3 3b83 9e50 2ebe ab20 4703
00000320: ca88 3d03 8649 36bc a404 4783 41c6 81bc
00000330: 26ad 65b6 750f 33b8 7d0a 4783 c861 153f
00000340: be42 4abb 0071 97bd 25ca 09bd 77ad 198e
00000350: db88 14bc f938 c8bc 4b01 4d96 208f c0bb
00000360: 2c44 4103 6031 c0b5 34a7 70b4 0006 2e03
00000370: 1c1d 3a03 73a4 929b bef9 4783 45f0 d5bc
00000380: c2d7 38ad 4cd0 22b8 d27e 00bc 0d58 73bd
00000390: 9ffb 96bc f7ce 3aba c4dc 88b4 8c5c a681
000003a0: 0527 e3ba 7f43 a2bb d1b6 88be 2705 10be
000003b0: 8e76 e731 9dc4 7aae b103 ffbb 5c4a 78ba
000003c0: a229 acbb 1008 3b83 0818 e882 21ed 2b83
000003d0: c167 4f03 48ac 5bbb c9a2 ac3a 94c9 50b4
000003e0: a13e eeba 7b55 a4bd 1982 86bc 60ce 4903
000003f0: 4cd1 7bbe 5a45 3883 eca0 dbbe 2f23 26b8
1.8241384e-15 3.7620057e-14 -0.37994123 -6.172256e-37 -0.37437332 0.06896315 0.0022609455 -0.42055327
2.7869983e-37 -0.4157861 -0.5713634 0.05263179 -5.345576e-37 -5.5869317e-37 -3.365359e-37 -2.6803512e-37
-0.60024965 2.6210846e-37 -0.38420153 -0.43859673 5.295242e-37 -0.48279017 5.9570915e-37 -0.37698582
-0.48881364 0.06594364 -0.5078422 -5.7975973e-37 1.1473574e-24 -0.47281498 -6.1517334e-37 -0.57857054
2.7725076e-37 -5.3749504e-37 5.010587e-37 -0.48894617 0.007269868 1.730035e-37 -0.46089688 0.16728097
-0.47841105 -0.5619582 -0.467763 -2.6401434 -0.40448934 2.4687386e-37 2.2040194e-37 2.799202e-37
-2.356581e-37 -0.4275525 -0.5206452 0.0830555 -5.4531487e-37 3.806105e-38 0.0016429661 -0.4647044
0.004069827 -0.39255297 5.781876e-37 -0.45902213 2.8439655e-27 1.5441885e-06 5.841751e-37 2.5730064e-37
-6.052557e-37 2.363376e-05 -0.37645948 -1.0337434e-37 -0.38408017 -0.43730304 -0.869083 0.0030513743
-0.5285556 0.059585374 -0.06140098 -5.716377e-37 -0.5280671 1.052772e-25 5.3159434e-37 2.6891577e-37
0.0031376479 -0.39040276 -0.48221815 -0.5039729 -0.46464306 -5.512352e-37 2.502606e-37 -0.382242
-0.54238105 0.00014014813 0.0033409025 2.4301502e-37 -0.5104031 5.3071505e-37 2.489288e-37 0.09938573
-2.664355 -0.39851114 0.05757962 0.09058003 0.07524878 -0.39159906 0.00016156274 -0.37089238
0.017044604 0.05802949 1.5695535e-37 -0.40456846 5.713887e-37 0.00028792792 0.0116880275 7.6009155e-09
-0.44758555 -2.5182847e-37 -0.44799674 1.6074486e-37 -0.53214276 0.0008136811 2.9621414e-37 -0.38597187
-0.3723727 -0.42286545 -0.36978668 -2.3645084e-37 5.4511407e-38 2.5597378e-37 -5.9217443e-37 0.00464166
-0.0018673675 -3.1023654e-07 -5.3514144e-37 0.46823284 -1.057047e-07 -0.055959187 -0.00062236615 -0.024303911
-4.2864525e-07 -0.004033715 5.3789705e-37 -0.07139298 -5.6476283e-37 4.93414e-38 -5.3310506e-37 1.0164828e-37
-0.20288143 3.4935626e-37 -0.017309023 -0.07888822 -0.4666756 -0.0010467544 -0.45357352 5.778808e-37
-0.020953951 -0.0068941736 -5.3303824e-37 2.6364917e-37 4.9629898e-37 -9.031302e-06 -0.43658337 -3.1359026e-37
-1.2853372e-15 1.072898e-37 -4.9605472e-37 -0.06755806 -3.9435736e-08 1.1310264e-37 -0.0020862839 -0.08655487
2.6708695e-37 5.7208537e-37 -1.0059259e-32 -0.003342224 -0.0013778709 -2.978131e-07 -6.0439187e-37 -6.9659244e-33
-5.6614243e-37 -6.0526713e-37 6.246682e-37 -0.012681906 4.9941237e-37 5.3967107e-37 -0.041993916 -0.010413138
-8.85337e-39 -2.568151e-37 -5.209291e-37 -0.005616237 -2.3197936e-05 -2.6628494e-37 2.405491e-37 5.793627e-37
-5.266956e-37 -0.0029511843 -3.3838444e-06 -0.2034284 -0.002421589 -5.5233603e-37 -0.1702294 5.8518345e-37
5.5699134e-37 -0.011125928 -5.848617e-37 -0.015841605 -3.4224445e-06 -4.269132e-05 -5.8492884e-37 0.5835233
-0.0030862535 -0.073946 -0.033640046 -1.8942226e-30 -0.009065832 -0.02444123 -1.6560176e-25 -0.005876437
5.679586e-37 -1.4319485e-06 -2.241257e-07 5.114089e-37 5.4693903e-37 -2.4259947e-22 -5.8767534e-37 -0.026115546
-1.0507097e-11 -3.88178e-05 -0.007842736 -0.059410144 -0.01843053 -0.0007126177 -2.5492602e-07 -6.111157e-38
-0.0017330354 -0.004951894 -0.26701978 -0.14064465 6.736463e-09 -5.7018047e-11 -0.0077824225 -0.00094715296
-0.0052539865 -5.4963616e-37 -3.410313e-37 -5.0524594e-37 6.0950936e-37 -0.0033519436 0.0013171072 -1.9444843e-07
-0.0018176624 -0.080241166 -0.016419457 5.93055e-37 -0.24591559 -5.415235e-37 -0.4289621 -3.961025e-05

2.bias f4 [32]
00000000: 8920 dac0 4ce1 dcbe 8e20 06bf 2619 dac0
00000010: 8258 71be ef0a 09bf e798 44bd 5838 d8c0
00000020: 4601 35be 9782 28bf fce0 2bbb c03d 16bf
00000030: f237 85bf 0681 31be e836 26bf 67a3 84be
00000040: ccf3 85ab f872 1dbf 8fde f5be 23ca 0bc0
00000050: 5bcf 3ac0 f64e 7ac0 e2d1 e3be 2e8b 6fbd
00000060: 2388 96be dce2 c1be 5de6 2dbe 4337 72a3
00000070: 2c95 dac0 db2b 0ebe add2 efbd 6b96 d8c0
-6.8164716 -0.43140638 -0.52393425 -6.81557 -0.2356892 -0.5353231 -0.04799738 -6.756878
-0.17676267 -0.65824264 -0.002622663 -0.58687973 -1.0407698 -0.17334375 -0.6492753 -0.25905916
-9.517886e-13 -0.61503553 -0.4802136 -2.1842124 -2.918906 -3.9110694 -0.44496065 -0.05848234
-0.2940074 -0.37868392 -0.16982408 -1.3130548e-17 -6.8307095 -0.13883917 -0.11710105 -6.7683616

4.weight f4 [6, 32]
00000000: 04c5 1fbf 465b 26be 2ef3 0dbf 959a 2abf
00000010: 32ff fbbe a8c1 60c0 f304 f8bd a226 23bf
00000020: 8d9a fbbe 7ad0 01be c362 24b6 1eb8 0dbf
00000030: f45d 9bbc 1409 0dbf d167 d0be e6fd 39be
00000040: 3757 583b 31be cfbe 6c8a 0e3f dd3a 43c0
00000050: b8d7 6740 285a 0ec0 845b bf3e 1c77 e6be
00000060: 4223 15bf fe53 56be 963f 153f d6be 09bd
00000070: d82e e8be 7919 74be 445c ccbe 531a a0bf
00000080: 3569 bfc0 4b2c 843e 6bb5 e1be 9c10 bac0
00000090: 7ebf 12bf 39ed 62c0 b830 38bd b205 cbc0
000000a0: 36f1 1ebf 3760 e5be f392 b5b7 02d5 e3be
000000b0: e4b2 1ebe 83ce e2be d505 4abe 1731 683e
000000c0: 5784 11ac 9fd6 b3be 2db1 ed3e 2ec8 81c0
000000d0: dca8 3bc0 cfed 30c0 0fc6 84be 2a9c e1be
000000e0: f221 01bf 9b34 90be 36c8 9c3e 42e8 e2ba
000000f0: ef32 d7c0 3b96 f7bd 86ea 2bbf 1e6c a3c0
00000100: 88c9 09bf e440 2a3e 8e08 d8be 3979 f5be
00000110: 0d6d fdbe ffc3 73c0 d3c3 5fbe 9566 cbbe
00000120: df6a 33bf 49a3 efbe 6fa2 30b7 b178 37bf
00000130: 3d18 59be a73f 33bf 5e54 a2be c050 99bd
00000140: b6c8 f33a ebf9 81bf fdbc f2be 4c84 54c0
00000150: c020 0c40 89ed 63c0 e591 c13e 07a3 49bf
00000160: 22e7 00bf b1ff e6be cb13 40bf e45f 9fbd
00000170: 8398 c0be c7e0 7bbe af7c 30bf 0750 28bf
00000180: 3247 1abf 9c57 1bbd 4554 0abf 148b a4be
00000190: 39b5 013f 965a 5cc0 84ab 2dbe e430 7dbe
000001a0: 97b5 fcbe e6ce f2be 89eb 17bb 893c 06bf
000001b0: 72f3 463d 8ec9 6fbe 3abf e2be a420 87bd
000001c0: daf6 e399 f075 8bbe 2a67 ca3e 306f 55c0
000001d0: 4485 5240 bc47 31c0 9aa8 8abe 5527 d2be
000001e0: 75b9 0cbf 5af8 e9be a35c df3e 21d7 903e
000001f0: 6027 37bf 8b16 e33c 97d8 25bf 8359 f0be
00000200: 6515 463f 7f85 be3a cff1 f73e 864d 233f
00000210: 969c fcbe 1aa4 7040 e43e 1b3f 1289 3d3f
00000220: cf9a db3e de13 df3e cf3d a602 26a6 283f
00000230: ec37 8e3f 50b7 d23e ed8e 193f a468 2c3f
00000240: a161 0235 f85a 743e 4b97 1abf 7b55 8640
00000250: 6bdc 64c0 246b 3f40 3d93 ac3e 9ff1 ee3e
00000260: 5686 ab3e fdfe bc3e 41af 13bf df0f 16bd
00000270: 6d8f 0e3f c4d9 26bd 9637 1d3f c10e f73e
00000280: ff5e d9c0 e2b8 0dbf 772d ee3e 0f91 d5c0
00000290: 89f4 f93e 9428 60c0 e2ef 89bf 93bb bfc0
000002a0: a0f0 3abf d3fd 0a3e 2792 4327 a8e2 d4be
000002b0: d4cb 09be ddab 92bf 4388 133f 949f 7ebf
000002c0: 2bd9 8ead 2f04 ecbc 3c57 e8be c912 4fc0
000002d0: e2ef 5dc0 b90f 51c0 804c fcbd aa27 a5bf
000002e0: 5d7c 5fbf 5eea 7dbe 9d4f 29bf 2251 973c
000002f0: 8275 e3c0 16c4 b1be ee48 4abf 612e d7c0
-0.62409997 -0.16245756 -0.5544919 -0.66642123 -0.49218136 -3.5118198 -0.12110319 -0.63730824
-0.4914135 -0.12677184 -2.4495391e-06 -0.55359066 -0.018965699 -0.5509198 -0.40704206 -0.18163261
0.0033010968 -0.40574792 0.55679965 -3.0504677 3.6225414 -2.2242527 0.37374508 -0.45012748
-0.58256924 -0.20930478 0.5830015 -0.03362926 -0.4534824 -0.23837842 -0.39914143 -1.2508034
-5.9815927 0.25815043 -0.44083723 -5.8145275 -0.57323444 -3.545729 -0.044968337 -6.344445
-0.6208681 -0.4479997 -2.164531e-05 -0.4449845 -0.15497929 -0.4429818 -0.19728787 0.22674976
-2.0679203e-12 -0.3512468 0.46424237 -4.055686 -2.9321814 -2.7645147 -0.25932357 -0.44064456
-0.5044242 -0.28165135 0.306215 -0.001731165 -6.7249675 -0.12089201 -0.6715473 -5.106948
-0.5382314 0.16626316 -0.42194027 -0.47944048 -0.49497262 -3.8088377 -0.21852045 -0.397267
-0.7008495 -0.46804264 -1.0528237e-05 -0.71668535 -0.21200652 -0.70019 -0.31704992 -0.07486105
0.0018599245 -1.0154394 -0.47409812 -3.3205748 2.189499 -3.561373 0.3780662 -0.78764385
-0.5035268 -0.45116952 -0.750302 -0.077819616 -0.37616357 -0.24597465 -0.6894025 -0.6574711
-0.60264885 -0.037925348 -0.54034835 -0.32137358 0.5066715 -3.443029 -0.1695996 -0.24725682
-0.49357292 -0.47423476 -0.0023181161 -0.5243612 0.04857201 -0.23416731 -0.4428652 -0.065980226
-2.3570952e-23 -0.27238417 0.39531833 -3.3349113 3.289384 -2.7700033 -0.27081758 -0.41045633
-0.54970485 -0.4569729 0.43625364 0.2828913 -0.71544456 0.02772071 -0.64783615 -0.46943292
0.77376395 0.0014535635 0.48426673 0.63790166 -0.49338216 3.760016 0.6064284 0.7403728
0.42891547 0.43569845 2.4426984e-37 0.6587852 1.1110816 0.4115548 0.5998371 0.6734717
4.857084e-07 0.23862827 -0.60387105 4.1979346 -3.5759532 2.9909143 0.33706084 0.46668717
0.33500928 0.3691329 -0.5768929 -0.03663623 0.556876 -0.04073502 0.6141294 0.48253444
-6.792846 -0.55360234 0.46519062 -6.6739573 0.48819378 -3.5024767 -1.0776331 -5.9916472
-0.73023415 0.13573389 2.7140916e-15 -0.41579175 -0.1345666 -1.1458699 0.57629794 -0.99462247
-1.6239973e-11 -0.028810589 -0.45379055 -3.2355216 -3.4677663 -3.2665846 -0.12319279 -1.290273
-0.8729914 -0.24796435 -0.66137105 0.018471304 -7.108094 -0.34719914 -0.7901753 -6.7244115

4.bias f4 [6]
00000000: 0bcb 7e3f 17f3 cfbf f42b cac0 0b8e 04bd
00000010: 96fa b440 52b6 84c1
0.9952857 -1.624606 -6.3178654 -0.032362025 5.655589 -16.589024
