model/autoencoder-cpu.pth (torch, 154135 bytes, 6 tensors)

0.weight f4 [128, 256]
000000 3a 13 48 83 48 1b 08 3f 02 67 0b 3f 43 2f 00 3f
       -5.879679e-37 0.5316663 0.5445405 0.50072116
000010 05 e1 54 03 0d 58 4d 83 3e 52 bf 02 f6 26 35 83
       6.255951e-37 -6.0345163e-37 2.8112132e-37 -5.3235844e-37
000020 fc 6d db 02 0a 1c 60 3f 19 23 60 3f 37 1a 60 3f
       3.2242286e-37 0.87542784 0.87553555 0.8754
000030 6d ac 5f 3f 88 b0 5f 3f c1 fe 5f 3f 76 73 37 03
       0.87372476 0.8737874 0.874981 5.391141e-37
000040 c0 90 f4 3e 01 37 f4 3e 45 bb 36 03 c5 42 05 3f
       0.47766685 0.47698215 5.369997e-37 0.5205501
000050 88 66 05 3f 26 a0 45 03 e7 d0 91 02 d8 fe 2f 83
       0.52109575 5.807694e-37 2.142574e-37 -5.1720424e-37
000060 0a 6f 9c 82 73 f4 5f 3f d7 1f 60 3f 29 65 89 3e
       -2.2985873e-37 0.87482375 0.87548584 0.26834992
000070 81 7f 8e 3e 44 e7 5f 3f f5 2d 60 3f be 45 4d 03
       0.27831653 0.8746226 0.87570125 6.0324146e-37
000080 cf 8a 09 3f bf e7 05 3f 39 c0 f9 3e 49 0d 54 83
       0.5372743 0.5230674 0.48779467 -6.231645e-37
000090 9b 6a 02 3f 3f a5 06 3f cf ca 47 83 3b f8 54 83
       0.5094392 0.52595896 -5.8713657e-37 -6.2586155e-37
0000a0 a6 82 4e b0 17 d0 5f 3f 9f fa 5f 3f 4d 5f 8a 3e
       -7.5128026e-10 0.87426895 0.8749179 0.27025834
0000b0 05 eb 8b 3e 41 21 60 3f d0 14 55 03 14 73 43 83
       0.27327743 0.8755074 6.2618966e-37 -5.7437453e-37
0000c0 af cb 0c 3f 1f 5f f9 3e 6d 9f 07 3f c2 bb 06 3f
       0.54998296 0.48705384 0.5297764 0.52630246
0000d0 a7 74 0c 3f c3 e3 0a 3f 42 8c 2b 83 e8 63 32 03
       0.548655 0.54253787 -5.041339e-37 5.2424185e-37
0000e0 f8 ef 54 03 ef 00 60 3f 07 be 5f 3f 83 29 60 3f
       6.257667e-37 0.87501425 0.87399334 0.8756334
0000f0 e2 c0 5f 3f 78 c8 5f 3f 04 7a 41 03 73 6f 38 83
       0.8740369 0.87415266 5.685767e-37 -5.4200678e-37
000100 c8 15 0d 3f 51 75 09 3f c0 a3 0f 3f ac 1b 09 3f
       0.5511136 0.53694636 0.5610924 0.5355785
000110 4a 11 c8 02 1f f6 0a 3f df a0 f7 3e 23 a0 12 3f
       2.9397282e-37 0.542818 0.48364922 0.572756
000120 8b 35 11 3f a8 20 60 3f 90 f5 32 03 3e 16 10 03
       0.56722325 0.8754983 5.259139e-37 4.234333e-37
000130 e7 17 35 03 9a 1b 2e 03 00 3d 3e 83 20 a7 16 03
       5.321856e-37 5.116569e-37 -5.5906006e-37 4.427289e-37
000140 a4 f2 01 3f 18 23 2a be 37 dd 8e 3f fb ea 08 3f
       0.50760865 -0.1661495 1.116126 0.5348355
000150 54 ab 04 3f a9 67 11 3f 98 ba 3d 3f 0e fd 10 3f
       0.51823926 0.567988 0.74112844 0.5663613
000160 e9 df 11 3f 10 36 42 83 78 2e 46 03 34 ee 45 83
       0.56982285 -5.7073537e-37 5.8240314e-37 -5.816654e-37
000170 ba 55 55 83 dd 5c 07 bf ab a1 fe be 40 2b 43 03
       -6.2693483e-37 -0.52876073 -0.49732718 5.7355e-37
000180 2e 6b 9e 02 c5 eb 3b 03 e3 c0 73 3e db d8 f5 3e
       2.3277532e-37 5.522501e-37 0.23804049 0.4801701
000190 ab c2 05 3f ce 96 11 3f c7 d4 48 3f e4 25 41 3f
       0.52250165 0.56870735 0.7844967 0.7544844
0001a0 3f 56 45 3f 99 da 10 3f 5a df 36 83 18 25 cd 82
       0.77084726 0.56583554 -5.374139e-37 -3.0143334e-37
0001b0 5b 99 3e 83 a9 cd 08 bf be 58 08 bf 18 90 01 bf
       -5.6012025e-37 -0.5343881 -0.5326041 -0.50610495
0001c0 f5 2c 4d 83 f0 1a 45 00 7c 42 0e 3f b6 ee 0e 3f
       -6.0295694e-37 6.346313e-39 0.555702 0.55832994
0001d0 df 0f df 82 c2 5f 11 3f 8f 7e 12 3f 58 99 de 3e
       -3.2776015e-37 0.5678674 0.57224363 0.43476367
0001e0 cb e9 42 3f 61 b4 07 3f c4 86 3f 03 42 56 32 03
       0.7613799 0.5300961 5.628456e-37 5.2408518e-37
0001f0 00 b0 1a 3f 9a be 07 bf d1 f5 05 bf 03 97 04 bf
       0.60424805 -0.5302521 -0.5232821 -0.51792926
000200 cc fd 8e 81 a5 54 01 3f 01 0c ff 3e 61 d4 0f 3f
       -5.252674e-38 0.5051978 0.49813846 0.5618344
000210 1b 46 11 3f 4e 47 11 3f cf 30 13 3f c0 3c 12 3f
       0.567476 0.5674943 0.5749635 0.5712395
000220 61 72 38 3f 17 47 05 3f 80 65 2f 03 30 ff 38 03
       0.7204953 0.520616 5.1544394e-37 5.436568e-37
000230 15 cb 52 03 98 d5 fd be c4 a3 02 bf fa 5c 01 bf
       6.194658e-37 -0.49577022 -0.51031137 -0.50532496
000240 5f 1a 33 03 7c cc 01 3f 5d 55 0e 3f 9d 65 0a 3f
       5.2633645e-37 0.50702643 0.55599004 0.540613
000250 da 5a 11 3f 62 ec 12 3f cf cd 12 3f 43 06 12 3f
       0.56779253 0.5739194 0.5734529 0.57040805
000260 c2 a5 11 3f 3c 63 36 3f 43 2d 13 3f 58 c5 11 3f
       0.5689355 0.7124517 0.5749094 0.5694175
000270 8c 26 10 3f fe ab 76 3e 31 d6 7a 3e a2 d7 01 bf
       0.5630882 0.24089047 0.2449577 -0.50719655
000280 e7 1e 02 3f 27 ca 02 3f c2 45 f8 3e a0 f4 fc 3e
       0.50828403 0.5108971 0.4849072 0.49405384
000290 4c c6 12 3f 99 41 11 3f 7e 74 3f 03 c3 7a 3a 3f
       0.57333827 0.5674072 5.626358e-37 0.7284357
0002a0 1c 5c 49 3f ef 7c 3f 3f 9b 6b 11 3f b6 d5 05 bf
       0.7865617 0.7480001 0.5680482 -0.5227922
0002b0 6f bc 63 3e 6b 32 2a bf dd 78 27 bf 6e a4 66 be
       0.2223985 -0.6648318 -0.654188 -0.22523662
0002c0 dd 23 04 3f 17 fc f4 3e a4 15 2c 40 fa d1 4b 3f
       0.51617223 0.4784858 2.6888208 0.79617274
0002d0 28 2d 0c 3f a8 8f 0b 3f ca ab f4 3e 00 ac 05 3f
       0.547564 0.5451608 0.47787315 0.52215576
0002e0 3e 96 28 83 3d f4 34 3f 26 b4 34 3f 7d 52 4c bf
       -4.9543232e-37 0.7068518 0.70587385 -0.7981337
0002f0 ec ca 33 bf 80 18 05 bf 74 ea 04 bf 02 a3 07 bf
       -0.7023151 -0.5199051 -0.5192025 -0.52983105
000300 c8 39 28 03 21 63 c7 02 56 f5 f9 3e 34 33 0e 3f
       4.9437092e-37 2.929732e-37 0.4881999 0.5554688
000310 26 b9 01 3f 60 d6 0a 3f f8 02 42 03 95 3f 2a 37
       0.5067314 0.5423336 5.7014884e-37 1.01475935e-05
000320 23 db 20 37 28 0c 33 3f 13 ad 34 3f 8f b2 34 3f
       9.587765e-06 0.69940424 0.7057659 0.7058496
000330 cb 4e 0f bf da 71 f4 be dd bb f1 be e5 ab 0e bf
       -0.55979604 -0.47743112 -0.4721364 -0.5573104
000340 fc df 47 83 20 81 be 02 75 e1 06 3f 82 b7 00 3f
       -5.8737965e-37 2.7992105e-37 0.5268777 0.5028001
000350 5e 8f 05 3f b7 58 10 3f 43 86 07 3f 63 28 21 37
       0.52171886 0.5638537 0.5293924 9.605751e-06
000360 66 b0 05 3f 96 ba 20 37 a5 c4 dd bf f2 a6 34 3f
       0.5222229 9.580186e-06 -1.7325636 0.7056724
000370 79 8e 13 bf 98 6c 0c bf d9 27 ed be dd b5 13 bf
       -0.5763927 -0.548532 -0.46319464 -0.57699376
000380 33 31 51 03 55 ec 4a 03 8f 92 54 83 72 3d 06 3f
       6.147606e-37 5.963376e-37 -6.246944e-37 0.5243751
000390 56 e1 01 3f e7 ac 0c 3f b3 be 09 3f 65 fe 20 37
       0.5073446 0.5495133 0.5380661 9.595974e-06
0003a0 4a c1 20 37 a1 12 98 be db a7 98 be 23 cc b3 be
       9.581747e-06 -0.29701713 -0.29815564 -0.3511668
0003b0 17 8f b3 be f4 d3 13 3e df a3 98 be e6 12 98 be
       -0.35070106 0.14436322 -0.29812524 -0.29701918
0003c0 c6 63 2b 03 68 6e d4 82 4a 9b b5 82 4f 85 f6 3e
       5.036692e-37 -3.121397e-37 -2.6684691e-37 0.4814858
0003d0 08 b5 fa 3e 01 49 05 3f ad 03 11 2e cd 3a 11 2e
       0.4896624 0.5206452 3.2972448e-11 3.302141e-11
0003e0 21 24 8c 2e 2a be 82 bf c7 c3 b3 be 76 ce b3 be
       6.372881e-11 -1.0214283 -0.35110304 -0.35118455
0003f0 ae ab 76 be b6 ab b3 be 56 c6 b3 be ea 3d 75 be
       -0.24088928 -0.35091943 -0.35112256 -0.239494

0.bias f4 [128]
000000 63 98 1c 40 1d 13 ec be d1 2c c5 3f 33 51 d7 bd
       2.446801 -0.46108332 1.5404302 -0.105135344
000010 b5 66 63 c0 53 f3 1d 3f dc ea e4 be e1 7b 6a bf
       -3.5531437 0.6169941 -0.44710433 -0.91595274
000020 e2 f0 ba bf e2 92 85 c0 83 0b 23 c0 0b e2 a2 3f
       -1.4604762 -4.17418 -2.5475776 1.2725233
000030 6e 5f 78 bf bd 3d df be 3f 24 99 3e 26 f4 3b 40
       -0.97020614 -0.4360179 0.29910466 2.9367766
000040 93 e0 0f c0 ac a0 0e c0 97 3c 81 3f 79 a9 43 3e
       -2.248082 -2.2285566 1.0096616 0.19107617
000050 73 87 a0 40 62 47 89 bf 63 88 29 3e e2 e0 2e c0
       5.0165343 -1.0724909 0.16555934 -2.7324758
000060 8d 1f fb bf 68 f5 50 c0 d4 8b 98 bf 11 45 24 3f
       -1.9619004 -3.2649784 -1.1917672 0.64167887
000070 91 91 a0 40 5e 4e 2d bf 33 02 13 bf e7 2e a6 bf
       5.0177693 -0.67697704 -0.5742523 -1.2983063
000080 48 11 af bf d8 59 d2 be e6 eb fe 3e cf 7b 25 c0
       -1.3677149 -0.4108417 0.4978935 -2.5856817
000090 50 d8 e6 3e 91 7b ec 3e cc 09 5f bf ea d3 51 c0
       0.45086908 0.46188024 -0.87124324 -3.2785592
0000a0 f6 85 7a 3e 74 7f ce be 0b f6 28 c0 7c c0 bb bf
       0.24465165 -0.40331614 -2.6400173 -1.4668117
0000b0 58 fe e7 be 88 1d 05 be 64 c4 25 c0 2d 23 59 40
       -0.45311236 -0.12999547 -2.5901117 3.392772
0000c0 52 ce 7a 40 eb 46 9b bf a5 68 87 be 29 f4 78 40
       3.9188428 -1.2131017 -0.26447025 3.8899024
0000d0 da 06 58 3e f4 16 0e c0 54 b4 8c 3f 95 d7 00 40
       0.21096364 -2.220151 1.0992532 2.013158
0000e0 1c 37 a1 bf 27 aa ee bf ae c6 ea be a7 e1 c6 be
       -1.2594943 -1.8645676 -0.45854706 -0.38844034
0000f0 6a 65 81 3f 89 05 26 40 3d 14 07 40 87 44 03 bf
       1.0109074 2.5940878 2.1106102 -0.5127644
000100 da 86 3e c0 2c 4d 10 bf 50 ad 4a 40 d7 90 7f c0
       -2.9769807 -0.56367755 3.1668282 -3.9932153
000110 a7 e6 05 c0 8e 43 56 c0 ed 38 4d c0 d2 ff ca bf
       -2.092203 -3.3478732 -3.2065995 -1.585932
000120 95 48 5d c0 7d 3d 55 c0 7d ea e0 40 80 fd ec be
       -3.457555 -3.331878 7.028624 -0.46287155
000130 38 a0 36 c0 e9 03 f9 be 0c c6 73 40 ec 41 30 c0
       -2.853529 -0.48635796 3.8089628 -2.7540236
000140 33 4e 1e bf 53 e5 c7 bf bb 95 31 c0 95 4c 6a be
       -0.6183807 -1.5616859 -2.7747638 -0.22880776
000150 ed dd 9a c0 24 b5 bc bf 39 a9 6a be 5d 2f c4 3f
       -4.8395905 -1.474278 -0.22916116 1.5326954
000160 1c 5e 1a bf c6 21 91 3f 2d 03 25 be 24 af 33 c0
       -0.6029985 1.1338432 -0.16114493 -2.8075647
000170 cb 70 ea bf 18 b0 29 c0 8d 41 05 c0 6b 41 ad bf
       -1.8315672 -2.651373 -2.082126 -1.3535589
000180 c2 40 16 c0 eb 1e 2c bd c7 70 71 c0 f2 25 71 40
       -2.3477025 -0.042021673 -3.7725084 3.767941
000190 21 7d 1a c0 b4 71 5b 3e 9d 60 a3 be b7 25 da be
       -2.4138873 0.21430093 -0.31909648 -0.426069
0001a0 e6 55 5f bf 1d a6 9b 40 7a 8e 92 bf b4 85 6d 3f
       -0.87240446 4.8640275 -1.144973 0.9278214
0001b0 5c f3 06 c0 e7 9f d2 3f 8e 71 a8 be 2c 95 49 bd
       -2.1086035 1.6455048 -0.32899135 -0.049214527
0001c0 4e 26 ac 3e c7 12 49 40 8b ae cd be 87 b0 57 c0
       0.33622974 3.141771 -0.40172228 -3.3701494
0001d0 5a c5 28 c0 75 47 ed bf 29 96 bf 3e a2 3b 8e bf
       -2.6370454 -1.8537432 0.3741925 -1.1111948
0001e0 6c 77 96 40 a1 ea 63 be 3d 0f 29 bf 61 ce 3a c0
       4.702078 -0.22257473 -0.66038877 -2.9188464
0001f0 d0 7a 20 40 ed 5a dd be 20 a1 2d c0 44 2e 2d c0
       2.5074959 -0.43233433 -2.7129593 -2.7059488

2.weight f4 [32, 128]
000000 58 a2 00 bf 96 b6 c0 be d6 29 e0 be ef ab 78 bf
       -0.50247717 -0.37639302 -0.43781918 -0.9713735
000010 df 96 39 c0 fd f1 76 be c0 57 db be 5f 0c 02 bf
       -2.8998334 -0.24115749 -0.42840385 -0.50800127
000020 56 e5 e3 be 0a 73 3b c0 f7 94 d7 be 11 e8 01 c0
       -0.44510907 -2.9288964 -0.4210584 -2.0297892
000030 44 a8 52 bd 95 0d 8d be 0c d0 a5 bf fa d4 14 c0
       -0.05143 -0.27549425 -1.2954116 -2.325499
000040 f0 fc a2 bb b1 8f d1 be 77 7b 88 3d 74 73 27 c0
       -0.004974 -0.4092994 0.06664174 -2.6164217
000050 b8 34 24 c0 61 4d ca be 53 9b a2 bf 6e d6 01 3f
       -2.5657177 -0.3951216 -1.2703651 0.5071782
000060 e4 0b 32 3c 83 71 91 bd 98 95 a8 3e c8 e1 94 be
       0.010867093 -0.07101729 0.3292663 -0.29078507
000070 d7 13 20 c0 5f f5 e8 be 4f f0 1c 3d 27 0b 85 bf
       -2.501211 -0.45499703 0.038315114 -1.0394028
000080 95 be a7 3e 70 1c d2 be 31 8a 84 bf 8b b2 d1 be
       0.3276259 -0.4103732 -1.0354673 -0.4095653
000090 50 4e bf 3f 87 44 95 bf 4b e9 8b bf 07 1e 3b c0
       1.4945774 -1.1661538 -1.093057 -2.9237077
0000a0 3a 67 1e bf d3 e5 cb bf d3 73 35 bf 3b d2 12 bf
       -0.6187626 -1.5929512 -0.7087986 -0.57352036
0000b0 f5 bf 8d be e0 b9 2c bf e2 9c 63 bf a9 39 04 bf
       -0.27685514 -0.6747112 -0.8891126 -0.5165048
0000c0 c3 1d 09 bf 15 50 c3 be 89 f6 b3 3f ce 26 4d 83
       -0.5356104 -0.38147035 1.4059612 -6.028863e-37
0000d0 39 91 b7 3f a4 c3 f6 be 02 54 0e c0 8c e2 f4 bf
       1.4341193 -0.48196137 -2.2238774 -1.9131637
0000e0 d0 ce 37 c0 a6 55 b3 bf 06 7c bc be 44 99 34 3e
       -2.8719978 -1.4010513 -0.36813372 0.17636591
0000f0 3b 3c 9b bf a6 8f 3b bf ad af cc be 89 74 02 bf
       -1.2127756 -0.73266065 -0.3997778 -0.5095907
000100 d4 03 26 3d 5d ba c7 be ea 91 0a c0 07 1c 23 c0
       0.040530995 -0.3900937 -2.165156 -2.5485857
000110 80 7d b5 bf 09 8d 38 c0 70 54 aa be fd df 6e be
       -1.4178925 -2.883608 -0.33267546 -0.23327632
000120 a8 b7 ab bd 8b f3 38 c0 fc 67 27 c0 9b 33 d5 be
       -0.08384639 -2.8898647 -2.6157217 -0.41640934
000130 cc 7e 05 bf 9a d5 36 3e 36 54 fc be 97 5e f7 3e
       -0.521466 0.1785492 -0.49282998 0.48314354
000140 2a 90 25 3c 9f 56 37 c0 97 65 19 bf d1 04 2c 03
       0.010105172 -2.864662 -0.5992064 5.0551786e-37
000150 97 44 3a c0 f5 c7 86 be 7f 16 3b bf ec ab 89 bf
       -2.9104364 -0.2632443 -0.730812 -1.0755591
000160 97 07 84 be 76 7e c2 3d 29 e8 10 c0 ad c4 07 be
       -0.2578704 0.09496777 -2.26417 -0.1325862
000170 1e ab bd 3f 25 24 1f bf c0 ad 07 3f 2b f9 a2 bf
       1.4817846 -0.6216453 0.52999496 -1.273229
000180 ea 16 a5 bd 18 f1 aa 3e 74 6f 97 be 00 f2 14 c0
       -0.08061011 0.33387065 -0.2957722 -2.3272705
000190 47 a9 9c bf 69 d3 b6 bf 1d 46 c2 be 79 3a 37 3d
       -1.2239159 -1.4283267 -0.37944117 0.0447335
0001a0 d1 ef e2 3e b3 17 8e bf 66 e5 07 bf 84 2d a3 bf
       0.4432359 -1.1100982 -0.5308441 -1.2748265
0001b0 3d c4 49 bf 2e ed 8a be d6 b0 4f bf 63 6a ce bf
       -0.7881506 -0.2713408 -0.81129205 -1.6126217
0001c0 c1 85 05 bf 1d 46 be bf c1 74 d0 be 96 1c 20 3d
       -0.5215722 -1.4865147 -0.40714076 0.03908976
0001d0 50 3c 36 39 5b 56 b1 3e db 40 3f bf 1e af c1 bf
       0.0001737934 0.34636196 -0.74708337 -1.5131567
0001e0 32 3c 34 c0 88 90 b2 be 3c f7 42 be 98 c1 a7 bf
       -2.816174 -0.34875894 -0.19039625 -1.3105955
0001f0 57 45 1e c0 71 12 8b be 94 be f1 be e0 40 d7 82
       -2.4729822 -0.27162507 -0.47215712 -3.1628647e-37
000200 56 4a 40 83 a1 7e 0b bf 78 4b c4 02 a2 bc 4f 83
       -5.6509062e-37 -0.54490095 2.8842929e-37 -6.1048373e-37
000210 76 77 20 03 35 8e b0 02 b7 a2 4f 83 20 9f 1a bf
       4.715691e-37 2.5942499e-37 -6.101862e-37 -0.60399055
000220 6a 1a c5 82 f4 15 32 03 f0 ca 55 83 0f 93 18 bf
       -2.896171e-37 5.23347e-37 -6.2828035e-37 -0.59599394
000230 58 70 db 82 a2 38 12 bf 72 01 1c bf 24 97 51 03
       -3.224364e-37 -0.57117665 -0.60939705 6.159308e-37
000240 00 04 be 02 38 74 4a 03 9a d3 34 03 1b b5 19 bf
       2.7920287e-37 5.9495877e-37 5.3140152e-37 -0.6004197
000250 44 aa 4e 83 c7 1e 3c 83 c0 d0 00 bf 8c c3 17 bf
       -6.0733414e-37 -5.5283565e-37 -0.5031853 -0.59282756
000260 5e d2 42 83 f0 a4 4a 03 8c e4 e3 01 e6 46 02 bf
       -5.7252966e-37 5.9551804e-37 8.371458e-38 -0.5088943
000270 86 0f f6 82 97 3e 02 bf 9d 47 05 bf 5a 32 3a 83
       -3.6155361e-37 -0.50876755 -0.520624 -5.471829e-37
000280 04 e4 64 82 be 98 3e 03 03 57 0b bf b0 2f 3b 03
       -1.6816232e-37 5.601132e-37 -0.54429644 5.5009103e-37
000290 58 4a 3e 83 b9 49 20 bf ae 2d ab 82 5a c0 e9 81
       -5.5921324e-37 -0.6261249 -2.515241e-37 -8.5866693e-38
0002a0 4a 95 08 03 71 f9 3b 03 6e 7a 55 83 2a ec 0e bf
       4.0138183e-37 5.5240706e-37 -6.2735617e-37 -0.5582911
0002b0 87 97 0a bf f0 08 18 bf c2 9c 83 be b7 11 15 bf
       -0.5413746 -0.5938864 -0.25705534 -0.58230156
0002c0 28 d8 fa be cf 06 05 bf b8 9b a4 82 00 e1 67 00
       -0.4899304 -0.51963514 -2.4187012e-37 9.539771e-39
0002d0 02 4f 48 83 4c 56 13 bf af 87 1e bf c1 e0 4a 83
       -5.8865414e-37 -0.57553554 -0.61925787 -5.962047e-37
0002e0 e2 2d b5 02 dd ad 55 83 95 34 0e bf 50 07 3c 81
       2.6621895e-37 -6.279466e-37 -0.55548984 -3.4535393e-38
0002f0 ba ff fc be c6 2a 03 bf c1 46 02 bf bc 10 2f 03
       -0.49413854 -0.5123714 -0.5088921 5.144709e-37
000300 02 c5 a6 82 b8 6c 4c 03 07 05 07 bf 69 5b 50 03
       -2.4504585e-37 6.0075015e-37 -0.52742046 6.123064e-37
000310 48 9d 48 83 0b 3c 30 83 54 a8 e9 02 19 48 02 02
       -5.8955268e-37 -5.1790677e-37 3.4332889e-37 9.571583e-38
000320 85 62 e3 02 f8 0f 4a 03 15 b3 00 bf a8 88 0e 00
       3.34112e-37 5.9380796e-37 -0.5027326 1.33472e-39
000330 6b 6f 0c bf c2 34 d9 81 21 ed 14 bf 5f 11 1c bf
       -0.5485751 -7.9788914e-38 -0.5817433 -0.60964006
000340 1b 36 2e 03 c8 f5 d1 02 14 c5 53 03 88 3e 3c 03
       5.1196114e-37 3.0850861e-37 6.223356e-37 5.5320017e-37
000350 76 db db 82 e5 a9 54 83 32 84 99 02 01 81 00 bf
       -3.2305122e-37 -6.249623e-37 2.2557206e-37 -0.50196844
000360 7a cc f5 be e0 eb ab 02 19 9a 2f 83 c2 6f 51 83
       -0.48007566 2.5261577e-37 -5.1604773e-37 -6.154787e-37
000370 96 02 e2 82 32 fd 03 bf d9 64 f0 be 85 9a 1f bf
       -3.32092e-37 -0.5155822 -0.4695194 -0.62345153
000380 80 2e f9 be 70 f6 4b 02 90 9a 0f bf ec c2 f9 be
       -0.4866829 1.4984809e-37 -0.5609522 -0.48781526
000390 3c 48 fa be 51 10 05 bf 0c 2a 27 83 31 e3 00 83
       -0.48883235 -0.5197802 -4.9125157e-37 -3.787662e-37
0003a0 ce b4 0b bf 61 5e 1b bf 69 b1 ab be 0d 0c c0 02
       -0.5457276 -0.60690886 -0.3353379 2.8218781e-37
0003b0 a4 0b be 02 94 46 02 bf 6e 80 56 83 a8 ce ee 01
       2.7924672e-37 -0.50888944 -6.303638e-37 8.772393e-38
0003c0 13 48 1c bf 7d 82 01 bf 4c 8a 45 83 7e 07 2b 83
       -0.61047477 -0.50589734 -5.8051854e-37 -5.0260984e-37
0003d0 c1 3b 32 03 2b 26 49 83 e0 1c 9d 82 e0 90 af 02
       5.2378093e-37 -5.9112406e-37 -2.308565e-37 2.5797093e-37
0003e0 4b f7 bd 02 95 54 45 83 46 8f 0e bf c0 88 8a 81
       2.7912993e-37 -5.799019e-37 -0.5568737 -5.088942e-38
0003f0 dc 85 a3 81 73 84 12 bf ac 86 08 bf c8 2d 11 03
       -6.006882e-38 -0.5723335 -0.5333049 4.2664225e-37

2.bias f4 [32]
000000 aa 58 38 c0 df d4 04 bf d1 6c 74 be 34 a1 ee bf
       -2.8804116 -0.51887316 -0.23869635 -1.8642945
000010 34 20 af bf d3 0c 00 bf a9 2c e6 be 28 ba 8b bf
       -1.3681703 -0.5001957 -0.44955948 -1.0916185
000020 99 4d 34 c0 0d 9a ae bf 6b 2e 8c bf c2 6f ee be
       -2.8172362 -1.3640763 -1.0951666 -0.4656964
000030 63 ad 91 bf 9e 48 01 bf e6 dd 03 bf 73 0c 67 be
       -1.1381038 -0.5050143 -0.51510465 -0.22563343
000040 4e bf 0a bf 2b cb ee bf 38 29 20 bf 3d fa 14 bf
       -0.5419816 -1.8655752 -0.62562895 -0.58194333
000050 2c bc bd be a8 42 53 c0 e7 f6 06 bf 66 ae 1b bf
       -0.37057626 -3.3009434 -0.52720493 -0.60812986
000060 f0 fb 02 bf b3 47 78 bf 1c c9 02 bf 50 c1 d8 bb
       -0.51165676 -0.96984404 -0.5108812 -0.0066148415
000070 73 f4 6d bf e6 40 99 bd b2 95 b1 bf 4d c5 8e bc
       -0.92951125 -0.074830815 -1.3873808 -0.017428065

4.weight f4 [32, 32]
000000 c1 df 09 40 0c de 31 3f 98 56 87 0b 14 9f 09 3f
       2.1542819 0.6947944 5.21304e-32 0.5375836
000010 f2 44 f2 3e a7 95 9d 3e 1c 99 27 3f d1 21 44 c0
       0.47318226 0.30778238 0.65468 -3.064564
000020 de 16 49 bf 73 3c 68 3f 7a 8d ab bd 6c 2b 2a 3d
       -0.7855052 0.9071724 -0.08376594 0.041545317
000030 0e 15 7a bd 94 14 0b 3f 18 93 12 3f 3e 4d 24 3a
       -0.061055236 0.54328275 0.572557 0.00062676135
000040 87 af 0d bf 4b 23 c4 3f ba e4 9d 3e 5e fd 09 3f
       -0.5534596 1.532327 0.30838567 0.5390223
000050 e6 fc 04 3f 3a 66 70 c0 17 36 0b 3f 5a 0b da 3e
       0.5194839 -3.7562394 0.5437941 0.42586786
000060 d0 b3 02 3f 2d ae 39 be ab 66 50 3f 2c e5 1e 35
       0.5105562 -0.18132849 0.8140666 5.9193076e-07
000070 33 e6 0e 3f c5 6f 2b 89 b5 96 bf 3f 9d 9b f3 a4
       0.55820006 -2.063593e-33 1.4967867 -1.0564807e-16
000080 1a 18 7e 3f 6a b0 33 3f 4c ee 92 3a 72 e0 62 3f
       0.99255526 0.7019106 0.0011209934 0.88623726
000090 7f 30 19 3f f8 3d 42 3f a7 e8 09 3f 2d 6d 42 bf
       0.59839624 0.75875807 0.53870624 -0.7594784
0000a0 ed 6c fa 3f 3f 3c ff bc 2e b9 4d bd 5f bf d1 3e
       1.9564492 -0.031156657 -0.05022543 0.40966317
0000b0 1d 0b 8f 3f af eb f9 3e 89 37 44 3f 2f 17 c1 3b
       1.1175267 0.48812625 0.7664724 0.0058926563
0000c0 54 47 0d bf 1c 38 80 bc 82 65 df 3d 79 28 1b 3f
       -0.55186963 -0.015651755 0.10908033 0.6060863
0000d0 f8 a4 47 3f ac 32 0c c0 2c 19 09 3f c8 c8 3a 3f
       0.779861 -2.1905928 0.53554034 0.7296262
0000e0 74 5a 02 3f 2c 13 44 3f 51 ff 47 3f 6f 00 01 3d
       0.5091927 0.76591754 0.78123957 0.031494554
0000f0 2e 78 2a 3f 1b 4c 14 28 3d f7 23 be d6 52 01 33
       0.6658963 8.232153e-15 -0.16012283 3.0110492e-08
000100 8a 06 75 3f 1c e0 34 3f 39 c2 40 03 27 02 93 be
       0.957131 0.70654464 5.6646686e-37 -0.2871258
000110 b8 f1 98 3e f9 56 f9 3e eb 54 13 3f c1 6b 3e c0
       0.29871917 0.48699167 0.5755145 -2.9753268
000120 23 c5 ba bf a6 54 90 3f a4 2e 06 3e 4d 30 cb bd
       -1.4591411 1.1275833 0.1310373 -0.09921322
000130 8b 07 7b 3b 5b a2 0c 3f 48 1c 1b 3f 74 7c 16 34
       0.0038304057 0.54935235 0.6059003 1.4015114e-07
000140 12 58 0d bf 0b f7 8f 3f 8a b1 30 3e 68 bd 23 3f
       -0.5521251 1.1247267 0.17255226 0.63960886
000150 a7 00 16 3f 30 ea 33 c0 f6 d8 d9 3e d2 bd 06 3f
       0.58594745 -2.8111687 0.4254834 0.5263339
000160 57 94 02 3f 53 59 d0 3c 84 de 50 3f e0 da 97 12
       0.510076 0.025433218 0.8158953 9.583397e-28
000170 4c b1 d7 3e bd a9 2d 81 fe 12 ad 3f 4c 3e 98 97
       0.42127454 -3.1896863e-38 1.3521421 -9.838496e-25
000180 0b bb 8f 3d 98 fd 01 bf 52 f3 16 bb 62 04 1c bf
       0.070180975 -0.5077758 -0.0023033214 -0.6094419
000190 6f 1c 9b be 78 0c 15 bf d1 74 08 bf 25 aa 8a 3f
       -0.3029513 -0.5822215 -0.5330325 1.0833174
0001a0 33 a2 c0 be 4d ee e2 be fe 37 ab 3d ae 0b af 3d
       -0.37623748 -0.44322434 0.08360289 0.085471496
0001b0 95 37 4a 3d 8d 16 d3 be 95 bb 0c bf e7 d4 7a bc
       0.049369413 -0.41228142 -0.5497373 -0.015309549
0001c0 49 5a 0c bf b9 7d 3b bd 7b 3b bc be e2 b1 d4 be
       -0.54825264 -0.045774195 -0.3676413 -0.41541964
0001d0 04 e7 fa be a1 4d 52 bf f4 7e 09 bf ef 05 47 bf
       -0.49004376 -0.821497 -0.5370934 -0.7774343
0001e0 cd 9f 02 3f ef 4c 03 3e 65 1b 1b bf fe 9d 81 bd
       0.51025087 0.12822317 -0.60588676 -0.06328963
0001f0 9c 93 0c bf 18 f4 9d a4 a5 b0 e9 be 3e cc 18 b1
       -0.54912734 -6.850141e-17 -0.45642582 -2.223501e-09
000200 49 04 99 be 25 a0 e7 be b8 a3 09 b9 61 3c 3e bf
       -0.29886082 -0.45239368 -0.00013126328 -0.7431088
000210 e7 32 18 bf c7 f9 0b bf 5a d2 0b bf 3f 74 17 3e
       -0.5945267 -0.54678005 -0.54617846 0.14790438
000220 c4 c4 e5 bf 46 29 68 bf 11 85 af bd be f7 77 3e
       -1.7950673 -0.9068798 -0.08570302 0.242156
000230 27 1e 7f 3f 7a 3c d1 be b2 4b 06 bf 40 0e 6b 39
       0.99655384 -0.40866452 -0.5245925 0.00022416655
000240 56 31 0d bf c4 1d 98 bf 4c b5 0d bf 6f 97 09 bf
       -0.55153406 -1.1884084 -0.5535476 -0.53746694
000250 0a dd a4 be 6a a8 d9 3f 02 b6 c3 be b1 f0 e9 be
       -0.3219989 1.7004521 -0.38224798 -0.45691445
000260 53 93 02 3f 18 86 44 3f e7 6e b4 be 0b 13 5e bb
       0.5100605 0.7676711 -0.35240862 -0.0033885862
000270 05 19 09 bf 8c 5a cf b3 f4 33 98 bf c4 c0 09 b9
       -0.535538 -9.655659e-08 -1.1890855 -0.00013137149
000280 28 7b 22 bf 10 fb f8 be ac f0 93 3a 3e c9 3b bf
       -0.6346917 -0.48629045 0.0011286936 -0.73353946
000290 d8 a7 22 bf 2c 3e 11 bf 7c 60 97 be 6f de 91 3c
       -0.6353736 -0.5673549 -0.295658 0.01780626
0002a0 04 2e 22 c0 fe c2 dd be 93 06 95 3d a9 c2 99 3e
       -2.5340586 -0.4331283 0.072766446 0.30031326
0002b0 6d 15 3a 3e 86 07 ac be 9c e0 bb be db 52 55 3c
       0.18172236 -0.3359949 -0.366948 0.013020243
0002c0 32 9f 0d bf 4b ad b0 bf 69 ee 02 bf ac 5a d8 be
       -0.5532104 -1.3802885 -0.51145035 -0.42256677
0002d0 16 29 0c bf 09 30 83 3f 75 18 c0 be d6 61 1d bf
       -0.5475019 1.0249034 -0.3751866 -0.6147741
0002e0 3b 98 02 3f 46 a8 4f 3d 89 4c 90 be 01 8f 69 3d
       0.51013535 0.050697587 -0.28183392 0.057021145
0002f0 8e 95 1a bf 5c 8d 32 1f 32 8e f7 be 48 87 77 2e
       -0.6038445 3.7809896e-20 -0.48350674 5.628145e-11
000300 12 25 1c c0 f7 ed 19 bf ad 6f 58 b5 5c 7a bf be
       -2.4397626 -0.6012873 -8.062878e-07 -0.3739804
000310 63 c1 06 bf 24 59 c6 be 10 bc 0b bf 06 8c 0a 40
       -0.52638835 -0.38739884 -0.54583836 2.1647964
000320 87 33 96 3f 4f 44 10 bf c1 89 bf 3c 0f 54 53 3c
       1.1734475 -0.5635423 0.023381116 0.012898459
000330 1d 44 71 3f f4 4a d3 be 4a 2c b8 be d2 7c 7f 38
       0.9424456 -0.41268122 -0.3597129 6.0912986e-05
000340 b0 1d 0c bf d1 67 a4 bf ec 0c f2 be 81 2e 11 bf
       -0.547328 -1.2844182 -0.47275484 -0.56711584
000350 3a 4e c6 be 88 3e 04 3f 47 73 ae be c6 de e1 be
       -0.38731557 0.51657915 -0.34072325 -0.44115275
000360 7c 89 01 3f fe 4b 18 3f cc ac 95 be 92 68 4c b8
       0.5060041 0.59490955 -0.29233396 -4.873478e-05
000370 8a c9 9f be 59 c4 d4 ae a5 02 85 bf 46 0d 5b b6
       -0.3120845 -9.675522e-11 -1.0391432 -3.264127e-06
000380 cc 34 db be bd 7a 2d 3f 48 99 55 b5 6e bf a3 3f
       -0.42813718 0.6776541 -7.9571737e-07 1.2792795
000390 a2 f3 19 3f 0f 34 00 3f 91 f4 0e 3f 7d 9d 9d be
       0.6013738 0.50079435 0.5584193 -0.30784217
0003a0 33 c0 60 3f 03 fa 07 3f aa f6 98 3d 96 d8 2e be
       0.8779327 0.5311586 0.074689224 -0.17074808
0003b0 9f db ed 3c 45 06 0e 3f c9 43 a3 3e b9 59 f9 2d
       0.029035388 0.55478317 0.31887653 2.8347867e-11
0003c0 e1 49 0e 3f 35 c9 81 3f dd ae 75 3e a6 54 1d 3f
       0.5558148 1.0139529 0.23992486 0.6145729
0003d0 d5 d0 1a 3f 63 31 51 3f 00 f2 1d 3f 56 cf fc 3e
       0.604749 0.81715983 0.6169739 0.49376935
0003e0 9e a8 01 bf 81 98 1b be 8d dc 0c 3f 9f ee 82 b9
       -0.50647914 -0.15194894 0.55024034 -0.0002497332
0003f0 c9 9b f1 3d 01 de f8 a9 ed 53 4c 3f fb 46 10 b4
       0.11797292 -1.1051924e-13 0.7981556 -1.3436868e-07

4.bias f4 [32]
000000 ce f5 8b 3f a2 e5 0a c0 dd 93 ae 3f 2c 4c 45 c0
       1.0934389 -2.1702657 1.3638874 -3.0827742
000010 4a 7d 80 40 08 c7 72 40 71 8e 5e c0 73 88 5d c0
       4.015294 3.793398 -3.477444 -3.4614532
000020 f5 dc 1a c0 82 f1 fe bf 17 76 3e c0 b5 6c 79 40
       -2.4197361 -1.9917452 -2.9759576 3.89726
000030 5c 22 99 bf 8d 0b 61 40 79 b3 3e c0 54 bb 39 40
       -1.1963611 3.51633 -2.9797041 2.9020586
000040 54 bb b1 3f d8 bc 0d 3e e0 e2 84 3f 33 1b 05 40
       1.3885293 0.1384157 1.0381737 2.079785
000050 ff 2d 64 40 c2 eb 32 c0 49 5d 85 c0 14 59 83 c0
       3.5653074 -2.7956395 -4.1676373 -4.104624
000060 14 72 97 bf 9d dd 0e 40 d2 ed 2b 40 11 7f 73 40
       -1.1831689 2.2322762 2.6863904 3.8046305
000070 d9 15 4a 40 4b 8e 7a c0 cd b9 a9 3e ae b6 e5 3f
       3.1575835 -3.9149349 0.33149567 1.7946374
