model/autoencoder-cpu-0-5-100.pth (torch, 150935 bytes, 6 tensors)

0.weight f4 [128, 256]
00000000: d341 1cbd 60a5 24bd 5698 17bd 4f73 2fbd
00000010: 301d c9bc 140f c2bc 2da7 3dbd 74ba e4bd
00000020: 4b62 18bd 0bfa 2ebd 7775 1dbd 5f84 2cbd
00000030: 97a7 b7bc 5c85 bfbc fea1 b3bc 78e1 b2bc
00000040: 6217 17bd c351 a8bc b658 adbc f9f1 c7bc
00000050: 5273 acbc e349 b3bc 30f3 30bd f448 45bd
00000060: 1c76 2fbd a81d 25bd feb2 34bd 1291 b3bc
00000070: b2f3 c0bc 1b82 b7bc e82a b3bc 424e bcbc
00000080: 3ad9 e6bd 0be3 1abd 52dd 1fbd d957 25bd
00000090: d7d0 25bd 30f1 bbbc ad64 afbc fa71 3fbd
000000a0: 81cb 35bd 66ec 14bd 4c6d 21bd 42cd 2abd
000000b0: a817 cbbc 7aa0 14bd 7a5f adbc 01fb bbbc
000000c0: ed38 3abd 90b9 33bd 4822 34bd 0c9a 3ebd
000000d0: 9343 3cbd 76fd dabc 629e e1bc d01d 40bd
000000e0: baf9 30bd a92c 2bbd 8063 2bbd 68af 18bd
000000f0: 084e c5bc 9037 16bd 3014 c5bc 6bce abbc
00000100: ed22 b1bc 3829 27bd 8c27 14bd 24a3 11bd
00000110: 8af1 19bd f47f 07be 38e7 babc a835 94bc
00000120: 1a8b 10bd b53f 1bbd 3953 15bd 5337 17bd
00000130: 449f bebc 9f82 afbc 0fe7 2dbd ff18 34bd
00000140: 3570 3ebd bf6d 36bd d5ed 2abd 24d8 16bd
00000150: 7091 0ebd 119a 0cbd b3f5 a8bc 0af0 9dbc
00000160: 42f1 0fbd 4b49 10bd 72e2 14bd 485f 1bbd
00000170: 80ca 0fbd a6ea b4bc 466d 2fbd 95af 1cbd
00000180: cbcb 40bd 37e3 2fbd cf48 1fbd ba51 16bd
00000190: c2e3 0fbd 860e 04bd eab7 9cbc 0dde 9dbc
000001a0: 884d a2bc 631e 9dbc 4894 9cbc 15b5 20bd
000001b0: a210 97bc 27c0 bcbc 3fa9 27bd e498 21bd
000001c0: 54de 26bd f92d 2cbd b765 2fbd b271 19bd
000001d0: 0993 04bd 6dff 1bbd e7d0 03bd 32fe 1abd
000001e0: 07b1 22bd a532 1fbd 0e89 a5bc 8569 31bd
000001f0: ed5f acbc 1eae 2ebd ccab 1dbd ac32 1fbd
00000200: 8ced 20bd e9bf 34bd 3bbb 23bd d1bb 12bd
00000210: b400 1fbd bb0d 0abd fce6 1abd 5624 0cbd
00000220: 38e8 0ebd e217 13bd 22b1 bcbc f3d2 b8bc
00000230: 8df7 b2bc d663 1cbd d359 33bd efa2 2bbd
00000240: 9a40 34bd 36d7 47bd b0b2 2ebd 473b 25bd
00000250: d8ac 10bd 0dd0 0cbd 0626 12bd 689f 0ebd
00000260: 190a 13bd eb56 0ebd 1d39 2cbd 8dd6 04bd
00000270: 34d8 13bd 33a5 2cbd c0e4 25bd 7846 28bd
00000280: fc3c 2dbd 7e23 35bd 2bf2 90bd 47e7 26bd
00000290: 46ae 00bd 15a8 03bd c98c 22bd d3d1 03bd
000002a0: cc0a f8bc bf87 09bd 5d66 f9bc 1dc0 0cbd
000002b0: a9a9 ffbc 4581 12bd 3447 08bd 8e89 6ebd
000002c0: 03d3 a5bc b9ce 9ebc 26bd 39bd 999f 21bd
000002d0: efe9 11bd 5ab2 f1bc 9a48 0fbd 0c22 0bbd
000002e0: 76cd 05bd 79bd fbbc 666c f6bc 1cf3 13bd
000002f0: a102 01bd b448 1fbd 9e38 08bd 0c5e 17bd
00000300: cd1d 91bc 1f9a a5bc 8198 43bd 06dc 1dbd
00000310: e3eb 24bd 680f 00bd 679c f7bc ffb9 4bbc
00000320: 7e68 83bc c50d fabc be64 fabc 17ba 0abd
00000330: 1bd2 0bbd da90 16bd 01ef 19bd b0db 36bd
00000340: acbd 9fbc 3908 99bc 7c5a c4bc c01e 8dbc
00000350: ddd2 1fbd 9e23 febc b8d2 14bd 6c10 5bbc
00000360: d93b 07bd f922 20bd 8c82 24bd 505e 07bd
00000370: fde1 04bd b1c8 8cbc e8bb 97bc 2d13 19bd
00000380: 7136 01be 5830 95bc 0e19 a5bc 50a8 a2bc
00000390: e613 92bc b35c bfbc bb4b a5bc 3b9f 85bc
000003a0: 4d7a 08bd 6fae 0bbd be7e 99bc 2caf 9abc
000003b0: 55fa 95bc 8c86 b3bc 3996 abbc 63d6 29bd
000003c0: 234c 8dbc 48aa 93bc a564 30bd c3e0 35bd
000003d0: 52ae 23bd e149 31bd 3a19 94bc 40cf a2bc
000003e0: 8881 9abc 1718 9fbc d0fa 94bc b0e5 a2bc
000003f0: ce2f 88bc a6f9 a3bc c244 b8bc f613 22bd
-0.038148712 -0.040196776 -0.037010513 -0.042834576 -0.02455005 -0.02368883 -0.04630201 -0.111683756
-0.037203114 -0.04271893 -0.0384421 -0.042118426 -0.02241878 -0.02337902 -0.02192783 -0.021836028
-0.036887534 -0.0205468 -0.021160465 -0.024407374 -0.021051083 -0.021885818 -0.04320067 -0.048165277
-0.042837247 -0.040311486 -0.044116013 -0.02191976 -0.023553703 -0.022400906 -0.021871045 -0.022986535
-0.112719014 -0.03781418 -0.039029427 -0.04036698 -0.04048237 -0.022942156 -0.02141031 -0.046739556
-0.04438353 -0.03635826 -0.039410874 -0.041699655 -0.024791554 -0.036285855 -0.02116369 -0.022946836
-0.045464445 -0.043878138 -0.043978006 -0.04653363 -0.04596288 -0.026732188 -0.027541343 -0.04690343
-0.043206908 -0.041790638 -0.041842937 -0.037276655 -0.02408506 -0.036674082 -0.024057478 -0.020972451
-0.0216231 -0.040810794 -0.036170527 -0.035555974 -0.037583865 -0.13232404 -0.022815332 -0.018091992
-0.035288908 -0.037902553 -0.03645632 -0.036917996 -0.023269303 -0.02142459 -0.042456683 -0.04396915
-0.046493728 -0.044538256 -0.04173072 -0.03682722 -0.03480667 -0.034326617 -0.020624971 -0.019279499
-0.03514219 -0.035226148 -0.036348768 -0.037932664 -0.03510523 -0.022084545 -0.04282882 -0.038253386
-0.047069352 -0.0429413 -0.038887795 -0.036699034 -0.035129316 -0.032240413 -0.019130666 -0.019270921
-0.01981236 -0.019179529 -0.019113675 -0.039235193 -0.018440548 -0.023040844 -0.04093289 -0.03945245
-0.040739372 -0.04203603 -0.042821612 -0.037461944 -0.032366786 -0.03808539 -0.032181647 -0.037840076
-0.039719608 -0.038866658 -0.020206954 -0.043313522 -0.021041835 -0.04264652 -0.038493916 -0.038866684
-0.039289042 -0.044128332 -0.03997348 -0.035823647 -0.03881903 -0.0337045 -0.03781794 -0.03421434
-0.03488943 -0.03591145 -0.023033682 -0.022561526 -0.021846557 -0.03818115 -0.043786835 -0.041903432
-0.04400692 -0.048789226 -0.04265088 -0.040339734 -0.035321087 -0.0343781 -0.035680793 -0.03481999
-0.0358983 -0.03475086 -0.042046655 -0.032431174 -0.03609486 -0.042149734 -0.040501356 -0.04108283
-0.042294487 -0.0442233 -0.0707744 -0.040747907 -0.0314162 -0.032142717 -0.039685044 -0.032182526
-0.030278586 -0.033576723 -0.030444318 -0.0343629 -0.03120883 -0.035767812 -0.03327103 -0.05823665
-0.02024222 -0.019385682 -0.0453464 -0.039458845 -0.035623487 -0.02950399 -0.034981348 -0.033968017
-0.032666646 -0.030729996 -0.030080985 -0.03612052 -0.031496648 -0.038887694 -0.03325712 -0.036954924
-0.017714405 -0.020215092 -0.04775286 -0.03853991 -0.04026402 -0.031264693 -0.030225946 -0.012434482
-0.016041037 -0.030524144 -0.030565616 -0.033868875 -0.03413592 -0.036759235 -0.037581448 -0.044643104
-0.019499622 -0.018680679 -0.023968928 -0.017226577 -0.039019454 -0.031022843 -0.03633377 -0.0133706145
-0.03301606 -0.039095853 -0.04016356 -0.033048928 -0.03244208 -0.01718554 -0.018522218 -0.037371803
-0.12618424 -0.018211529 -0.020153549 -0.019855648 -0.017831754 -0.023359632 -0.020177713 -0.016311279
-0.03331976 -0.0341019 -0.018737193 -0.018882357 -0.018307844 -0.021914743 -0.020945655 -0.04146422
-0.017248219 -0.018025532 -0.043064732 -0.044403803 -0.039961167 -0.043283347 -0.018078435 -0.019874215
-0.018860593 -0.019420667 -0.018186003 -0.019884914 -0.016624358 -0.020016503 -0.022493724 -0.039569817

0.bias f4 [128]
00000000: 88b3 20bd 9e8a 8902 471b ae82 cbf9 bebe
00000010: 6697 b082 28ec a482 91b2 eabc 9c18 b482
00000020: 9a07 0f02 c798 bcbe 61c5 f1be 97d0 8982
00000030: 07e1 1a81 0014 44ae 6f2d cebe 2309 cbbe
00000040: 71b8 b382 3300 d492 c6fb c7be 8bd3 4882
00000050: 43f6 babe bd8c b682 f1b6 4282 52b4 ccbe
00000060: 0b69 b382 6480 4c03 a823 ac82 7b97 08bd
00000070: ba91 b882 85e2 dcbe b7e2 ab02 6f66 ff82
00000080: a30c d4be 722f ac82 fad0 9e02 502c 5283
00000090: 9529 d4be db60 c7be 705f b382 be73 b982
000000a0: a5f7 a882 0e3c a002 82bb b282 ba36 0782
000000b0: 9a2b b582 2e1e ccbe 601f a802 a200 aa82
000000c0: 767b af82 64fb cfbe 9e4d b582 1a46 efbe
000000d0: 4726 be82 a02a 3982 1495 c681 4478 0982
000000e0: 4e1c 9c82 06bf 2482 e43e c5be 7775 d6be
000000f0: 3e82 aa82 315f a782 dc4a bfbe 62b4 a282
00000100: 5f7c dabe 1ba8 c4be 5f1c a682 78c2 f5be
00000110: 5c2b cb3d f70f e6be 80cd b682 4084 aa02
00000120: 8b62 bcbe cdd9 9a01 52a3 c9ad 1404 1802
00000130: 1bda be82 cc36 a682 0472 c0be f126 d8be
00000140: aac5 bd82 ee3f b982 63ac a482 a768 e3be
00000150: 2dfa 7882 f0b1 f6be 6d07 b782 1d1d dfbe
00000160: c3c3 bebe 74b4 f8be 35ac dfbe bfd0 ae82
00000170: d355 ab82 d668 d3be d5e1 c8be 522a c3be
00000180: 34c0 efbe 9327 a682 3c9a 6482 40e2 0dbc
00000190: 6f3a 6b82 a2c2 aa82 4ba8 bdbe d8b3 a782
000001a0: d01b a682 41da c9be 179f b782 6491 98bd
000001b0: 4afe 9cbb d203 b082 5491 8e81 8402 d0be
000001c0: 6710 ba3e 6883 b582 f075 75bd dc01 a082
000001d0: 7753 ccbe 791d ffbc 2415 6982 fc12 c5be
000001e0: d181 9282 93f7 a602 a7b5 a382 dcc7 b882
000001f0: 8622 a782 1f27 d4be adc6 bfbe 3992 c4bd
-0.039233714 2.0209903e-37 -2.5582659e-37 -0.37299952 -2.5947774e-37 -2.4233181e-37 -0.0286496 -2.6462748e-37
1.0508162e-37 -0.3683531 -0.472209 -2.0250065e-37 -2.8446782e-38 -4.4583004e-11 -0.40269038 -0.39655408
-2.640755e-37 -1.337913e-27 -0.39059275 -1.4754389e-37 -0.36516008 -2.6823276e-37 -1.4305371e-37 -0.39981323
-2.6361978e-37 6.0097597e-37 -2.5293594e-37 -0.033347588 -2.7120013e-37 -0.4314157 2.525632e-37 -3.7527676e-37
-0.4141589 -2.530036e-37 2.333596e-37 -6.176432e-37 -0.41437975 -0.38941082 -2.6356465e-37 -2.724974e-37
-2.4827522e-37 2.3544357e-37 -2.6262374e-37 -9.933939e-38 -2.6620586e-37 -0.39866775 2.470339e-37 -2.4979618e-37
-2.5784802e-37 -0.40621483 -2.664011e-37 -0.4673317 -2.793996e-37 -1.3603886e-37 -7.294763e-38 -1.0099685e-37
-2.2938386e-37 -1.2103638e-37 -0.38524544 -0.41886494 -2.505401e-37 -2.4593082e-37 -0.373618 -2.3907295e-37
-0.42673013 -0.38409504 -2.4407792e-37 -0.4799993 0.099203795 -0.44934055 -2.6860448e-37 2.5055163e-37
-0.36793932 5.6883194e-38 -2.2923583e-11 1.1168367e-37 -2.8043177e-37 -2.442296e-37 -0.37586987 -0.4221721
-2.7884508e-37 -2.722e-37 -2.419658e-37 -0.4441578 -1.8291959e-37 -0.4818263 -2.6893695e-37 -0.435769
-0.3725873 -0.48575175 -0.4368607 -2.5686817e-37 -2.5175452e-37 -0.4129092 -0.39234796 -0.38118225
-0.46826327 -2.4414222e-37 -1.6795058e-37 -0.008659899 -1.7281843e-37 -2.5090969e-37 -0.3704246 -2.464167e-37
-2.4407471e-37 -0.39424327 -2.6980746e-37 -0.07449606 -0.004791056 -2.5863068e-37 -5.23711e-38 -0.4062692
0.3634064 -2.6670983e-37 -0.059926927 -2.3510954e-37 -0.3990743 -0.031141983 -1.7124204e-37 -0.38491046
-2.1527283e-37 2.4533608e-37 -2.405496e-37 -2.7151084e-37 -2.455826e-37 -0.41436097 -0.37456265 -0.09598202

2.weight f4 [32, 128]
00000000: 73b3 053e 64e5 3903 9014 3082 dba0 c22d
00000010: 223f 4a83 a816 2883 1e6c d23e c842 a402
00000020: 048a bf01 89db af02 f18a 7b2f 5e78 4283
00000030: 28a0 a782 814a 3103 aece f62f e4ba a802
00000040: a056 b300 4e72 b502 7dd6 8a31 a631 5483
00000050: 4f61 fbbe ec1e 5b82 7ca4 4483 6807 5630
00000060: cd88 5583 531b 2403 208d 2f03 14d2 ae3e
00000070: b887 be82 bef8 4f28 b8ca 8902 dcba 9502
00000080: 7548 412c b0a6 4c83 7a58 5583 daf7 4d03
00000090: a370 ac02 02d4 b130 72cd 0f83 ea1b 4083
000000a0: a872 3f03 44b9 7701 cb30 3983 c676 4d03
000000b0: aa1a ab82 da93 0b2f f0ee 3303 1ed3 4383
000000c0: 41e6 8182 d07f 812e a4f9 2a03 7c61 332d
000000d0: 862b a802 d61a c902 e210 5203 3865 3003
000000e0: e043 5103 cc67 dd82 8bd5 ae02 5a31 9731
000000f0: a06b 0802 0092 ad81 8797 e7a9 e253 3383
00000100: e237 8531 306c cb2f a902 4483 f44d 2f30
00000110: 68db b1be 8312 012f 5c18 9601 713a 3003
00000120: 6213 662f cc4f 4403 a115 a602 58b2 bc82
00000130: 6a75 be82 936a 4983 3eeb 152f 4420 b902
00000140: 445f a882 20e2 c682 0181 b682 e669 b282
00000150: 7887 1101 2a12 682e a859 1301 0f86 3f83
00000160: 0a91 df2d 13ac 582f f728 e327 de20 4103
00000170: a60d 4583 eefa 332a e9c2 ffbe 79f1 0631
00000180: c08c 9c2e 2657 2983 d39e 3e83 bd82 4b3d
00000190: 0c34 3381 b6ec 3003 7ca5 3530 3924 3683
000001a0: 8033 5f00 7ce6 a331 e6ad 4003 ad02 4f03
000001b0: 5c77 4583 647a f081 215c 4583 9076 4030
000001c0: f8e1 68bd 3069 6680 0804 1700 d054 a981
000001d0: 5d9b 6a30 f5bb a53e 831e 4503 1003 6131
000001e0: 1878 3c83 6e37 2783 e629 4583 a903 2d83
000001f0: fe07 a582 7f2d c030 c218 8930 fa97 e082
00000200: 5cc9 2d03 b5f1 8182 25c6 b582 fdce ba82
00000210: 06cc b182 542c b582 5919 8f82 81c7 ef02
00000220: 182e 8e02 ec71 4f83 64cc b482 873e b182
00000230: 10f5 4a02 6aea 9282 2dd0 ab82 9a5b b182
00000240: 2791 b482 a265 2903 a7e9 bb82 cda8 2e03
00000250: e52d 4503 2ac7 ad82 c62a b782 87c2 b582
00000260: 3fbe a882 e545 5183 83a0 9582 005a 9001
00000270: ed56 d902 39e7 a602 41b5 b082 c8ec 4f03
00000280: 6eed 9882 589d bb82 db89 ae82 e990 b482
00000290: 9849 a282 df3c ba82 6dd6 ad82 3fd8 a882
000002a0: 21f0 2a83 7b56 3683 cf05 a882 c077 0582
000002b0: 6ef5 4883 95a9 5802 78ae 3083 7006 ae82
000002c0: e6d8 a682 86a0 9102 f41d 4803 e4bc b782
000002d0: 048e 7782 ee1e 3a83 48b6 d502 e8df 4283
000002e0: 29f6 4e03 4a20 4f83 b965 f902 fde6 a482
000002f0: 69de 6a82 c526 b782 7e4b 9681 038b b682
00000300: 24a9 b382 edb4 b082 646c ae82 b877 b882
00000310: 1f11 a9b1 870e ae82 9a54 4203 124b 3e82
00000320: 10f6 ad82 ef15 0882 94f4 9682 fde3 a782
00000330: 7c94 4783 f354 4b03 8ea5 8202 1203 a682
00000340: 8ebe 7502 24a0 5483 2245 b201 3aba 6402
00000350: 63f2 2783 a0e1 a882 1804 a982 6355 ac82
00000360: b2d3 ab02 e33a 0482 3d69 3a03 bb98 4c83
00000370: 0d56 a582 cb52 ba82 937c 3883 ba23 bc82
00000380: fa44 a582 2795 bc82 441f 9d02 2896 3d03
00000390: 0747 ac82 008a 6b81 8f53 9e02 a415 b582
000003a0: 901e 3403 a0e8 ba82 f20d 2e83 924c 4403
000003b0: 0ae7 4383 38b6 ac82 076c ae82 e01d b982
000003c0: 108b f6b9 2e58 5503 a01d 2a83 0591 a301
000003d0: cba2 1383 63ea e802 b877 2883 3a24 a682
000003e0: 960e 1102 b084 0e03 7b27 bd82 ae6c ad82
000003f0: 6a9d 5483 56c2 ae82 0a02 ac82 9183 c302
0.13056736 5.462994e-37 -1.2936339e-37 2.212668e-11 -5.9434938e-37 -4.939677e-37 0.41098112 2.4135965e-37
7.036036e-38 2.5839946e-37 2.2877679e-10 -5.714965e-37 -2.463037e-37 5.210115e-37 4.4893994e-10 2.4792651e-37
1.6469629e-38 2.6661167e-37 4.040713e-09 -6.2358194e-37 -0.49097678 -1.6098453e-37 -5.778804e-37 7.786327e-10
-6.2752114e-37 4.8226635e-37 5.158988e-37 0.34144652 -2.799589e-37 1.1544746e-14 2.0246696e-37 2.2000834e-37
2.7467171e-12 -6.014156e-37 -6.269664e-37 6.0528605e-37 2.5337779e-37 1.2938701e-09 -4.2259763e-37 -5.6455773e-37
5.6261474e-37 4.5499657e-38 -5.4422625e-37 6.038043e-37 -2.5141496e-37 1.2694504e-10 5.287766e-37 -5.75477e-37
-1.9087006e-37 5.888945e-11 5.0245083e-37 1.0196618e-11 2.4710363e-37 2.9549699e-37 6.1732834e-37 5.1837945e-37
6.1497497e-37 -3.2532608e-37 2.568957e-37 4.400289e-09 1.0022589e-37 -6.3759663e-38 -1.02847466e-13 -5.2699665e-37
3.8771626e-09 3.7002357e-10 -5.7602277e-37 6.3775407e-10 -0.34737706 1.1739058e-10 5.513625e-38 5.178884e-37
2.0925264e-10 5.7690826e-37 2.4403922e-37 -2.7726482e-37 -2.7985383e-37 -5.9190932e-37 1.3635046e-10 2.7201826e-37
-2.4740061e-37 -2.9223275e-37 -2.681654e-37 -2.6215532e-37 2.6729488e-38 5.2766826e-11 2.706396e-38 -5.6283747e-37
2.5416575e-11 1.9706219e-10 6.304957e-15 5.675533e-37 -5.7908764e-37 1.5985452e-13 -0.49953392 1.9636828e-09
7.119061e-11 -4.976468e-37 -5.6018303e-37 0.04968523 -3.291445e-38 5.1993482e-37 6.6082584e-10 -5.3526575e-37
8.742847e-39 4.7701274e-09 5.6623354e-37 6.0834904e-37 -5.8030115e-37 -8.83377e-38 -5.7998856e-37 7.001768e-10
-0.056856126 -9.404955e-39 2.113663e-39 -6.2202495e-38 8.534949e-10 0.32369962 5.7928123e-37 3.274355e-09
-5.5386095e-37 -4.914052e-37 -5.7941194e-37 -5.0844332e-37 -2.4249158e-37 1.3982769e-09 9.975099e-10 -3.3001072e-37
5.107128e-37 -1.909358e-37 -2.670929e-37 -2.744905e-37 -2.6124916e-37 -2.6621003e-37 -2.102651e-37 3.5232403e-37
2.0891481e-37 -6.096261e-37 -2.6565937e-37 -2.6043701e-37 1.4910946e-37 -2.158732e-37 -2.5245679e-37 -2.606039e-37
-2.6531936e-37 4.9781305e-37 -2.761129e-37 5.132778e-37 5.794578e-37 -2.553438e-37 -2.6913984e-37 -2.6707213e-37
-2.4794577e-37 -6.1499815e-37 -2.1985711e-37 5.302639e-38 3.1935177e-37 2.4524223e-37 -2.596491e-37 6.1103644e-37
-2.247067e-37 -2.7567491e-37 -2.5646127e-37 -2.6531797e-37 -2.3846001e-37 -2.7365182e-37 -2.554314e-37 -2.48095e-37
-5.0234164e-37 -5.3584268e-37 -2.4688715e-37 -9.805663e-38 -5.9056457e-37 1.5917841e-37 -5.192203e-37 -2.5570697e-37
-2.4516001e-37 2.139797e-37 5.88091e-37 -2.6997851e-37 -1.818745e-37 -5.4695993e-37 3.1402161e-37 -5.726851e-37
6.0820537e-37 -6.08689e-37 3.6645648e-37 -2.4230215e-37 -1.7255433e-37 -2.6911686e-37 -5.5209624e-38 -2.6822285e-37
-2.6398768e-37 -2.5964722e-37 -2.5629215e-37 -2.7105085e-37 -4.920494e-09 -2.557534e-37 5.7108594e-37 -1.398054e-37
-2.5561298e-37 -9.997997e-38 -2.21809e-37 -2.4669303e-37 -5.8651296e-37 5.9753855e-37 1.9196807e-37 -2.439327e-37
1.8054444e-37 -6.2485033e-37 6.5486074e-38 1.6804239e-37 -4.9355135e-37 -2.4814884e-37 -2.4834668e-37 -2.5322138e-37
2.52477e-37 -9.714728e-38 5.4781295e-37 -6.012554e-37 -2.4293962e-37 -2.7377764e-37 -5.4215744e-37 -2.7644623e-37
-2.4284162e-37 -2.7709726e-37 2.3087022e-37 5.571448e-37 -2.5313896e-37 -4.3261693e-38 2.3263974e-37 -2.660798e-37
5.293233e-37 -2.7463764e-37 -5.1150013e-37 5.768712e-37 -5.757057e-37 -2.5377717e-37 -2.5629007e-37 -2.7200454e-37
-0.00047024386 6.26963e-37 -4.9992518e-37 6.0084836e-38 -4.3386295e-37 3.4223868e-37 -4.9508193e-37 -2.44123e-37
1.0657104e-37 4.1882367e-37 -2.7793715e-37 -2.5482444e-37 -6.2481903e-37 -2.5678545e-37 -2.52743e-37 2.872819e-37

2.bias f4 [32]
00000000: bb9d a8bd ee82 b282 6a47 85b9 2420 24bf
00000010: 5fbe 5ebe b88a 1d85 0940 31bf fafe b0be
00000020: a21d f1be 4746 e3be 3e6d b8be 6277 e5be
00000030: 2b2e e4bc 93d2 b582 e555 e8be 7ad0 00be
00000040: 0c7c b5be 8a01 bdbe f59d c4be 6580 0bb2
00000050: 6c84 c0be cac8 23be 13f2 4dbf c203 49bf
00000060: f040 c1be 63f7 ba82 6897 b7be 14f4 dabe
00000070: 9fa0 9396 7aa2 b582 3dc3 b582 1fd6 a682
-0.0823321 -2.62299e-37 -0.00025420944 -0.6411154 -0.21752308 -7.407583e-36 -0.69238335 -0.34569532
-0.4709292 -0.44389555 -0.36020845 -0.44817644 -0.027854046 -2.6716423e-37 -0.45378032 -0.12579527
-0.35446203 -0.36915237 -0.38401762 -8.120058e-09 -0.3760103 -0.15994564 -0.804475 -0.7852136
-0.37744856 -2.7472237e-37 -0.358577 -0.42764342 -2.3850497e-25 -2.6688817e-37 -2.670762e-37 -2.4514407e-37

4.weight f4 [8, 32]
00000000: eff0 16bf 6ef1 b602 6b8d 583c 7e29 80be
00000010: 90fe 243f 9337 7936 f931 8abd afc3 4b3f
00000020: 62e9 293f 1a01 043f 29f4 1e3f 89a6 3f3f
00000030: 68dd c9bd 80fb a802 3091 3a3f c8db bcbd
00000040: 50d0 173f d2e3 193f f82d 393f 8fb3 ebb7
00000050: 018c 1a3f 120d aabe 1388 2f3d 07f2 34be
00000060: 3176 453f 6d71 b602 95c1 2e3f 90e6 03bf
00000070: 3b9d d224 f88a 20bb 5c34 08bb d2ab a602
00000080: be36 7fbe fe54 bb02 1e6a 92bc c4ad 0cbf
00000090: ccaf 3cbe a3b8 143b 67af 8dbe 1e7e 00bf
000000a0: baee 1ebf 5e5c 8fbe f50d bebe 64ab 07bf
000000b0: b558 14be 48c4 4f1e daa6 9cbe 72a2 e4be
000000c0: f660 9abe 6843 17bf 71fb 13bf 60d8 9937
000000d0: 3f81 c9be 907d d1be e419 d6be 9b4e d0be
000000e0: b198 bcbe 7c83 ae02 f2a2 efbe 5fed 07bf
000000f0: ede3 ad33 e38b 82bb 6c72 6cbb 5a0a bc02
00000100: e2de 0e3f dbd3 b102 d1c4 80bc 886f abbe
00000110: ad6b a0be 7560 8091 7609 03bf 1e1b e8be
00000120: 9901 a1be 056a b9be fbf0 fabe f862 c0be
00000130: 7d11 4fbe 8aae ab82 0b9c 94be af82 553e
00000140: 01fe a4be 042d 96be 4e46 16bf 427d 313b
00000150: f166 babe 4a19 9c3e 48b5 f0be 4f2f 24bf
00000160: f62b e1be f775 b902 e7b6 f7be 954f e0be
00000170: 5f2f a582 839a e9b5 5d24 09b6 ae98 a982
00000180: 6353 a7be 4f5d b982 670a 283c abae 023f
00000190: 59ba 9b3e 6d9d cb31 586f 013f 7381 a23e
000001a0: c18c d43e 77e9 a23e 07d0 ab3e 3b05 d73e
000001b0: b5ef 233e b5fd ae02 4b0b 143f ac01 59bd
000001c0: 776b be3e 732c c43e 6cf3 123f f11e 8ab9
000001d0: b9a7 be3e 67c6 7cbe 7637 283f dee4 013f
000001e0: 6aab c63e acba c082 c3f0 ba3e e35d cf3e
000001f0: 047d 3117 f0cb c13b 787b bc3b 07a1 b702
00000200: 7a97 0bbf b85b b082 4628 cf3c 6720 d33e
00000210: 2cb2 853e 695c 53ad bd16 e63e b55b 9b3e
00000220: b738 133f f69a af3e 56e7 023f 2e00 bb3e
00000230: 090e 083c e3a3 a482 212e b53e 94ee 87bd
00000240: 633a eb3e 863f 1f3f f512 973e 23ab 95b4
00000250: 298b 9d3e 62a5 2bbe 8988 bd3e e5f0 a33e
00000260: edc9 9e3e e44e b302 7bcc ae3e fbb8 eb3e
00000270: a2e0 2086 c77c 4239 e07f 3339 8d11 b882
00000280: 5d0c b7be dc67 b082 9c09 9f37 91f2 eb3e
00000290: b69c 883e 5d8d 852d 47f7 153f 0bb5 ac3e
000002a0: 68e4 bd3e 1aa4 d63e c327 a53e 4c63 063f
000002b0: a4ee 473e f33f b002 effd 913e c8e7 e6be
000002c0: deba 1a3f 3c2c a03e af97 9b3e 9aaa 37bb
000002d0: f293 cd3e 0316 08bf cc3a 193f a8bc c33e
000002e0: 758e af3e e229 ba82 f1b5 093f 21b9 d33e
000002f0: b43d 2a08 855b 653a c85e 5d3a c31e a802
00000300: 4533 233f a4e1 af02 872f 29b3 f2cc ddbe
00000310: 1b01 81be ad06 a82d 3694 b3be 68d2 dcbe
00000320: 626d bbbe 0ed9 fabe 3adf 17bf 95e7 b8be
00000330: bcea 863c 822c b502 53cf d4be badb 073f
00000340: 4718 afbe 150e 91be d3c8 cebe dd91 8434
00000350: 0048 bbbe d572 1a3f 8728 c4be a9c8 bfbe
00000360: a03e dabe e459 aa02 0e29 e5be a012 d1be
00000370: 5fff 230b 2ee7 c1ba f2a4 acba 60bb b802
00000380: dd06 29bf 0702 b682 1a13 b12e 2420 983e
00000390: cd6a 013e 3bc9 e2b0 3f10 593e 0faa b93e
000003a0: 33c2 033f fe22 1c3f 57df e83e dffe fc3e
000003b0: 3fcb 6a3e e3a2 b182 76bd eb3e 1414 2cbf
000003c0: 9305 953e 0e6c b23e 8060 f83e 6a25 62b8
000003d0: 4589 a73e 1291 14bf ccce a23e 50e3 ee3d
000003e0: 10d1 d63e a4a6 b102 36b1 943e 236d db3e
000003f0: 4a09 3393 c7c1 abac 062f f0b2 1d58 b382
-0.58961385 2.688107e-37 0.01321731 -0.25031656 0.6445093 3.713624e-06 -0.06747813 0.79595464
0.6637174 0.5156418 0.6209131 0.7486349 -0.09856683 2.4829735e-37 0.7287779 -0.092216074
0.59302235 0.6011325 0.7233577 -2.8097797e-05 0.6036988 -0.33213097 0.04285438 -0.17670451
0.7713347 2.68076e-37 0.6826413 -0.51523685 9.133934e-17 -0.0024496894 -0.0020783162 2.4490128e-37
-0.24923226 2.7525964e-37 -0.017872866 -0.54952645 -0.18426436 0.002269306 -0.27672884 -0.5019244
-0.6208302 -0.28000158 -0.37120023 -0.52995896 -0.14486964 1.0999079e-20 -0.30596048 -0.44655186
-0.301521 -0.5908723 -0.57805544 1.8339779e-05 -0.3935642 -0.4091611 -0.41816628 -0.4068497
-0.36835244 2.564247e-37 -0.46804005 -0.53096575 8.0974e-08 -0.003983961 -0.0036078943 2.7630059e-37
0.5580884 2.6129412e-37 -0.01571885 -0.3348353 -0.3133215 -2.0254285e-28 -0.5118631 -0.4533319
-0.3144653 -0.362137 -0.49011979 -0.37575507 -0.20221515 -2.5226372e-37 -0.290253 0.20850633
-0.3222504 -0.2933122 -0.58701026 0.0027082716 -0.36406663 0.30488044 -0.47013307 -0.6413469
-0.43978852 2.7251015e-37 -0.4838173 -0.43810716 -2.427176e-37 -1.7404822e-06 -2.0435757e-06 -2.4919952e-37
-0.32680807 -2.7236863e-37 0.010256386 0.5104777 0.3041561 5.925975e-09 0.5056052 0.31739387
0.41513637 0.31818745 0.3355715 0.41996178 0.1600941 2.5712623e-37 0.5782973 -0.05298011
0.37191364 0.38315162 0.5740268 -0.00026344464 0.37237337 -0.2468506 0.65709627 0.5073985
0.38802654 -2.8319009e-37 0.36511812 0.40501317 5.7349576e-25 0.005914204 0.0057520233 2.6981858e-37
-0.5452801 -2.591352e-37 0.025287759 0.4123566 0.26112497 -1.20144806e-11 0.44939223 0.30343404
0.57508415 0.34297913 0.5113424 0.36523575 0.0083041275 -2.41917e-37 0.35386756 -0.06637302
0.45942983 0.62206304 0.2950665 -2.787793e-07 0.30770233 -0.16762307 0.3701823 0.32019725
0.31013432 2.6346967e-37 0.3414038 0.46039566 -3.025769e-35 0.00018547765 0.00017118407 -2.7046444e-37
-0.3575162 -2.5920488e-37 1.8958752e-05 0.460835 0.2668206 1.5183127e-11 0.5858044 0.33731875
0.37088323 0.41922075 0.32256898 0.52495265 0.19524628 2.589758e-37 0.28514048 -0.4509871
0.60441387 0.31283748 0.30389163 -0.002802527 0.40151936 -0.5315859 0.5985534 0.3822987
0.34288374 -2.7354283e-37 0.53793246 0.4135218 5.1230046e-34 0.0008749294 0.00084446045 2.4703038e-37
0.63750106 2.584345e-37 -3.9391605e-08 -0.43320423 -0.25196156 1.9102353e-11 -0.35074013 -0.43129277
-0.3660689 -0.48993725 -0.5932499 -0.36114183 0.016469352 2.6621106e-37 -0.41564426 0.5306965
-0.3419821 -0.28331056 -0.40387592 2.4693045e-07 -0.3657837 0.6033147 -0.3831217 -0.3745778
-0.42625904 2.503085e-37 -0.44757885 -0.40834522 3.1584778e-32 -0.0014793628 -0.0013171716 2.7143918e-37
-0.660261 -2.674366e-37 8.052421e-11 0.2971202 0.12638398 -1.6500857e-09 0.21197604 0.36262557
0.514682 0.60990894 0.45482895 0.494132 0.22929095 -2.6101305e-37 0.46042985 -0.67218137
0.29105815 0.34848064 0.48511124 -5.3917443e-05 0.32721916 -0.5803386 0.31798398 0.1166445
0.41956377 2.610346e-37 0.2904145 0.42856702 -2.2597556e-27 -4.881626e-12 -2.7961061e-08 -2.635226e-37

4.bias f4 [8]
00000000: 5036 673e fbbd 90be 1c3e 92bd b989 843e
00000010: fbff 093e 1854 8d3c 1f54 89be 8a74 0e3e
0.22579312 -0.28269944 -0.07140753 0.25886324 0.13476555 0.017252013 -0.26821992 0.13911644
