model/autoencoder-cpu-32.pth (torch, 154135 bytes, 6 tensors)

0.weight f4 [128, 256]
00000000: fd04 d3b9 bbb4 c5b9 04d8 bbb9 8c33 d3b9
00000010: 7d78 cbb9 37c7 bfb9 8326 bfb9 28fc bcb9
00000020: 5cbb bdb9 9024 bcb9 4b3f 99b9 eba6 a5b9
00000030: df31 b0b9 a5eb a4b9 13b7 aeb9 4683 a9b9
00000040: f858 c3b9 e965 acb9 bbd4 9ab9 cb0b b5b9
00000050: 1a72 a1b9 3882 a1b9 d5d2 a8b9 6fdf adb9
00000060: a2aa bfb9 2f48 d5b9 8bc5 a0b9 a8a1 a7b9
00000070: 4a86 acb9 29c5 99b9 f613 9cb9 571c b1b9
00000080: 266f b6b9 3c5a b5b9 8fb6 b1b9 880c 9cb9
00000090: a759 b1b9 4c70 acb9 658a 9cb9 c00c 9bb9
000000a0: c5cd bdb9 2bca 97b9 5eef 9eb9 faf4 a9b9
000000b0: 1743 afb9 3844 b3b9 a35b a1b9 96e8 adb9
000000c0: a254 bab9 9280 acb9 93ab abb9 beb3 a5b9
000000d0: 99ab a1b9 cfd8 9bb9 e5f5 9db9 7d26 c7b9
000000e0: a373 c2b9 3bdb 98b9 d525 9db9 49c1 b3b9
000000f0: cf67 aeb9 5a5f 9ab9 b1ea a0b9 200e a7b9
00000100: 4c7f d8b9 51d7 9bb9 0e56 9bb9 1de6 acb9
00000110: 7ff8 a6b9 3b50 96b9 22d2 9db9 963b c0b9
00000120: 5d73 9ab9 8b98 97b9 9aec a6b9 20ef adb9
00000130: 5241 b5b9 8d20 abb9 9bef a0b9 26e5 dcb9
00000140: 7700 deb9 04f0 95b9 078f 94b9 b084 a8b9
00000150: 75ee a4b9 1bb7 c6bd 67ab 98b9 436b dbb9
00000160: fb0a 9bb9 3647 9fb9 6b5e 08b9 f32b b3b9
00000170: fc62 a5b9 d554 afb9 129b a3b9 0e5d a6b9
00000180: 096f c4aa 3ace b6aa bd15 50a8 bd9c 63a8
00000190: 5e82 abb9 eaec 9cb9 2577 9fb9 f5ae c3b9
000001a0: b8b5 afb9 1ec5 9fb9 04ec a5b9 5f30 aab9
000001b0: eba5 9db9 edec 98b9 7bf8 a0b9 6301 acb9
000001c0: cfa7 6ca8 31e3 dbb9 683c 5ea8 273f 4ca8
000001d0: 966c b1b9 c644 a2b9 af24 a3b9 9c14 c0b9
000001e0: eadc dab9 fd29 d8b9 8636 9fb9 828f 97b9
000001f0: 48b7 95b9 2141 aab9 aabb a5b9 1d66 9bb9
00000200: e46d 54a8 0612 b8aa 3c11 cfaa 2d26 96b9
00000210: c10b abb9 c74c ccb9 8fa2 ceb9 57fa b5b9
00000220: a520 d3b9 26fc d1b9 a0b7 b1b9 c5d3 a6b9
00000230: 42cb 9ab9 0bd9 aab9 d570 a4b9 0089 95b9
00000240: 0950 9fb9 e8ed 55a8 ad8b bfaa 8c8e 61a8
00000250: 7008 9bb9 e369 deb9 63d5 d3b9 c5e1 9eb9
00000260: e3d6 b2b9 9638 adb9 22ea 93b9 ab1c 94b9
00000270: 21b7 99b9 4e4d adb9 e822 a1b9 d6bd 93b9
00000280: a8e7 48a8 40b5 5fa8 ef06 c8aa 718f afaa
00000290: 36ff ddb9 10b7 71bc 48a5 c2b9 8953 c2b9
000002a0: 0f1b 98b9 ebd9 9bb9 3329 b1b9 9189 b1b9
000002b0: b86c b1b9 09f8 9db9 0185 a9b9 3c7a a0b9
000002c0: 6015 61a8 8585 65a8 c04c 53a8 57aa 59a8
000002d0: 6c6c a7b9 c6b7 abb9 1db4 c5b9 20bf bfb9
000002e0: 5a0a 93b9 50d4 a3b9 58d2 93b9 70f7 a5b9
000002f0: dc6c 9db9 de7b 98b9 88d3 b3b9 dce1 94b9
00000300: e4e9 66a8 8555 5ba8 2cfa 61a8 7651 4c83
00000310: d2de bcb7 8234 00b8 5dec bbb9 b683 88b9
00000320: 93db 95b9 bb85 9ab9 b584 90b9 8507 8eb9
00000330: 2124 99b9 f688 a1b9 6a43 a0b9 7acc a2b9
00000340: 6ddc 69a8 cebf a7b9 1d94 acb9 3c66 4883
00000350: 5629 c4b7 68c8 aab7 03c4 aeb7 906b 96b7
00000360: 24fe 97b9 18a7 96b9 4eb4 8bb9 7ab2 8cb9
00000370: 103e a8b9 7d34 99b9 0e59 9cb9 49f8 9bb9
00000380: 42ab 42a8 2c16 95b9 85a3 4c83 8da6 4f83
00000390: 7f6c bdb7 a1ae b2b7 16b2 adb7 f24a 92b7
000003a0: ab45 89b9 3c17 92b9 8836 9bb7 3a2c 9ab7
000003b0: 798d 9fb7 60fd 95b9 8b4e 9db9 f97d 85b9
000003c0: bf33 56a8 8089 67a8 6ab2 4a83 5d5f cfb7
000003d0: 4305 b5b7 329f cdb7 a7a3 9ab7 4317 99b7
000003e0: 8a5a 99b7 7271 9cb7 0660 b1b7 b479 9bb9
000003f0: 6bcc 95b7 8b66 98b9 cfc6 a0b9 74b2 a3b9
-0.00040248773 -0.00037709423 -0.00035828364 -0.00040283462 -0.00038808948 -0.00036578786 -0.00036459052 -0.00036046025
-0.00036188483 -0.00035885395 -0.0002922959 -0.00031595616 -0.00033606493 -0.00031456086 -0.00033324267 -0.00032331998
-0.00037259585 -0.00032882325 -0.00029531665 -0.00034531797 -0.00030793325 -0.00030805334 -0.0003220054 -0.00033163602
-0.0003655749 -0.00040680307 -0.0003066476 -0.00031973165 -0.0003290645 -0.0002932933 -0.0002976951 -0.00033781186
-0.00034796557 -0.0003459024 -0.00033896088 -0.00029763975 -0.00033826867 -0.00032890064 -0.0002985775 -0.00029573403
-0.000362022 -0.0002895159 -0.0003031445 -0.00032416714 -0.00033428587 -0.00034192367 -0.00030776588 -0.0003317042
-0.0003553974 -0.0003290219 -0.00032743494 -0.0003160517 -0.00030836163 -0.0002972544 -0.0003012858 -0.00037984914
-0.0003708872 -0.0002915504 -0.0002997356 -0.0003428555 -0.0003326521 -0.0002944421 -0.00030692437 -0.00031863246
-0.00041293574 -0.00029724327 -0.0002962802 -0.00032977844 -0.0003184713 -0.00028670006 -0.00030101935 -0.0003666549
-0.0002945912 -0.00028914618 -0.0003183827 -0.00033175293 -0.00034571678 -0.00032639914 -0.00030696098 -0.000421324
-0.00042343486 -0.0002859832 -0.00028335323 -0.00032142317 -0.00031458182 -0.09702893 -0.00029119404 -0.0004185085
-0.00029572085 -0.000303799 -0.00013005144 -0.00034174285 -0.00031545002 -0.00033441806 -0.0003120532 -0.00031731318
-3.489364e-13 -3.2472793e-13 -1.1551033e-14 -1.26350185e-14 -0.00032712793 -0.00029931153 -0.00030415613 -0.00037323651
-0.00033513992 -0.00030473707 -0.00031647098 -0.00032460966 -0.00030068992 -0.00029168223 -0.0003070271 -0.0003280743
-1.3137019e-14 -0.00041940206 -1.2336574e-14 -1.1337969e-14 -0.00033840974 -0.00030950288 -0.00031117114 -0.0003663645
-0.00041744794 -0.00041230014 -0.00030367466 -0.00028907886 -0.0002855605 -0.00032473452 -0.00031611073 -0.00029639984
-1.1792193e-14 -3.2697472e-13 -3.6782545e-13 -0.00028638673 -0.0003262442 -0.00038967116 -0.00039412497 -0.00034709528
-0.00040269378 -0.00040051452 -0.00033896882 -0.00031819768 -0.00029524608 -0.00032586636 -0.00031364584 -0.00028521568
-0.00030386474 -1.1875463e-14 -3.4025335e-13 -1.2520919e-14 -0.0002957019 -0.0004242203 -0.00040404042 -0.0003030432
-0.0003411091 -0.0003303929 -0.00028212467 -0.0002825012 -0.00029318876 -0.00033054728 -0.0003073432 -0.00028179464
-1.1152463e-14 -1.2418289e-14 -3.5531948e-13 -3.1185777e-13 -0.00042342552 -0.014753118 -0.00037125708 -0.00037064802
-0.0002901186 -0.00029726265 -0.00033790767 -0.00033862566 -0.00033841073 -0.00030130174 -0.00032333288 -0.0003060865
-1.2494644e-14 -1.2741006e-14 -1.1729495e-14 -1.2082856e-14 -0.00031933503 -0.00032752584 -0.00037708963 -0.00036572758
-0.00028045737 -0.00031247968 -0.00028194743 -0.00031655608 -0.0003002648 -0.00029083987 -0.00034299144 -0.00028397038
-1.2818282e-14 -1.2175486e-14 -1.2544256e-14 -6.0043724e-37 -2.2515105e-05 -3.056648e-05 -0.00035843524 -0.00026038074
-0.0002858309 -0.00029472806 -0.00027564695 -0.00027089953 -0.00029209352 -0.00030810357 -0.00030567806 -0.00031051395
-1.29818955e-14 -0.00031995628 -0.0003291675 -5.8892077e-37 -2.338427e-05 -2.03589e-05 -2.0833691e-05 -1.7931481e-05
-0.00028990314 -0.00028734724 -0.00026646483 -0.00026835856 -0.00032089697 -0.0002922154 -0.0002982099 -0.0002974889
-1.0806299e-14 -0.00028436014 -6.0137923e-37 -6.1023024e-37 -2.2581078e-05 -2.1300571e-05 -2.0706135e-05 -1.7439455e-05
-0.00026182583 -0.000278646 -1.8502833e-05 -1.8378825e-05 -1.9020155e-05 -0.00028608274 -0.00030003893 -0.00025461594
-1.1890607e-14 -1.28528915e-14 -5.9567274e-37 -2.472073e-05 -2.1579332e-05 -2.4512035e-05 -1.8434437e-05 -1.8249853e-05
-1.8281182e-05 -1.8649476e-05 -2.1144759e-05 -0.0002965458 -1.7857374e-05 -0.000290681 -0.00030665702 -0.0003122274

0.bias f4 [128]
00000000: 3e86 95b9 9ae8 b9b9 aa6a ebbe 52f4 d7be
00000010: 8fd8 4883 d840 d7be 25b5 4eb7 06a3 b1bb
00000020: 45a3 e2be 655e e8be 4e9a 67a3 3881 ce82
00000030: 2d4f f0bd 544a 43bd b1c7 a182 b8d9 fbbf
00000040: 0b9f c295 6731 3d83 22b1 19bd 4ec8 75b9
00000050: fe07 34a4 8f15 03bf d243 dfbe e73d 02bf
00000060: d9cd d5be e46e dcbe 22e7 fc3c 2e85 e1be
00000070: 23a1 26bd 3307 4503 9622 cdb1 df33 f9be
00000080: e3d0 d2be 44b8 a2b9 0277 0ea9 4404 4883
00000090: 4684 d1be e594 26bc da6b 4bb7 6391 d8be
000000a0: 587b febe a62d d4b7 aab5 ecbe db55 babe
000000b0: cdc9 9b91 bba0 0cbf ba68 04bf 601b 4003
000000c0: be04 b2ac 0918 fcbe e9e7 28be 3a06 048f
000000d0: 218d 0bbf d399 ebbe 5762 9d02 00b8 dbbe
000000e0: 0ace cbbe 4cb6 75bb 9073 cdbe 95c4 6ebe
000000f0: 6f43 02ba b884 14aa fac2 d8be 27f7 42b3
00000100: 439d d9be 7289 f5be 7579 e7be 4147 e0be
00000110: 605d 03bf 45ed 20b9 a95b e2be ec90 a9b8
00000120: c348 cabe 33eb debe e058 e7be 5ed8 1f82
00000130: 5ced 04bf 48a4 0ebf 6877 02bf d45f ddbe
00000140: 19cd 2fbc 1c27 debe 18e2 38b9 3848 08bf
00000150: 3fb5 03bf f207 efbe 712f debe dcfd a702
00000160: e00b febe b373 30ae 0bf3 6496 b500 50bc
00000170: c4db e3be 1ecf d3be 8bb4 e1be 3df8 62bb
00000180: 72a0 98a1 20f3 ebbe 09a3 4a03 f658 04bf
00000190: 6c5d eebe 4be9 3bbc 62ea 6a8e 7c1f dabe
000001a0: 028d 03bf 9bba 28af f95b 1302 2ac2 bdba
000001b0: 941c f3be 6e9a 05bf 2250 b4bc 740d 03ac
000001c0: a388 cabe 4267 5ebd 43ee 01bf 032a dbbe
000001d0: 54c8 51bb 55d7 dcbe 3b56 04bf 2937 d4be
000001e0: 737c f9b8 81f8 abbe abdf 98b2 8bcc d9be
000001f0: 5259 debe b728 96bc 5478 88ba 8a6b 04bf
-0.00028519513 -0.0003545925 -0.45979816 -0.4217859 -5.9023315e-37 -0.4204166 -1.2320733e-05 -0.0054210452
-0.4426519 -0.45384517 -1.255521e-17 -3.0343147e-37 -0.117338516 -0.047678307 -2.377144e-37 -1.9675817
-7.86069e-26 -5.559882e-37 -0.037522443 -0.0002343964 -3.9038048e-17 -0.5120477 -0.4360643 -0.50875705
-0.41758612 -0.43053353 0.030871931 -0.4404692 -0.040681016 5.790136e-37 -5.970217e-09 -0.48672387
-0.41174993 -0.00031036336 -3.1633557e-14 -5.8779614e-37 -0.4092123 -0.010167335 -1.2124854e-05 -0.4229842
-0.4970348 -2.5293626e-05 -0.4623235 -0.36393628 -2.4579057e-28 -0.54932755 -0.517223 5.6455154e-37
-5.0595908e-12 -0.49237087 -0.16494717 -6.509302e-30 -0.5451222 -0.46015796 2.312552e-37 -0.42913818
-0.39805633 -0.003749269 -0.4012723 -0.23317178 -0.0004969155 -1.3191087e-13 -0.42336255 -4.539393e-08
-0.42502794 -0.47956425 -0.45209852 -0.43804362 -0.51314354 -0.00015347179 -0.44210556 -8.085542e-05
-0.39508638 -0.43538818 -0.45184994 -1.174357e-37 -0.5192468 -0.55719423 -0.5096345 -0.43237174
-0.010730051 -0.43389213 -0.00017631834 -0.532352 -0.51448435 -0.4668575 -0.4339557 2.4684153e-37
-0.49618435 -4.012053e-11 -1.8494384e-25 -0.012695481 -0.44503605 -0.41368955 -0.44083056 -0.0034632825
-1.034239e-18 -0.46083927 5.954962e-37 -0.51698244 -0.4655565 -0.011469196 -2.8955578e-30 -0.42602146
-0.51387036 -1.5345807e-10 1.0826249e-37 -0.0014477421 -0.4748274 -0.52188766 -0.022010867 -1.8623688e-12
-0.3955737 -0.054297693 -0.50754184 -0.4280549 -0.0032010274 -0.43133035 -0.5169408 -0.41448334
-0.00011896426 -0.3358803 -1.7796841e-08 -0.42538866 -0.4342752 -0.018329961 -0.0010411837 -0.5172659

2.weight f4 [32, 128]
00000000: ac5b e602 f2ac d802 3605 5782 b0c3 8a01
00000010: 7724 4883 2c52 2f03 78c4 d981 9f54 4e83
00000020: dca3 5c02 6c1c 2a03 2c66 4f83 fde9 4d03
00000030: 35ba 3683 2ea8 3803 2973 e002 d25d 4783
00000040: 7cd1 a202 3eae 3503 0430 a702 bafd 4783
00000050: 4a65 4203 102f e900 bc92 2c83 aace 2383
00000060: ec3e 2983 5835 d382 450e ccbe 788d 1182
00000070: d07e 3a83 b4d3 9881 1766 4083 bcbb 4f03
00000080: 44dc 1881 9766 a302 5a0e 4f83 5cf4 3403
00000090: 9cbf 4883 0c6d 2d83 5030 4383 0923 4b03
000000a0: bdfa 2883 657b 3803 40b8 3d03 1d70 0dbf
000000b0: ac08 8181 f086 4f83 31ba 5f02 4eb4 5283
000000c0: 2a9a 2d03 1b05 4383 a2e8 2983 1179 b802
000000d0: 140a 4f83 e2c9 2c03 1290 4f03 403f 3a03
000000e0: b1f9 4b83 b3b2 3903 f122 b802 3a28 ca01
000000f0: 1733 4c03 4437 4c01 20fd 7302 84be b402
00000100: 9636 c281 281b 1300 34f2 4503 cecd 2783
00000110: 8a95 4e83 faf8 2c83 d801 3800 3cb8 e902
00000120: 56f7 2d03 cd2d 5203 675c 5283 0191 4303
00000130: 14b3 6801 1e07 1302 85af c482 82fd 3983
00000140: 56f1 3503 7668 3c03 2c4e 4583 7eb7 05bf
00000150: 3459 3883 faab f2be b662 0503 2d10 4083
00000160: 3a5a ad82 91ad 3483 6224 e082 1ea3 4c83
00000170: 6106 3903 600a 04bf aa82 4483 01db 3283
00000180: e82a 2183 9e9b 9e82 90eb 4383 deea 2f83
00000190: b40a 4e03 80b0 6582 7a4f b102 dcce 3f83
000001a0: 6ea6 3903 60e2 b302 9cd9 1d83 6824 3d83
000001b0: 58e8 5483 852d 3683 daa2 5283 5073 2a03
000001c0: 4fe2 3e03 3058 5403 1231 01bf 8d72 4603
000001d0: 6065 a281 62d4 3a83 7477 9802 cc28 2a83
000001e0: 0519 3083 6557 01bf 307f 3a83 4e42 f7be
000001f0: 0833 3383 52d9 3983 a939 1a02 72b2 0082
00000200: 7378 6fbd e6b9 52be 38a2 9cbe aff7 61be
00000210: 3c6b 0a83 4442 34be c421 6bbd f89b e3bb
00000220: c8bf 4183 9896 0683 39ef 61be 56df 4603
00000230: ece5 15be 4c70 60be bf8b 3783 c050 9abd
00000240: 1906 6cbe c239 3f82 dfe0 4dba 8b3a 89b8
00000250: 24d2 de93 5585 05be 1590 85bd 48d7 eebb
00000260: 7e41 95bc f83a 9b00 76d3 f401 1c49 09bd
00000270: bfff 88be 5aef 2c03 acdb 9901 95fc 64be
00000280: 549f 26be 6a91 efbc 9295 63bc 3c9f 1903
00000290: 0f94 b0be b034 22be 42c6 9b82 c48a 2fbe
000002a0: 212d 81b6 7305 e5bc 8e11 cfbd 1500 4803
000002b0: 644f 5083 0e69 2882 f98e f702 b8f9 e602
000002c0: d439 4203 ca90 5103 dffd 88be c056 88a7
000002d0: 90b4 5383 b621 9dbe 203d e480 fe3f 62b5
000002e0: dbaa 69bd ce34 3dbe b598 2abc 3151 2b03
000002f0: 305a 96a8 15e6 95b9 7a87 1ebe 1a14 01af
00000300: 4125 88be 88ab 6ebe 49b5 32bd 04ac 4103
00000310: 4098 3b04 4a1c 82be 1c71 d3bc 7a91 9ab8
00000320: c39b e0bc 6764 3b83 08a5 a9bb cdf4 3283
00000330: 0e76 c6bc 762c 3b03 69be 2a03 a2db a101
00000340: 1d1d 05be 5791 a7be 9519 22b3 4f2f 4083
00000350: e046 b1be 9e5b 2f83 202c 1d83 dcd2 6bbe
00000360: ca9c c4bd b938 93b6 a358 edbc 34a1 00be
00000370: 5897 8ab9 7658 4c03 6fae b2b6 cb04 71be
00000380: db3d cdba ff04 9cbe faed c882 ed18 50bd
00000390: ebd1 4cb7 00e8 a0be b09e 0182 200c dfbd
000003a0: 0ae0 1282 5d75 c4a5 c5fd 6ebb 2b8b 9dbd
000003b0: 8f09 00b9 5049 debd 8098 07bd cb0d 53bd
000003c0: 337f 45ba 8dd5 7abd 542b 5303 fa01 9fbe
000003d0: f74f 8abe 305f 2480 8d9e f1bd 33f2 03bc
000003e0: 9d5f 07ba 9e88 4c83 63a1 d9b3 6c70 3a83
000003f0: 889c ee80 bc38 6cbe 2860 5fbb c0ba 6ebe
3.384808e-37 3.1837613e-37 -1.5797201e-37 5.097399e-38 -5.8816577e-37 5.1522207e-37 -7.999513e-38 -6.06351e-37
1.6210073e-37 4.9991137e-37 -6.094912e-37 6.051269e-37 -5.369875e-37 5.42658e-37 3.297994e-37 -5.8588544e-37
2.3923999e-37 5.339114e-37 2.4566004e-37 -5.877211e-37 5.712775e-37 2.1414553e-38 -5.07147e-37 -4.8138634e-37
-4.9736867e-37 -3.1034281e-37 -0.39854637 -1.0693517e-37 -5.480606e-37 -5.613976e-38 -5.654092e-37 6.104734e-37
-2.8076024e-38 2.400958e-37 -6.0848307e-37 5.3177757e-37 -5.8994674e-37 -5.096531e-37 -5.736081e-37 5.9696557e-37
-4.9658596e-37 5.421439e-37 5.5753617e-37 -0.55249196 -4.739956e-38 -6.0986733e-37 1.6436887e-37 -6.1920433e-37
5.1017102e-37 -5.731121e-37 -4.9931686e-37 2.7105859e-37 -6.08434e-37 5.0778007e-37 6.0997217e-37 5.4733095e-37
-5.994297e-37 5.457175e-37 2.7056425e-37 7.4260803e-38 6.000886e-37 3.7508534e-38 1.7925464e-37 2.6557973e-37
-7.134267e-38 1.754616e-39 5.8171132e-37 -4.931314e-37 -6.070962e-37 -5.083207e-37 5.143449e-39 3.4342018e-37
5.112406e-37 6.176603e-37 -6.1819526e-37 5.7471806e-37 4.2740152e-38 1.0801897e-37 -2.8900355e-37 -5.4657626e-37
5.346816e-37 5.536815e-37 -5.7982834e-37 -0.5223311 -5.417514e-37 -0.47396833 3.91985e-37 -5.6442298e-37
-2.5471853e-37 -5.309649e-37 -3.2934725e-37 -6.013746e-37 5.4373936e-37 -0.5157833 -5.774922e-37 -5.2560903e-37
-4.73629e-37 -2.3305333e-37 -5.757576e-37 -5.169749e-37 6.0550246e-37 -1.6874916e-37 2.605343e-37 -5.636732e-37
5.4557666e-37 2.643162e-37 -4.6387957e-37 -5.55839e-37 -6.256792e-37 -5.3537247e-37 -6.19004e-37 5.009088e-37
5.609577e-37 6.2402435e-37 -0.504655 5.831847e-37 -5.965487e-38 -5.490429e-37 2.2402955e-37 -5.0005342e-37
-5.1750472e-37 -0.5052398 -5.480649e-37 -0.48292774 -5.2661953e-37 -5.4616085e-37 1.1330681e-37 -9.455166e-38
-0.05846448 -0.20578727 -0.30592513 -0.2206714 -4.0677654e-37 -0.17603403 -0.05740525 -0.006946083
-5.6937757e-37 -3.9551934e-37 -0.22063912 5.8443347e-37 -0.1463849 -0.21917838 -5.3939287e-37 -0.07534933
-0.23049201 -1.404904e-37 -0.0007853638 -6.5435735e-05 -5.6247893e-27 -0.13039143 -0.06521622 -0.007288847
-0.018219706 1.4255656e-38 8.9934876e-38 -0.03351699 -0.2675762 5.082102e-37 5.651854e-38 -0.22361977
-0.16271716 -0.029244144 -0.013890641 4.514545e-37 -0.3448796 -0.15840411 -2.2888997e-37 -0.17142779
-3.8497533e-06 -0.0279567 -0.1011077 5.877481e-37 -6.121684e-37 -1.237284e-37 3.637545e-37 3.3938794e-37
5.707786e-37 6.158579e-37 -0.26756188 -3.7841637e-15 -6.2214603e-37 -0.30689782 -2.096042e-38 -8.428468e-07
-0.057047706 -0.18477175 -0.010412385 5.0345587e-37 -1.6692458e-14 -0.0002859092 -0.15481368 -1.1739623e-10
-0.26590922 -0.23307621 -0.04362992 5.6915067e-37 2.2051654e-36 -0.25412208 -0.02581077 -7.370389e-05
-0.027418023 -5.5069617e-37 -0.005177144 -5.2590516e-37 -0.024226215 5.50054e-37 5.017709e-37 5.9457217e-38
-0.12999387 -0.32728073 -3.774183e-08 -5.6478036e-37 -0.34624386 -5.153305e-37 -4.6188806e-37 -0.23029655
-0.09600218 -4.387545e-06 -0.02897293 -0.12561494 -0.0002643417 6.005176e-37 -5.32512e-06 -0.23536985
-0.0015658693 -0.30472562 -2.952395e-37 -0.05080502 -1.2208223e-05 -0.31427002 -9.522964e-38 -0.108909845
-1.0790682e-37 -3.4080109e-16 -0.0036467176 -0.0769256 -0.00012210592 -0.10853827 -0.03310442 -0.051526826
-0.0007533908 -0.061238814 6.2057065e-37 -0.31056195 -0.27014133 -3.340225e-39 -0.11797819 -0.00805335
-0.0005164089 -6.010704e-37 -1.0134206e-07 -5.478954e-37 -2.1913001e-38 -0.23068517 -0.0034084413 -0.23313427

2.bias f4 [32]
00000000: 889e fbbe a6e9 8dbe 0d41 0dbf 98e4 dfbe
00000010: 0c1f 7dbe 22b5 84bf 1001 18bf 6407 e2be
00000020: a65c 5fbf f97e 4dbf d8c1 f2be eace f3be
00000030: 5ef9 2bbf 0104 d9be 37fd ab3e 4605 48bf
00000040: 9c95 a7be 3b55 06bf 20c5 d0be 0e60 fdbe
00000050: a3c7 9dbe 8a2c 2ebf 7002 27bf 9a59 13bf
00000060: 73e4 01bf 6dd6 1abf 9543 f6be 65a7 a4be
00000070: 6f42 51bf e684 51bf 5299 d8be f905 43bf
-0.49144387 -0.27717322 -0.55177385 -0.4372909 -0.24718875 -1.0367777 -0.5937662 -0.44146264
-0.87250745 -0.8027187 -0.47413516 -0.476188 -0.6717738 -0.42385867 0.33591625 -0.78133047
-0.3273133 -0.524738 -0.40775394 -0.49487346 -0.30816373 -0.6803671 -0.65238094 -0.57558596
-0.5073921 -0.6048344 -0.48098436 -0.32158962 -0.81741995 -0.8184341 -0.42304474 -0.7618099

4.weight f4 [32, 32]
00000000: 3b8a bf3e 72ba be3d 509a eabe 4383 fd3e
00000010: 0cb5 fb3e beea 093d eee4 9dbe 13bf 12bf
00000020: 61b0 60be c1ba 8abe 47fb 163f 37ab e4be
00000030: 23b6 dabe a004 d73e e86a 0cbf fabf 8dbe
00000040: 5482 303d c834 debe 89d3 e43e 6226 0dbf
00000050: 6f76 4f36 e699 9d3e aeed 06bf d032 bebe
00000060: f3e8 053f fe08 0f3f aa06 d0be ebd9 103d
00000070: 90d5 95be ccb5 8fbe df28 c2be c3ff bfbe
00000080: bfb8 023f d7be d43b 0266 413f ccb1 2c3f
00000090: abfc 0abf 3b9f 953f d891 343f aa26 0f3f
000000a0: 73ad b1be 8b07 103f 29c3 323f caef 053f
000000b0: b361 1a3f 32ac 283f 7654 d53e 2adb 503f
000000c0: b978 f7bd 724b f73e 8110 293f 3f64 e33e
000000d0: fde9 f229 4b1b a0be 01fb 173f 86b5 1c3f
000000e0: 9426 e3be 26e4 e3be ad92 253f d920 c339
000000f0: a4c8 4c3f 607e cf3e 4a4e 3c3f 67f9 0b3f
00000100: 4db6 123f 9946 3a3e 2c32 03bf bbdc 063f
00000110: 856d 0cbf 9f58 933f 6cbd cbbe 7eeb 1fbf
00000120: 0df9 a0be 793c 93be 9809 003f 6082 02bf
00000130: 7332 a0be 8d8a 143f 50df c1be 84ae 02be
00000140: a54d d1be 0ef8 eabe 8030 e23e 942b 15bf
00000150: fac9 c538 6124 38be 4ac8 27bf 236f f0be
00000160: 4810 093f 88e2 0a3f 418b 9cbe bd88 8d3d
00000170: cf53 943f d14e edbe 0802 a5be d973 cabe
00000180: 6066 163f e487 003e 4f90 b4be b1e4 ca3e
00000190: 1871 e7be 419d 67be 632b a7be e96c 11bf
000001a0: d0cb b2be 7a76 bcbe 16ee d83e 8409 d1be
000001b0: d9ef b4be 555d f73e 35ef 15bf d342 e9be
000001c0: 1d53 cb3c 61f3 cbbe f143 e93e 2415 f7be
000001d0: 541d 4a35 a0ed ec3e bc79 d3be 7838 9dbe
000001e0: 410e 0c3f 57e8 cd3e ff28 21bf 3c7c 193d
000001f0: b373 6ebe 673a 19be 5068 d7be f86f ddbe
00000200: e035 2e3f 1c63 f13c 2850 43bf b169 fd3e
00000210: 76d3 0bbf 9b05 993f f8cd 07bf b4e0 e03e
00000220: f33f 98be fc8c 273f b002 0d3f 068e db3e
00000230: cd87 303f 6b38 323f a56d e4be 1009 853e
00000240: 6c61 92be dc2b f0be 17bc f13e fb90 d1be
00000250: 223e b882 7d9c 56be ca72 04bf cbdb 8fbe
00000260: 724b da3e c23b 093f 9eb5 debe c0d7 8a38
00000270: 4b66 5f3e e961 113f 2d24 adbe 9929 133f
00000280: b46c acbe 2a3e 46be 49b6 0abf 720e a8be
00000290: 460a 07bf ec3c 21bd 356a 2bbf d81a c93e
000002a0: 822e 183e 65b3 1a3e cbbb ecbe ba8d 003f
000002b0: 0d52 b43e b5ba d9be 96a9 fabe ceeb 6f3e
000002c0: 185b 01be e72f 26bf c337 fcbe e46f 20bf
000002d0: e4a5 07b9 5364 16bc 3482 08bf 057c 34bf
000002e0: 01ec 1c3f beae d83e a1f0 1cbf 27bd c7bd
000002f0: af58 873e 4b70 c13e 2795 32bf cd9a a33d
00000300: c4fe a8be 22a5 38bc 33ae 4ebf 21f3 e3be
00000310: c79d 06bf e773 453f 83a1 1dbf eb9b dc3e
00000320: 162c 623e 4235 ed3e ab45 17bf 2fcb 1a3f
00000330: 6858 713e 0fe5 b1be ea23 23bf e1bf 733e
00000340: 7622 0ebe 52c1 f9be 5f65 b2be 6ea7 c5be
00000350: 1000 dab2 5c06 983d e785 11bf 0b92 18bf
00000360: eb77 0d3f 7954 053f 9fce 29bf fb64 c7bb
00000370: 3f91 903e 12e3 343f b381 28bf 6acd 283e
00000380: d1bc edbe fd18 5dba c20e f0be 9aae e2be
00000390: 7577 08bf a77e 8d3f a47f 38bf 1209 f03e
000003a0: e6b2 5a3f 0fa0 a23e 058a f6be a462 f43e
000003b0: 1663 fb3d 93b9 bfbe 3f60 e4be 4ca3 863e
000003c0: 8f03 3cbe 2cd4 3dbf 88a5 d5be c8fc 52bf
000003d0: baae 5083 636e ef3c 0e86 03bf 613e 10bf
000003e0: ce40 e53e 66cc c73e 1c15 95be 9100 699a
000003f0: c2f9 ad3e 3d7b 3e3e f8c2 0fbf 524a 703e
0.3741015 0.09312905 -0.45820856 0.49514207 0.49161565 0.033671133 -0.30838722 -0.57322806
-0.21942283 -0.27095607 0.5897717 -0.44661877 -0.42717084 0.41995716 -0.54850626 -0.2768553
0.04309304 -0.43399644 0.4469264 -0.5513669 3.091434e-06 0.30781478 -0.5270642 -0.37148142
0.5230858 0.55873096 -0.40630084 0.035364073 -0.29264498 -0.28068388 -0.37921807 -0.37499818
0.5106315 0.0064924764 0.75546277 0.67458797 -0.5429179 1.1689218 0.7053504 0.5591837
-0.34702644 0.5626151 0.6982904 0.52319014 0.6030533 0.6588775 0.41666 0.8158442
-0.12083573 0.48299748 0.6604081 0.4441242 1.07875494e-13 -0.31270823 0.59367377 0.6121448
-0.4436537 -0.4451 0.64676934 0.00037217772 0.79993653 0.40526104 0.7355696 0.5467743
0.5730942 0.18190993 -0.5124843 0.5268056 -0.54854614 1.151142 -0.39792955 -0.6246871
-0.3144001 -0.28757074 0.5001464 -0.50980186 -0.3128849 0.5802391 -0.37865686 -0.12761885
-0.4087955 -0.45892376 0.44177628 -0.5826962 9.431313e-05 -0.17982627 -0.6553999 -0.4695979
0.5354047 0.5425191 -0.30574992 0.069108464 1.1588076 -0.46349195 -0.32228112 -0.3954151
0.5874996 0.12551838 -0.3526635 0.39627603 -0.4520347 -0.22618581 -0.3265029 -0.5680681
-0.34921122 -0.3680914 0.42369145 -0.40827572 -0.3533924 0.48313394 -0.58568126 -0.45558795
0.024819905 -0.3983412 0.45559648 -0.48258317 7.529354e-07 0.46275043 -0.41303813 -0.30707145
0.5470925 0.40216324 -0.6295318 0.037471995 -0.23286323 -0.14963685 -0.42071772 -0.43249488
0.68050957 0.029466204 -0.76294184 0.494947 -0.5461954 1.1954836 -0.5304866 0.43921435
-0.2973629 0.654495 0.55082226 0.42881793 0.68957216 0.69617337 -0.44614902 0.25983477
-0.28589952 -0.46908462 0.47213814 -0.40930924 -2.7072033e-37 -0.20958133 -0.51737654 -0.28097376
0.42635685 0.5360681 -0.43497938 6.620539e-05 0.21816365 0.56790024 -0.33816662 0.5748535
-0.33676684 -0.19359651 -0.54184395 -0.3282352 -0.5275005 -0.03936474 -0.66958934 0.39278293
0.14861491 0.15107496 -0.46237025 0.5021626 0.3521885 -0.4252526 -0.4895751 0.23429796
-0.12632406 -0.64916843 -0.49261293 -0.6267073 -0.00012936402 -0.009179193 -0.53323674 -0.7050174
0.61297613 0.42320818 -0.6130467 -0.09752875 0.26434848 0.37780985 -0.6975884 0.0798851
-0.3300687 -0.0112698395 -0.80734557 -0.4452143 -0.525845 0.7712998 -0.6157457 0.43087706
0.2208713 0.46329695 -0.5909068 0.60466284 0.2356888 -0.3474507 -0.63726676 0.23803665
-0.13880333 -0.48780304 -0.34842965 -0.386043 -2.5378569e-08 0.07423088 -0.56844944 -0.59597844
0.55261105 0.5208202 -0.66330904 -0.006085036 0.28235814 0.7065898 -0.65822905 0.16484609
-0.46433118 -0.00084342045 -0.4688626 -0.44273835 -0.53307277 1.1054276 -0.72069764 0.4688192
0.8542923 0.3176274 -0.48152176 0.47731507 0.122747585 -0.3744627 -0.4460468 0.2629646
-0.18360732 -0.74151874 -0.41727853 -0.82416964 -6.1326282e-37 0.029227441 -0.51376426 -0.5634518
0.44776005 0.3902313 -0.29117668 -4.8183728e-23 0.33979613 0.18601699 -0.56156874 0.23465851

4.bias f4 [32]
00000000: a2ff 18be bdc4 233f 4ab5 ed3d 12ab cdbd
00000010: 5765 903e 9b25 2cbe 348a 66be c803 9ebe
00000020: 7dee 95be 2671 053d b38f 82bd 0afe 89be
00000030: e162 2b3e 3c8c 40be efaa af3d 5e37 943e
00000040: 2de8 96bd fb23 92be e0ca 7abe 09d7 83bd
00000050: 73d0 15bf a794 e63e d6cb 263e 51da e8be
00000060: ade5 d8bd b2f4 43be 83e7 6fbe 95cf efbd
00000070: 2d55 4c3f cf0b 8d3e f618 8e3e cba2 563e
-0.14941266 0.63972074 0.11606844 -0.10042395 0.28202316 -0.1681122 -0.22513658 -0.3086226
-0.29283515 0.03257861 -0.06375065 -0.2695163 0.16736938 -0.18803495 0.08577525 0.28948492
-0.07368503 -0.28543076 -0.24491453 -0.06437499 -0.58521193 0.45035288 0.16288695 -0.45479062
-0.10590682 -0.19136313 -0.23428158 -0.11709515 0.7981747 0.27548072 0.2775342 0.20960538
