model/cnn-cpu.pth (torch, 8079 bytes, 6 tensors)

conv1.weight f4 [1, 1, 5, 5]
-1.0065535 -0.5374728 0.16848874 0.1357766 -0.4030699 -1.0701617 -0.2062666 0.5027203
0.34617043 -0.21737753 -0.2175069 -0.44007286 0.44224942 0.25215155 -0.24308215 0.27631184
-0.15894336 0.58235574 0.20311983 -0.12681146 0.1931594 0.1696151 0.39158937 0.22860788
-0.14975144
00000000: bfd6 80bf d197 09bf 5088 2c3e 0509 0b3e
00000010: 2e5f cebe 0ffb 88bf 8d37 53be 47b2 003f
00000020: 403d b13e 3798 5ebe 21ba 5ebe 3b51 e1be
00000030: 846e e23e 021a 813e 87ea 78be bf78 8d3e
00000040: 0cc2 22be 4415 153f a5fe 4f3e ddda 01be
00000050: 94cb 453e 95af 2d3e 677e c83e 2f18 6a3e
00000060: 7158 19be

conv2.weight f4 [1, 1, 3, 3]
0.13947225 0.5501158 0.05568248 0.08664665 0.65751886 -0.041802265 -0.24800901 0.6093516
0.59740305
00000000: d0d1 0e3e 64d4 0c3f 5013 643d cd73 b13d
00000010: 2853 283f da38 2bbd 13f6 7dbe 77fe 1b3f
00000020: 68ef 183f

fc1.weight f4 [16, 81]
0.054502886 0.33576682 0.06827896 -0.36243713 0.008055341 -0.086376496 -0.08032715 0.0005025775
0.0575216 -0.06819064 -0.0727768 0.2536619 -0.49612337 -0.19522043 0.07453227 -0.27074742
0.09062183 -0.11136805 0.2876173 -0.21161719 0.25855157 -0.45092392 -0.47674063 0.082407825
-0.17096414 0.18202387 -0.18270937 0.2966695 -0.30240902 0.10583181 -0.018001245 -0.28220022
-0.1111389 0.09714409 0.09888774 -0.10017329 0.49939394 -0.2786011 -0.035742052 0.008093539
-0.28905344 0.028891018 0.17635544 0.34010318 0.28588313 0.60657746 -0.03608351 -0.39276433
0.16253628 -0.0960798 0.40481225 0.29241127 0.48136145 0.15740758 0.42739773 -0.06005152
-0.26856184 0.09054685 0.013869283 0.371485 0.42127946 0.27254748 0.19532634 0.4678657
-0.06632221 -0.48074695 0.1892078 0.3404948 0.2394066 0.3920737 0.33411732 0.31480238
0.19925386 -0.16985138 -0.37827668 0.15755734 0.56843734 0.13304971 0.23614633 0.20353732
0.22430219 0.33501253 0.54533947 0.27295375 -0.07106209 0.4127478 0.09641447 0.32701346
0.07857315 0.5401636 0.43835288 0.28742975 0.17729606 -0.2771253 0.20098627 0.18096131
0.51592493 0.14869812 0.60583955 0.5160979 0.1541401 0.3819424 -0.37273058 -0.1158218
-0.118719935 0.83980286 -0.1438178 0.37721577 0.5821618 -0.08618594 0.16992582 -0.05009332
0.020510523 -0.13068803 0.04284348 -0.1378639 -0.04233191 0.4744151 0.059199616 0.09443004
0.17396295 0.023007791 0.12654695 -0.05368319 0.20878398 -0.14397699 0.58005726 0.48115665
0.02510229 0.05851636 -0.14242922 0.33396786 0.0450573 0.16453932 0.19726646 0.59697276
0.49221098 0.19379735 -0.045121852 -0.1532857 0.46857816 0.81529516 0.15300436 0.3074826
0.35259482 0.31721804 0.04834469 -0.11989138 -0.05402167 0.10078537 0.3914236 0.66276515
0.5773568 0.39943346 0.31744993 0.10268057 0.055987775 -0.13894461 0.05511697 0.7303882
0.9269147 0.30206046 -0.17678154 -0.23681109 -0.016265998 -0.08927378 -0.10676647 -0.09646068
-0.1643702 -0.12530783 -0.12787157 0.08121501 -0.06623457 -0.14256263 -0.095609225 -0.35201636
0.07338533 -0.18764912 -0.11733672 -0.08032987 0.08860181 -0.10040317 -0.22617632 0.033727054
-0.06810255 -0.124200076 -0.18242994 -0.29477072 -0.13263154 -0.41701725 -0.047723442 -0.10921071
-0.059488397 -0.17503196 -0.17555778 -0.2960497 -0.100892015 -0.1258698 -0.030854862 -0.26408076
-0.07859304 -0.076243736 -0.06507089 -0.2555812 -0.027561916 -0.13556528 -0.19416155 -0.11495078
-0.38818938 -0.025386082 -0.18343431 -0.09098925 -0.0076450543 -0.110878006 0.07433482 -0.34891674
-0.13356003 -0.008079321 -0.16825728 0.02830446 -0.12412438 -0.085307606 -0.17642228 -0.08978701
-0.1955444 -0.027502673 -0.03423163 -0.2840377 -0.058565218 0.037147585 -0.046037477 0.060942266
-0.19969714 -0.17988735 -0.13070828 0.058379434 0.0070253043 -0.10703559 0.15881167 -0.05918325
-0.20620495 -0.09671567 -0.15121199 0.40997952 0.16947725 -0.05057946 -0.013216449 0.22901578
0.16890378 -0.12500735 0.06498688 0.0674899 0.3534918 0.40627405 0.13079228 -0.18753588
00000000: 6b3e 5f3d a1e9 ab3e d7d5 8b3d 5c91 b9be
00000010: 8dfa 033c 29e6 b0bd 9082 a4bd 68bf 033a
00000020: c59b 6b3d 89a7 8bbd 010c 95bd f9df 813e
00000030: e203 febe dde7 47be 60a4 983d 689f 8abe
00000040: f097 b93d ef14 e4bd 9342 933e 2db2 58be
00000050: df60 843e 80df e6be 5917 f4be 6fc5 a83d
00000060: 3911 2fbe 7764 3a3e 2a18 3bbe 11e5 973e
00000070: 5bd5 9abe 59be d83d 5977 93bc 8c7c 90be
00000080: cb9c e3bd 7bf3 c63d a885 ca3d a727 cdbd
00000090: 90b0 ff3e cea4 8ebe 4266 12bd c39a 043c
000000a0: d0fe 93be dbac ec3c 8596 343e 0122 ae3e
000000b0: 465f 923e a948 1b3f 4dcc 13bd 6818 c9be
000000c0: e96f 263e 7cc5 c4bd 8d43 cf3e eeb6 953e
000000d0: 0275 f63e 742f 213e e0d3 da3e 95f8 75bd
000000e0: f080 89be a070 b93d fd3b 633c 4833 be3e
000000f0: f1b1 d73e 588b 8b3e a103 483e 188c ef3e
00000100: f0d3 87bd 7724 f6be b1bf 413e 5655 ae3e
00000110: 0127 753e e2bd c83e 6d11 ab3e c72d a13e
00000120: 3409 4c3e 85ed 2dbe 7bad c1be b656 213e
00000130: 1c85 113f 2f3e 083e 58d0 713e 166c 503e
00000140: 79af 653e c386 ab3e 5e9b 0b3f 98c0 8b3e
00000150: 0089 91bd ae53 d33e f374 c53d 4f6e a73e
00000160: f6ea a03d 2948 0a3f ca6f e03e fe29 933e
00000170: 198d 353e 5ee3 8dbe 58cf 4d3e ec4d 393e
00000180: a813 043f 5244 183e 4d18 1b3f fe1e 043f
00000190: e7d6 1d3e f48d c33e 8bd6 bebe fb33 edbd
000001a0: 7023 f3bd 52fd 563f f944 13be 6d22 c13e
000001b0: 8e08 153f 4182 b0bd 0901 2e3e a72e 4dbd
000001c0: af05 a83c 15d3 05be a57c 2f3d 322c 0dbe
000001d0: 3a64 2dbd 89e6 f23e 4c7b 723d 8964 c13d
000001e0: 5823 323e d67a bc3c 8695 013e e8e2 5bbd
000001f0: 78cb 553e b46e 13be a27e 143f 2a5a f63e
00000200: 51a3 cd3c daae 6f3d f7d8 11be d6fd aa3e
00000210: 018e 383d ff7c 283e 3800 4a3e 35d3 183f
00000220: 1403 fc3e d072 463e b1d1 38bd edf6 1cbe
00000230: 7ae9 ef3e 2fb7 503f 2dad 1c3e 5c6e 9d3e
00000240: 4f87 b43e 676a a23e 1505 463d 9d89 f5bd
00000250: d445 5dbd 8f68 ce3d ad68 c83e faaa 293f
00000260: a8cd 133f 8b82 cc3e cc88 a23e 314a d23d
00000270: 7053 653d 7f47 0ebe 55c2 613d b9fa 3a3f
00000280: 484a 6d3f aba7 9a3e 3806 35be 9b7e 72be
00000290: 4540 85bc 2cd5 b6bd 61a8 dabd 2d8d c5bd
000002a0: a950 28be b250 00be c4f0 02be 0e54 a63d
000002b0: fea5 87bd f0fb 11be c5ce c3bd 7d3b b4be
000002c0: 0c4b 963d 1727 40be 3c4e f0bd fd83 a4bd
000002d0: de74 b53d 2da0 cdbd c49a 67be 6125 0a3d
000002e0: 5a79 8bbd 9c5c febd eace 3abe 30ec 96be
000002f0: 90d0 07be 4983 d5be a879 43bd dda9 dfbd
00000300: 1baa 73bd 943b 33be 6bc5 33be d493 97be
00000310: 79a0 cebd 03e4 00be 56c3 fcbc 9835 87be
00000320: 63f5 a0bd ad25 9cbd e343 85bd 8adb 82be
00000330: 87c9 e1bc a0d1 0abe 49d2 46be 516b ebbd
00000340: c2c0 c6be 79f6 cfbc 34d6 3bbe 9258 babd
00000350: 5d83 fabb 0214 e3bd db3c 983d 37a5 b2be
00000360: f6c3 08be 215f 04bc a34b 2cbe c1de e73c
00000370: ec34 febd c1b5 aebd 0ba8 34be 40e2 b7bd
00000380: cb3c 48be 494d e1bc 7736 0cbd 646d 91be
00000390: 15e2 6fbd 1128 183d cb91 3cbd 999e 793d
000003a0: 687d 4cbe 6434 38be 64d8 05be 461f 6f3d
000003b0: 8634 e63b 7a35 dbbd 879f 223e 236a 72bd
000003c0: 6427 53be dd12 c6bd 51d7 1abe d6e8 d13e
000003d0: 728b 2d3e 682c 4fbd ce89 58bc 1d83 6a3e
000003e0: 1df5 2c3e ed01 00be d717 853d 2538 8a3d
000003f0: e1fc b43e 2703 d03e 69ee 053e 6809 40be

fc1.bias f4 [16]
0.081321456 0.37632474 -0.01414071 0.19996704 0.18201062 -0.061922416 -0.034575257 -0.21814728
0.09732114 -0.21141772 0.11159307 0.48567 0.42996302 0.16334723 0.3103499 -0.42620665
00000000: dd8b a63d a3ad c03e 70ae 67bc 29c4 4c3e
00000010: fe60 3a3e 5ca2 7dbd c99e 0dbd 0062 5fbe
00000020: 4e50 c73d e37d 58be e88a e43d bda9 f83e
00000030: 1d24 dc3e 7f44 273e 2fe6 9e3e c237 dabe

fc2.weight f4 [4, 16]
-0.21059312 0.12487842 -0.29730043 -0.34217647 -0.24132407 -0.23805936 -0.19712958 -0.22601096
-0.4264043 -0.0019891232 0.5582969 -0.35285133 -0.14773726 -0.12441715 0.05687659 0.0030878077
-0.072414845 -0.29836679 0.028502744 -0.46943644 -0.37492314 -0.017384289 -0.277092 -0.06404964
-0.21546835 0.077833615 -0.22174227 -0.05101985 -0.23537607 -0.24986017 0.19741103 -0.008178952
-0.19523308 -0.24147706 0.019916775 0.032214586 -0.18576181 -0.012838689 -0.16706471 -0.00065741927
-0.19984433 -0.07152692 -0.57770103 -0.5334299 -0.42596436 -0.2888902 -0.6159778 0.028970173
-0.38542783 -0.4673997 -0.38423762 -0.16834298 -0.30981377 -0.15632224 -0.11884525 -0.02113405
-0.26635292 -0.16203971 -0.39440334 -0.4806125 -0.3509053 -0.2946586 -0.24450804 0.013963836
00000000: b9a5 57be 42c0 ff3d c337 98be c131 afbe
00000010: a81d 77be d5c5 73be 56dc 49be 6b6f 67be
00000020: aa51 dabe f35b 02bb 8cec 0e3f eea8 b4be
00000030: 7048 17be 6bce febd 6df7 683d d15c 4a3b
00000040: 3c4e 94bd 88c3 98be 967e e93c f959 f0be
00000050: edf5 bfbe 7f69 8ebc 01df 8dbe 752c 83bd
00000060: bca3 5cbe 3b67 9f3d 6810 63be 31fa 50bd
00000070: 6d06 71be 58db 7fbe 1e26 4a3e 0301 06bc
00000080: 2eeb 47be c345 77be 8128 a33c 71f3 033d
00000090: 5838 3ebe 5d59 52bc 0313 2bbe a956 2cba
000000a0: fea3 4cbe b57c 92bd 37e4 13bf dd8e 08bf
000000b0: 0018 dabe 6be9 93be b9b0 1dbf db52 ed3c
000000c0: cc56 c5be 034f efbe cbba c4be 1a62 2cbe
000000d0: e99f 9ebe f012 20be 2365 f3bd 5121 adbc
000000e0: 695f 88be bded 25be 3cef c9be d712 f6be
000000f0: dca9 b3be 7edd 96be 5160 7abe 93c8 643c

fc2.bias f4 [4]
-0.3836244 -0.2309976 -0.33266455 -0.2137179
00000000: 6b6a c4be a38a 6cbe 0253 aabe ddd8 5abe
