model/linear-cpu.pth (torch, 7071 bytes, 4 tensors)

linear1.weight f4 [128, 6]
0	0xbf380506	-0.71882665
1	0x3eadb88b	0.33929858
2	0x3f68838c	0.90825725
3	0xbebd91b6	-0.3702523
4	0xbed7d50b	-0.42154726
5	0xbf1d9099	-0.61548764
6	0xbd8b9c3f	-0.06816911
7	0x3e9a9ee4	0.3019935
8	0x3e4ca4ec	0.19984788
9	0x3f7f96ee	0.99839675
10	0xbdf858bf	-0.12126302
11	0x3f5ebf26	0.8701042
12	0xbe9aa4c0	-0.3020382
13	0xbbb20fb3	-0.0054340004
14	0xbde7503b	-0.112945996
15	0x3f0cc435	0.5498689
16	0xbe0062b9	-0.1253766
17	0x3f386374	0.72026753
18	0x3ef05636	0.46940774
19	0xbe32635d	-0.17420717
20	0x3f3df48a	0.7420126
21	0xbecf73fd	-0.4051818
22	0x3f145026	0.57934797
23	0x3ed723d3	0.4201952
24	0xbec90d69	-0.39268044
25	0xbe84251c	-0.25809562
26	0xbe0f4ccf	-0.13994144
27	0x3d54ea06	0.051980995
28	0x3e52dcd4	0.20592052
29	0x3c1e4840	0.00966078
30	0xbc943db5	-0.01809583
31	0x3d0c2725	0.03421702
32	0x3dd111e0	0.102084875
33	0xbeb7d007	-0.359009
34	0x3db09960	0.08623004
35	0xbce5a510	-0.02803281
36	0xbed6b47f	-0.41934583
37	0xbeb0cd64	-0.345317
38	0x3f018d19	0.5060592
39	0xba62cadc	-0.0008651444
40	0xbef1f250	-0.47255182
41	0xbe74b3a4	-0.23896652
42	0xbc87b56d	-0.016566003
43	0x3f7dbc91	0.99115855
44	0x3f663e97	0.89939255
45	0x3f26030d	0.64848405
46	0x3eee97d6	0.46600217
47	0xbeefda70	-0.46846342
48	0xbdf85aed	-0.12126718
49	0xbed972ab	-0.42470297
50	0xbeb69c2d	-0.35666028
51	0xbe036183	-0.12830167
52	0xbc9accee	-0.018896546
53	0xbdc2669f	-0.0949223
54	0xbe1f3a7f	-0.15549658
55	0x3de70bae	0.112815246
56	0xbeb3a01d	-0.35083094
57	0xbe0572e0	-0.13032103
58	0x3dc872f8	0.097875535
59	0x3e321547	0.17390929
60	0x3ed77aba	0.4208582
61	0x3e6a889a	0.22903672
62	0x3ea6caf1	0.32576707
63	0x3f2b7ef1	0.6699057
64	0xbed3b534	-0.41349185
65	0xbe1bcecc	-0.15215605
66	0x3f5da124	0.86574006
67	0x3f669c1a	0.9008194
68	0x3f775b4c	0.9662368
69	0xbe0345d7	-0.1281961
70	0x3f232792	0.63732255
71	0x3e05f8b4	0.13083154
72	0xbf8619f1	-1.0476667
73	0x3ec59cf1	0.385963
74	0x3ef6251c	0.48075187
75	0x3f026184	0.5093005
76	0xbf2fefbc	-0.6872518
77	0xbf3139ff	-0.6922912
78	0x3f1d7450	0.61505604
79	0x3f6a0df9	0.9142757
80	0xbfa340a6	-1.2754104
81	0x3e6b518a	0.22980323
82	0xbf00e738	-0.5035281
83	0xbe7b3503	-0.24531941
84	0xbf64b0a2	-0.8933202
85	0x3ead699b	0.33869633
86	0x3efdc0ca	0.4956115
87	0x3df9ce53	0.12197556
88	0xbf15e438	-0.5855136
89	0xbf43c441	-0.76471335
90	0xbe237569	-0.15962757
91	0xbe432623	-0.19057517
92	0xbef6f627	-0.48234674
93	0x3dcfdc7d	0.10149477
94	0xbeef9b22	-0.46798044
95	0x3db85bb2	0.090018645
96	0x3f3af74e	0.73033607
97	0xbe171647	-0.14754592
98	0x3f70a17f	0.93996423
99	0xbf3990e5	-0.72486717
100	0x3e8a0f5e	0.2696485
101	0x3e852dd4	0.26011527
102	0xbf19b552	-0.600423
103	0xbdb933e0	-0.090430975
104	0x3f097645	0.5369609
105	0x3f2f136d	0.68389016
106	0xbda9778f	-0.08274757
107	0xbf6a5afe	-0.91545093
108	0x3ca1ac61	0.019735517
109	0xbf8b5f82	-1.0888522
110	0x3de657d5	0.112472214
111	0x3e36eb4f	0.178632
112	0x3e1a90e9	0.15094341
113	0x3f1d348b	0.614083
114	0x3ef2e983	0.4744378
115	0xbec196d8	-0.37810397
116	0x3ecab03f	0.3958759
117	0xbe47300e	-0.19451925
118	0xbea5a07d	-0.32349005
119	0x3f388856	0.7208303
120	0x3e6e638b	0.2328016
121	0xbeeb4a9c	-0.4595536
122	0x3ea67506	0.32511157
123	0x3f7f6edd	0.9977854
124	0x3e8cf009	0.27526882
125	0x3f7d5a38	0.9896579
126	0x3f5a5ba3	0.85296077
127	0xbec783ba	-0.38967687
128	0xbf63eefe	-0.8903655
129	0x3ec5adaf	0.38609073
130	0xbf8ae420	-1.0850868
131	0x3ea181ac	0.31544244
132	0x3f15cc33	0.5851471
133	0x3f5139af	0.81728643
134	0x3e0b39ba	0.1359624
135	0x3f8ce15f	1.1006278
136	0xbea26572	-0.31718022
137	0xbf405830	-0.75134563
138	0x3f025123	0.50905055
139	0xbf8930ac	-1.0717978
140	0x3f64f2a3	0.89432734
141	0xbb063eff	-0.0020484326
142	0xbbd02cd2	-0.0063529992
143	0x3f5aabc3	0.8541834
144	0x3f496e68	0.7868409
145	0xbea8e8f0	-0.32990217
146	0xbe94e5dd	-0.29081622
147	0x3f8e9e16	1.1141994
148	0xbec410ea	-0.38294154
149	0x3f5883a3	0.8457586
150	0x3f2ffadd	0.6874216
151	0x3f7f0303	0.9961397
152	0xbe3c3de7	-0.18382989
153	0x3f994e0d	1.1976944
154	0xbee8f3c5	-0.4549848
155	0xbf4d8d9f	-0.8029422
156	0xbe89d408	-0.2691958
157	0xbde59051	-0.11209167
158	0x3e47cf0a	0.19512573
159	0xbe5062f1	-0.20350243
160	0x3e0c1b78	0.13682353
161	0x3e4830ff	0.1954994
162	0x3f4d8cb6	0.8029283
163	0xbf2cdaab	-0.6752116
164	0x3f1b4603	0.60653704
165	0x3f41ddf5	0.75729305
166	0xbd20c978	-0.039254636
167	0x3f560dce	0.83614814
168	0x3f448749	0.7676893
169	0x3e55a8f0	0.20865226
170	0x3f20baa7	0.6278481
171	0x3f8fe7ea	1.124265
172	0xbe8af02f	-0.2713637
173	0x3f0e081d	0.5548113
174	0x3f25c09b	0.6474702
175	0xbed3fd86	-0.4140436
176	0x3f2f7bb5	0.68548137
177	0xbe1ad3e3	-0.15119891
178	0x3e5d5272	0.21613482
179	0x3f3652fd	0.7122038
180	0x3e01408e	0.12622282
181	0xbe4443f3	-0.19166546
182	0xbe9b0557	-0.3027751
183	0x3e11b704	0.14229971
184	0x3db71488	0.08939463
185	0x3e1b8619	0.15187873
186	0x3d958598	0.073008716
187	0xbe37ce65	-0.17949827
188	0xbe4e73c0	-0.20161343
189	0x3cfce384	0.030870207
190	0xbd5e288e	-0.054237895
191	0xbdaad33a	-0.083410695
192	0xbeca962d	-0.395677
193	0xbee49a2c	-0.44648874
194	0xbe541e6c	-0.2071473
195	0x3cb7bf0c	0.022429965
196	0xbdcc07b0	-0.09962404
197	0x3dad3f8d	0.08459387
198	0x3f03edc1	0.5153466
199	0xbf1c050f	-0.6094522
200	0xbd8528d8	-0.06501931
201	0xbe076d6d	-0.13225336
202	0xbdf97ab2	-0.121816054
203	0x3ee16b35	0.44027105
204	0xbf315f50	-0.6928606
205	0x3eb6d5af	0.35709903
206	0xbed498b4	-0.41522753
207	0x3f1e3b86	0.61809576
208	0x3ced26fd	0.028949255
209	0xbf00f8da	-0.5037972
210	0xbface769	-1.3508121
211	0x3f0680d0	0.525403
212	0x3ed759fb	0.42060837
213	0x3f1565e1	0.5835858
214	0xbef80da3	-0.48447904
215	0xbf2a3cbb	-0.6649892
216	0x3f149a9b	0.5804841
217	0x3f3347de	0.70031536
218	0xbfa70692	-1.304888
219	0x3f96a5c4	1.1769338
220	0xbf74ec09	-0.9567266
221	0xbf162193	-0.5864498
222	0xbe916a67	-0.2840149
223	0xbeb442c6	-0.35207194
224	0x3f36ec83	0.7145464
225	0x3ec28e47	0.37999174
226	0x3bc01896	0.005862306
227	0xbead3c74	-0.33835185
228	0xbe3afc31	-0.18260266
229	0xbf49872b	-0.78721875
230	0xbdb708bc	-0.08937213
231	0xbe7d311e	-0.24725768
232	0xbc578454	-0.013154108
233	0xbe83683b	-0.2566546
234	0xbe860898	-0.26178432
235	0xbd3ae800	-0.04563141
236	0xbe414651	-0.1887448
237	0x3d77020f	0.060304698
238	0x3d85addd	0.065273024
239	0xbd9a49bd	-0.07533596
240	0xbe460d77	-0.19341074
241	0xbf16c628	-0.5889611
242	0x3daf11ca	0.08548315
243	0xbe61aabe	-0.22037789
244	0x3e25cd63	0.1619163
245	0x3cced9a8	0.025250271
246	0xbe383f2b	-0.17992847
247	0x3ef7b119	0.48377302
248	0xbdb29c08	-0.08721167
249	0x3ef38d2f	0.47568652
250	0xbf15bcc9	-0.5849119
251	0xbf5f77ce	-0.8729218
252	0x3f751a74	0.9574349
253	0x3f0b75be	0.54476535
254	0xbf0017b8	-0.5003619
255	0xbe7789bb	-0.24173634

linear1.bias f4 [128]
0	0xbe6d1599	-0.2315277
1	0xbd1f65d9	-0.03891549
2	0x3dda0771	0.106459506
3	0x3e2dd68c	0.16976374
4	0xbde6cfdb	-0.11270114
5	0xbef5cade	-0.48006338
6	0xbdce32fd	-0.10068319
7	0xbb07eb14	-0.0020739483
8	0xbd75e767	-0.060035136
9	0xbee18f1b	-0.44054493
10	0x3e3cb2c8	0.18427575
11	0x3e8eacb4	0.27866137
12	0x3d6634d4	0.056202725
13	0x3ebd594b	0.36982188
14	0x3d2a4cd0	0.04157716
15	0x3eb280be	0.34863847
16	0xbe0861ab	-0.13318507
17	0x3ae113e7	0.0017172069
18	0x3dc68c3e	0.09694718
19	0xbe3da570	-0.1852014
20	0xbe05cc30	-0.13066173
21	0x3eff88e9	0.49909142
22	0xbdba1f17	-0.09087961
23	0x3e4c758a	0.19966713
24	0x3dd659fe	0.104663834
25	0xbe59e6ea	-0.21279493
26	0xbf20933c	-0.6272466
27	0x3da64e21	0.08120371
28	0x3e66c690	0.22536683
29	0x3ed04af9	0.406822
30	0xbf09262a	-0.5357386
31	0xbea659f9	-0.3249052
32	0xbf1591de	-0.584257
33	0xbeb5d2bb	-0.35512337
34	0x3e8ab6df	0.27092645
35	0xbd2ed640	-0.042684793
36	0x3e8fda96	0.28096455
37	0xbed7d6dd	-0.42156115
38	0xbe0a807c	-0.13525575
39	0xbeb18efd	-0.34679404
40	0xbef48285	-0.47755828
41	0x3f0bb331	0.545703
42	0x3e3a4c63	0.18193202
43	0xbe6d1899	-0.23153915
44	0xbd9eba22	-0.07750346
45	0xbefd0e4b	-0.49424967
46	0xbda8cf8a	-0.0824271
47	0x3f0d9f5a	0.55321276
48	0x3ee24c14	0.44198668
49	0x3f08af6f	0.5339269
50	0xbf2a125c	-0.66434264
51	0x3e0bb14a	0.13641849
52	0x3e43842e	0.19093391
53	0xbf2475a0	-0.6424198
54	0xbe028d11	-0.12749125
55	0xbea8ace1	-0.32944396
56	0xbe3dc70c	-0.18532962
57	0xbe8b1bf4	-0.27169764
58	0x3e85fe47	0.2617056
59	0xbf0cc18b	-0.54982823
60	0xbe8b6106	-0.2722246
61	0x3edb1144	0.4278661
62	0xbcb4fc43	-0.022092944
63	0xbe2ed27b	-0.1707248
64	0xbeb13ed0	-0.34618235
65	0xbf1052e6	-0.5637649
66	0x3d37821d	0.04480182
67	0xbed9774d	-0.42473832
68	0xbebad0bc	-0.36487377
69	0x3e6c46f1	0.23073937
70	0x3f01fdfc	0.50778174
71	0xbcd0aea2	-0.025473896
72	0x3dfa85c1	0.12232543
73	0xbf019c21	-0.5062886
74	0x3d9d523f	0.07681703
75	0xbdd65473	-0.10465326
76	0x3d9e8548	0.07740265
77	0xbcd3a6e5	-0.025836417
78	0x3e0a38ab	0.1349818
79	0x3e8bee69	0.2733033
80	0xbefb21d1	-0.49049237
81	0xbf0155b6	-0.5052141
82	0x3e791641	0.24324895
83	0xbed9fa00	-0.42573547
84	0x3e9dc65f	0.30815408
85	0x3ee604da	0.44925576
86	0x3e28d8f2	0.16489008
87	0xbf11b17c	-0.56911445
88	0x3eba10d0	0.36340952
89	0xbf069f38	-0.525867
90	0x3f01138b	0.50420445
91	0xbea11a30	-0.31465292
92	0x3e7238b5	0.23654445
93	0xbf160974	-0.58608174
94	0x3e8b705c	0.2723416
95	0x3ecf1317	0.40444252
96	0x3dc3e919	0.09565944
97	0x3d1ba589	0.037999664
98	0xbec22b62	-0.37923723
99	0x3e20fc99	0.15721358
100	0x3eac89e4	0.33698952
101	0xbeb10fd8	-0.345824
102	0xbcab4200	-0.020905495
103	0x3eea4344	0.45754445
104	0xbd960b69	-0.07326395
105	0xbe6371ab	-0.2221133
106	0xbeb7c9e6	-0.35896224
107	0xbe548311	-0.20753123
108	0xbece24a5	-0.40262333
109	0x3e9bddaf	0.3044257
110	0xbdf451ea	-0.11929686
111	0xbe2000bd	-0.15625282
112	0xbda910ee	-0.08255182
113	0x3ea3bc3f	0.31979558
114	0x3dc9a6c3	0.098462604
115	0xbe297a7a	-0.16550627
116	0xbea232c6	-0.31679362
117	0xbf064afb	-0.5245816
118	0xbea1ae10	-0.31578112
119	0x3dc27f30	0.09496915
120	0xbd8a0340	-0.06738901
121	0x3deaa5e0	0.114574194
122	0x3ec793d4	0.3897997
123	0xbe5585a8	-0.20851767
124	0xbe8ce171	-0.27515748
125	0x3e464b37	0.1936463
126	0xbdd78726	-0.105238244
127	0x3e703c54	0.23460513

linear2.weight f4 [4, 128]
0	0x3f19debe	0.601055
1	0x3ee11681	0.43962482
2	0x3e2f72ba	0.17133608
3	0xbec990f4	-0.39368403
4	0xbc0a0347	-0.008423633
5	0xbcb10be0	-0.021612108
6	0x3e161945	0.14658077
7	0x3db22cef	0.08699977
8	0x3e547036	0.2074593
9	0xbd779fec	-0.060455248
10	0xbe2c33bd	-0.16816612
11	0xbef5c393	-0.48000774
12	0x3f1804c4	0.5938227
13	0xbe8cb6ef	-0.27483317
14	0x3f0e6ed2	0.5563785
15	0x3e3b6f89	0.18304266
16	0xbed912f3	-0.4239727
17	0x3f337bf1	0.70110995
18	0xbe2389a1	-0.1597047
19	0xbf01b9e4	-0.5067427
20	0xbd6ea877	-0.05826613
21	0xbf049453	-0.51788825
22	0x3d1632a0	0.036669374
23	0xbe851809	-0.259949
24	0xbf00a75c	-0.5025537
25	0x3d7c00b3	0.061524104
26	0x3ebb6f46	0.36608332
27	0xbf45810b	-0.7715003
28	0xbf06323d	-0.5242041
29	0xbf36cac7	-0.71403164
30	0xbe1cb696	-0.15304026
31	0x3aa0653f	0.0012237205
32	0x3dd06ec6	0.10177378
33	0xbebd99c3	-0.37031373
34	0x3eeb3991	0.45942357
35	0x3f5ddf04	0.8666842
36	0x3e18c7a8	0.14919913
37	0x3e8eb983	0.2787591
38	0x3ae52ca8	0.0017484622
39	0x3c700048	0.014648505
40	0x3e152027	0.14563046
41	0x3e811223	0.2520915
42	0xbf157333	-0.58378905
43	0xbd37e8e6	-0.044899844
44	0x3b8ca38a	0.0042919563
45	0xbd8c4c9d	-0.0685055
46	0xbed900af	-0.42383334
47	0xbee97cd5	-0.45603052
48	0xbe67c56f	-0.22633909
49	0xbcd0df0b	-0.02549698
50	0xbb386793	-0.0028137907
51	0x3d9e3f71	0.07726944
52	0xbf0e584d	-0.55603486
53	0x3e43e75f	0.1913123
54	0xbf05a023	-0.52197474
55	0xbd7ae1ca	-0.061250485
56	0xbcff37f8	-0.031154618
57	0xbf2073e7	-0.6267685
58	0xbb76388c	-0.0037570326
59	0x3d93d28d	0.07217894
60	0xbcd54c76	-0.026037436
61	0x3ed373a3	0.4129916
62	0x3e5d3f2c	0.2160613
63	0xbec8de7d	-0.39232245
64	0xbe9a12e5	-0.3009254
65	0x3d7f93c0	0.062396765
66	0xbee09eed	-0.4387125
67	0xbdc8e7ff	-0.09809875
68	0x3e53b2bb	0.20673649
69	0xbdfd50fc	-0.12368962
70	0x3e832c0d	0.25619546
71	0xbe0a9ad3	-0.13535623
72	0xbf3d224e	-0.7388047
73	0x3b8be419	0.0042691347
74	0x3efc44de	0.49271291
75	0x3e24c1ae	0.16089508
76	0xbedaed57	-0.427592
77	0xbee1eabb	-0.44124398
78	0xbe425272	-0.18976763
79	0xbeed2ee5	-0.4632484
80	0xbd71efa4	-0.05906643
81	0xbd64449e	-0.0557295
82	0x3ddce3b0	0.107856154
83	0xbc5586e8	-0.013032652
84	0x3ef8c987	0.48591253
85	0xbeeb746c	-0.4598726
86	0xbf264e16	-0.649629
87	0xbe39a045	-0.18127544
88	0xbf3e2104	-0.7426913
89	0x3e38311e	0.17987487
90	0xbec1b4f6	-0.37833375
91	0xbe98d7c6	-0.29852122
92	0xbe2287e2	-0.15872148
93	0xbdaef827	-0.08543425
94	0x3f0d3a59	0.55167156
95	0xbda32621	-0.07966257
96	0xbec03862	-0.37543017
97	0xbe92b1b5	-0.28651205
98	0xbd7f24c6	-0.06229093
99	0x3e9aacd7	0.3020999
100	0x3c904ff4	0.01761625
101	0xbe008647	-0.12551223
102	0xbee144c8	-0.43997788
103	0x3efefb20	0.49800968
104	0x3d1afcb9	0.03783867
105	0xbd727c8f	-0.05920082
106	0xbd73ce11	-0.059522692
107	0x3df168fa	0.11787601
108	0xbdb44e02	-0.08803941
109	0x3e8ed680	0.27898026
110	0x3e2751b4	0.16339761
111	0xbedd2094	-0.43188918
112	0xbf02d03e	-0.51099
113	0xbe0fd67f	-0.14046668
114	0xbe7ede64	-0.24889523
115	0xbe85d8e6	-0.26142043
116	0xbd5d2eab	-0.053999584
117	0x3d94ef83	0.07272246
118	0xbd851d20	-0.06499696
119	0xbd4eb498	-0.050465196
120	0xbf0b3668	-0.5437989
121	0xbdc6e080	-0.09710789
122	0xbf04cc38	-0.51874113
123	0xbd55c3d7	-0.05218872
124	0xbdb549c3	-0.088519596
125	0xbe5bdffe	-0.21472165
126	0x3ea471e6	0.32118148
127	0xbe915dc3	-0.28391847
128	0xbdd86fe2	-0.10568215
129	0x3e8f211f	0.27954957
130	0x3e767b78	0.24070537
131	0x3d9cdbd3	0.07659116
132	0xbc5f0ab8	-0.013613395
133	0x3decf1fa	0.11569591
134	0xbc1e9b50	-0.009680584
135	0xbf3e4863	-0.74329203
136	0xbe84ea9f	-0.25960252
137	0x3e058990	0.13040757
138	0xbe464d9c	-0.19365543
139	0xbf04014a	-0.51564467
140	0xbe4eb94a	-0.2018787
141	0xbf0f41ee	-0.55959976
142	0xbe6b5029	-0.22979797
143	0x3ea45d87	0.32102606
144	0x3e1586ac	0.14602154
145	0x375612a6	1.2759736e-05
146	0x3ee16152	0.44019562
147	0x3ec7c44a	0.39016944
148	0x3ed3b306	0.41347522
149	0x3f00e291	0.5034571
150	0xbf3684eb	-0.71296567
151	0x3f4b9fab	0.7954051
152	0x3eb0ef7a	0.34557706
153	0xbf352c2d	-0.7077053
154	0x3e41806f	0.1889665
155	0x3ebc0311	0.3672109
156	0xbd5fc84f	-0.05463439
157	0x3e82fad6	0.25581998
158	0xbdcef639	-0.10105557
159	0x3dc345ca	0.095347956
160	0xbd925a6e	-0.07146154
161	0x3e61f34f	0.22065471
162	0xbdc70b6a	-0.09718974
163	0xbdd692a4	-0.10477188
164	0xbe10384e	-0.14083979
165	0x3de5b351	0.112158425
166	0x3e80eb51	0.25179532
167	0xbd4ff46a	-0.0507702
168	0x3d9bc7d2	0.07606472
169	0xbeca7ca8	-0.3954823
170	0xbe950244	-0.2910329
171	0x3d87d643	0.06632664
172	0xbde47d4e	-0.111567125
173	0x3d6b4964	0.057443038
174	0x3f130411	0.5742808
175	0xbb92d4e9	-0.0044809473
176	0x3c643cb3	0.013930487
177	0x3d8f2138	0.06988758
178	0x3e35deb4	0.17760736
179	0xbef9e7ba	-0.48809606
180	0xbe472d15	-0.19450791
181	0x3e947a3e	0.28999513
182	0xbedbb74f	-0.4291329
183	0x3dae8a93	0.08522525
184	0xbd3a4b2c	-0.045481846
185	0x3e9d883c	0.30768
186	0xbf1ef228	-0.6208825
187	0xbd9245de	-0.07142232
188	0xbd23ffa3	-0.040038716
189	0xbd6d6948	-0.057961732
190	0xbe24d9c2	-0.16098693
191	0xbf266148	-0.6499219
192	0xbeeba0d9	-0.46021155
193	0x3d1bde7b	0.03805397
194	0x3f1118b2	0.5667831
195	0x3d22b53e	0.039723627
196	0xbca46db8	-0.02007185
197	0xbe421038	-0.189515
198	0xbf10f413	-0.5662243
199	0x3eca9657	0.39567825
200	0xbd7a4e02	-0.06110955
201	0xbd19c17e	-0.037538044
202	0xbefb975c	-0.49138916
203	0xbf2d0a99	-0.67594296
204	0x3f34829e	0.70511806
205	0xbe5ffac6	-0.21873006
206	0xbe52dfdb	-0.20593207
207	0xbe043bfa	-0.12913504
208	0xbe3cd736	-0.18441471
209	0x3d9b77dd	0.075912215
210	0xbf086a72	-0.5328742
211	0x3ef2d778	0.47430015
212	0xbf1065f8	-0.5640559
213	0xbee642b5	-0.44972768
214	0x3e210499	0.1572441
215	0x3d5f4b03	0.054514896
216	0x3d0386fb	0.03211115
217	0x3e543d10	0.20726418
218	0xbeb5b291	-0.35487798
219	0xbc9a6cce	-0.01885071
220	0x3f03de58	0.51511145
221	0xbe001122	-0.12506536
222	0xbece9be1	-0.403533
223	0xbf0a0791	-0.53917795
224	0xbd945570	-0.072428584
225	0xbeae864b	-0.34086832
226	0x3c8899f3	0.016674971
227	0xbe9cbf2b	-0.306146
228	0x3ece1864	0.40252984
229	0xbd847a95	-0.06468693
230	0xbdfe3e44	-0.1241422
231	0x3f6a0533	0.91414183
232	0x3ee00f00	0.43761444
233	0x3e00beb9	0.12572755
234	0x3d11034e	0.035403542
235	0xbe89d5c0	-0.2692089
236	0x3d9690d6	0.07351844
237	0xbf0337f3	-0.51257247
238	0x3e23cc7b	0.15995972
239	0xbec92012	-0.3928228
240	0xbef03696	-0.46916646
241	0xbf117bc7	-0.56829494
242	0x3f0a9ec4	0.5414851
243	0xbf02ae32	-0.5104705
244	0xbcf59f3a	-0.029983152
245	0x3c91a6a9	0.017779665
246	0xbd3a58df	-0.04549491
247	0xbefbd8bd	-0.49188796
248	0x3f777d5f	0.96675676
249	0xbed295fb	-0.4113005
250	0xbd56771c	-0.052359685
251	0xbd094d3d	-0.033520926
252	0xbdaabe93	-0.083371304
253	0xbf205d44	-0.6264231
254	0xbda2ee83	-0.07955649
255	0xbede0621	-0.4336405

linear2.bias f4 [4]
0	0xbe00ee09	-0.12590803
1	0xbe7d6a1d	-0.2474751
2	0xbeabe41b	-0.33572468
3	0xbe7a6d92	-0.2445586
