model/linear_with_surroungding_input-cpu-1.pth (torch, 65951 bytes, 4 tensors)

linear1.weight f4 [128, 121]
00000000: 9cbb a03d 331f 98bd ac6c 7f3d 14c8 0b3d
00000010: 0c67 883c e033 213b f4d4 cfbc c86f a2bc
00000020: a0c1 76bc 4442 953d c978 9ebd 043e 493d
00000030: fbe5 a53e f50d 813b 17f8 963e e563 353e
00000040: 936e d53e ec42 37bd 12e8 a33e 6395 dd3d
00000050: 18cc 29bc 63e7 67bd 6020 943d b980 063d
00000060: fe0b 453d c6a6 1bbc c882 97be 5c65 b13d
00000070: 8d5a 363d 47c5 443d 68a8 743e 8c95 b2bc
00000080: ae7f a93d 42b7 aabd 73e7 34be 6606 bf3d
00000090: 9bd2 12bd 8a4b 393e 6ce4 46be 2a12 9dbd
000000a0: d653 a43e f9c1 c33d 1d13 953e 3cff a83d
000000b0: a4c2 983c aca7 a6bd 3092 46be 90f3 44be
000000c0: 3bbf 983e ec0c 5b3e 6e72 193e c829 673e
000000d0: a6c3 f3bd d0e7 8d3b a067 073b efa2 8fbd
000000e0: 6347 09be d0b6 1c3e d477 1bbe 0c07 4cbe
000000f0: 9051 623d 79ff 68be 67d8 abbe 1af7 4b3e
00000100: a0c9 333e 401d babc 4018 51bd f1d9 683e
00000110: e6a9 42be 929d a6be a1cf ba3d ef4c 5abe
00000120: cf27 d6bd 5f14 3dbe 1d34 603e 6c07 3abe
00000130: fc64 733d 4c64 293d 5cf5 8f3e 97ef ab3d
00000140: de99 65bd cbc8 35be d7a5 4dbd 0595 903d
00000150: 8800 8d3d 3bd9 783d a134 bd3d c073 853b
00000160: 2353 b4bd b47d 873d 3c1e b13c 56fe 09bb
00000170: b4da ac3d 874b ba3d 124f c73d 6c4f b4bd
00000180: 107b d1bc 0353 80bd 3037 02bc 2550 90bd
00000190: c847 34be ad6c 313e b8fa 69bd b9d5 a7bd
000001a0: b92b 3bbe c0d2 393d 381c 6abd 2139 223e
000001b0: 802f e4bc a0bc 273c c022 423d d0b4 a03d
000001c0: 52ff 1abd 6c18 623d 304f 7b3d 5276 29bd
000001d0: b013 b5bc d216 73bd 54a1 703d b0f3 cf3c
000001e0: f01f af3b 7482 a0bc 4f64 59bd fc4b a93c
000001f0: 00fb 63ba c0e9 593d fadb 1bbd 4479 8a3d
00000200: 2036 1d3b 68d3 e23c 4ce6 b8bd 5c4e 3a3d
00000210: cc69 143d 865d 283e 1062 88bc a43b d13d
00000220: 8f0c 803e 72ba a5be 6014 8bbd c2d1 913e
00000230: 3d24 f23d 68ed 3e3d 3e1e 93bd d801 5cbd
00000240: 523c 91be 6fcf 0d3e d794 e33a cbde 4f3e
00000250: bc5f 1b3e b3f6 0ebe d345 143e 4b48 113c
00000260: dfba 91bd ccf2 c8bc c8d0 40bc 959e 2abd
00000270: a997 aa3c b332 003e f652 d63e 3cbb 0e3f
00000280: 085c dc3d 641d 0b3e af14 063e 30d2 ae3e
00000290: d434 993d 5532 5fbd 27d0 69b9 a067 d23e
000002a0: 27c9 8cbe eb04 783d 9606 c63e 632d 7cbe
000002b0: 1d43 043e bc65 a3bd a817 d03c e8be 733d
000002c0: 4ce5 ffbc dada 873d 0e20 803e aa89 7abd
000002d0: 3358 c43d 647b 193d b0ee 5abe ac12 b7be
000002e0: 06f3 cf3e ec00 78be e8da 273d 28fb 3e3d
000002f0: 3ee9 5a3e bb28 0cbe df70 07be 0ac1 d63c
00000300: dd56 9abe 4342 26be 043b 113d 3ea0 d73e
00000310: 5708 88bd c0fe a83b 488a 93bd 0a36 7a3e
00000320: a9e7 eb3c 4548 503e f8f2 be3d e4fb 2cbe
00000330: d390 b63e fc58 103d 06b6 0dbb 68aa 8ebc
00000340: 38f1 69bd 3c97 82bd 1a4d 093d fc42 713d
00000350: 00b2 9b3d 5f8f 38bd ea19 463d 2f35 1c3e
00000360: 8316 a4bc b584 a0bd e605 1fbd c0c4 a33c
00000370: 465d 0b3d 6fb6 61bd 8db3 873e 52dc b63d
00000380: 4537 aebd aa62 44be 7681 5c3d 719b 10bd
00000390: 5e95 233e 186c b53d f0ce 893d 30b7 9f3b
000003a0: a000 033c 2f57 0abd ce26 8a3d f811 acbd
000003b0: 9046 fd3b a0f0 5dbc 0c2c b2bd 6c70 a63d
000003c0: dc62 e1bc 5c34 b13c 4c27 b43c 2034 76bb
000003d0: 9481 2f3d 6856 b03c 6636 073d 19ea b4bd
000003e0: a8d9 0b3d fcee 9b3d 9061 733c c8a4 9b3d
000003f0: fe4c 9c3d 3491 4e3d 1fff 653e 8e37 16be
0.07848284 -0.07427826 0.062359497 0.034126356 0.0166507 0.002459757 -0.025370099 -0.019828692
-0.015060812 0.0728803 -0.07737882 0.04913141 0.32402024 0.0039384314 0.29486153 0.17713888
0.41685924 -0.044741556 0.32012993 0.10819509 -0.010363601 -0.056617152 0.072327375 0.032837603
0.04810714 -0.009500211 -0.29591966 0.08661911 0.04451995 0.0480397 0.23892367 -0.021799825
0.08276306 -0.08335735 -0.17666416 0.09327392 -0.03584538 0.18095222 -0.19423074 -0.0766948
0.32095212 0.09558482 0.29116145 0.08251807 0.0186475 -0.081374496 -0.19391704 -0.19233537
0.29833397 0.21391648 0.14985058 0.22574532 -0.11902551 0.0043306127 0.002066113 -0.07013499
-0.13406138 0.15304112 -0.1518243 -0.19924563 0.055253565 -0.22753705 -0.3356354 0.1991848
0.17557383 -0.022719026 -0.051048517 0.22739388 -0.19010124 -0.32542092 0.09121633 -0.2131841
-0.10456812 -0.18464802 0.2189488 -0.18166894 0.059422478 0.041355416 0.28116882 0.083953075
-0.056054942 -0.17752378 -0.050206985 0.07059673 0.06884867 0.060754042 0.09238554 0.0040726364
-0.088049196 0.06615773 0.021620862 -0.0021056137 0.08440152 0.09096437 0.09731878 -0.08804211
-0.025571376 -0.06265833 -0.007947728 -0.07046536 -0.17605507 0.17326613 -0.05712387 -0.08195061
-0.18278398 0.045367002 -0.057155818 0.15842105 -0.027854681 0.010237843 0.04739642 0.07846987
-0.03784115 0.05519907 0.061354816 -0.041372605 -0.022104114 -0.059347935 0.058747604 0.025384754
0.0053443834 -0.019593455 -0.053074177 0.020666115 -0.00086967647 0.053201437 -0.038051583 0.06761411
0.002398856 0.027688697 -0.09028301 0.045484886 0.03623371 0.16441926 -0.016648322 0.10216454
0.2500958 -0.3236881 -0.067909956 0.28480345 0.11823318 0.046613127 -0.071835026 -0.053712696
-0.28366333 0.13848661 0.0017363083 0.20299833 0.15173239 -0.13961296 0.14479761 0.008867334
-0.07115721 -0.024529837 -0.011768527 -0.04165514 0.02082427 0.1251934 0.4186017 0.55754447
0.10759741 0.1358543 0.13093828 0.34144735 0.07480779 -0.05449136 -0.00022298154 0.41094685
-0.27497217 0.060551565 0.386769 -0.24626689 0.12916227 -0.07978389 0.025401905 0.059508234
-0.031237267 0.066335395 0.25024456 -0.061166443 0.09587135 0.03747119 -0.21380115 -0.35756433
0.406151 -0.24219102 0.04098025 0.04662624 0.21378037 -0.13687412 -0.1322665 0.026215095
-0.30144396 -0.16236214 0.035456672 0.42114443 -0.06642216 0.0051573217 -0.072041094 0.24434677
0.028796988 0.20340069 0.09323686 -0.16892964 0.35657367 0.035241112 -0.0021623387 -0.01741524
-0.05711481 -0.06376502 0.033520795 0.058901772 0.0760231 -0.045058604 0.048364557 0.15254663
-0.020030266 -0.07837812 -0.038823985 0.019991279 0.0340245 -0.055105623 0.26504174 0.089287415
-0.085066356 -0.19178262 0.0538344 -0.03530449 0.15974948 0.08858508 0.06728923 0.0048741326
0.0079957545 -0.03377455 0.06745683 -0.08401865 0.007729359 -0.013546139 -0.086998075 0.081269115
-0.02751296 0.021631412 0.021991394 -0.003756769 0.042848185 0.021525577 0.033010863 -0.08833713
0.03414312 0.07613942 0.014854804 0.07599789 0.076318726 0.050431445 0.22460602 -0.1466963

linear1.bias f4 [128]
00000000: 39cb 763f 1025 803f 2cd4 fb3e 4fe2 ca3e
00000010: 4af9 9c3f a9f2 373f bf12 ea3e 3aa1 e03d
00000020: 8a02 b73e 8537 563f c61b a63f b64c c33d
00000030: ed80 9a3f d99d e83e c444 193f 4d5c 8f3e
00000040: a6e7 5a3f 6c83 a13f 9cac c2be 51c9 953f
00000050: 8f42 b23e f5b8 c93e 961c ba3e b37f 2dbe
00000060: f230 1b3f 03fd 9e3f ad79 f83e 5b7c 7e3f
00000070: f068 a7be 0a56 503f 9926 503f 4752 a23e
00000080: c1a2 493f bed0 d7be 3466 5f3f 05a8 893f
00000090: 6726 173f 6d57 913f 9ec8 523e 3380 3c3b
000000a0: 26db 7fbd eafb 383f 985e 3f3f a3fa e63e
000000b0: 7919 4b3f 1f0b e33e 28bb 6d3f 0a6b 8bbe
000000c0: cef2 ffbd 6a28 db3e eae4 6f3f 24f8 483e
000000d0: de7b c93e 826c 7d3f beff a43f bd46 bdbe
000000e0: 95b4 9c3f 417c 0d3b d0f6 6e3f 3b2e 803e
000000f0: 8867 7a3f 04c1 263f 3433 403f fdd2 4abc
00000100: 89fa 3e3f e500 b53d 35c0 90be e2c8 2c3f
00000110: eba2 61bd e950 dbbd 6839 9e3f 4a9f 913e
00000120: c987 07be 052b bf3e a45b 38be e8a7 403f
00000130: af5d d4be 0b54 5c3e a4fd 63be 3dad 253e
00000140: d638 313f 968f a93e 6ec9 0c3e 7c73 09bf
00000150: 797d 143f b2c6 cabe e0b9 3bbb 1601 cabe
00000160: 8d1a 513f ece7 40bd 49b9 513f f3f0 913f
00000170: 7a42 803f af18 be3e 2296 133f 6569 e03e
00000180: 3245 783e a65c 9cbe 34e9 95be 0e56 e3bd
00000190: 72b4 3e3f 7c06 933f 1efd 6b3d d9cd ae3f
000001a0: 3f68 ac3f dfd9 9f3f 0dce 693f 5531 273e
000001b0: 4454 183f c88c 463f d5ac 923f f9cc 9d3c
000001c0: e23d 703e 429e 52be e2e3 b53e 9158 79be
000001d0: 760c a5be 148e 733f 5236 e23d 020c 26bd
000001e0: f867 3a3f 010a 383f b608 8d3d b063 503e
000001f0: 62e2 0d3e 664f 953f 4c36 e73d a170 a83f
0.96403843 1.001131 0.49185312 0.39625785 1.2263577 0.71854645 0.45717427 0.109682515
0.35744125 0.83678466 1.2977226 0.09536116 1.2070595 0.45432928 0.59870553 0.28000107
0.8550972 1.2618232 -0.38022316 1.1702062 0.34816405 0.39398924 0.36349934 -0.16943245
0.6062156 1.2420963 0.4853033 0.994085 -0.32697248 0.81381285 0.81308895 0.31703398
0.7876397 -0.42151445 0.87265325 1.07544 0.5904297 1.1354805 0.20584342 0.0028762936
-0.062464856 0.7225939 0.74753714 0.45113096 0.79335743 0.44344422 0.928637 -0.27230102
-0.12497483 0.4280427 0.9370867 0.19625908 0.39352316 0.98993695 1.2890546 -0.36968032
1.2242609 0.0021588954 0.93345356 0.2503527 0.97814226 0.6513827 0.7507813 -0.012379405
0.74601036 0.08838061 -0.28271642 0.6749402 -0.05508701 -0.10708792 1.2361269 0.2844184
-0.13235392 0.3733751 -0.18003708 0.75256205 -0.41477725 0.21516435 -0.22264725 0.16179366
0.6922735 0.3311736 0.13748714 -0.5369184 0.58003956 -0.39604717 -0.0028644726 -0.39453954
0.8168114 -0.047096178 0.8192335 1.1401657 1.0020287 0.37128207 0.5765096 0.4383041
0.24245146 -0.30539435 -0.29279482 -0.11100398 0.7449409 1.1486354 0.05761444 1.365657
1.3469313 1.2488364 0.91330034 0.16327412 0.5950358 0.77558565 1.1458994 0.019262778
0.23461106 -0.20568183 0.35525423 -0.24350192 -0.3223607 0.9513867 0.11045517 -0.040538795
0.72814894 0.71890265 0.06886427 0.20350528 0.1385589 1.1664855 0.11289653 1.3159372

linear2.weight f4 [4, 128]
00000000: 85e5 51bb de23 b9be 66f8 0bbe 4e93 25bc
00000010: 344e 8dbe b2e9 b5bd 4bea 58be 4e88 26be
00000020: 6b2f 80bf a9a3 c8be 8d4b e3be 0dea b8bc
00000030: d437 a0be 79f9 653e ed4b 13bf 828e ab3d
00000040: 82ab 283e b9e4 0abf 0213 083e bb67 0dbf
00000050: af86 2c3d b092 b5be f4c6 84be 8849 0e3e
00000060: 57fc aabe 9ec6 a1be f793 91be e8e5 dfbe
00000070: fa5d b83b 59ad 2bbd 149c 21bc aeaf a3be
00000080: 8c12 d2bd 5f00 2dbe e94f b4be d630 02bf
00000090: f670 b0be c911 b5be 5273 503d aa1a 7cbc
000000a0: 38a8 763d da5a d43d 5b44 28bf bcdc c9be
000000b0: 5709 113e c057 093d 4958 abbd c490 90be
000000c0: 7ffb 7b3d 0ba1 d63d 6846 9ebd f470 cabe
000000d0: 4b12 163d f962 bfbe 028b 0ebf 59bd c03d
000000e0: 1c9f a8be cb52 19be 541c bebe f26b 05bf
000000f0: 4f26 8dbe 5802 bbbe ef91 9dbe a134 18be
00000100: 6f44 5abe 3404 6e3e 17d0 0dbe 1198 adbe
00000110: bb70 b6be 5888 6bbd 77df 85be d817 c5be
00000120: f641 123e 3792 b6be a88d a53d 7feb 7fbe
00000130: 87e2 713e f086 80be 93df 4fbe c2d1 133e
00000140: 6fb9 58be 36cb 653e cca7 d4be 9289 623d
00000150: 817a bbbc bff3 a2be 7a58 f33e 75ff 6ebb
00000160: 049d 47bd 81db c0be 4b3a 923e 8252 5abd
00000170: f54c 0fbe b80f 4f3f 3303 6b3e df3f 51bb
00000180: d8aa 64bd 5a8c 5abd 238a 22bc f334 5dbe
00000190: 9196 3a3e f976 11bf e506 92be cd56 edbe
000001a0: babd 03bf 3711 dbbe 1e63 57be fefa d1be
000001b0: 99f9 41be d833 00be 6224 cfbe 0fc7 163e
000001c0: 9adc e83d e966 f5bd 85ae fdbe 97aa 39bf
000001d0: 2836 cabe ddaa 22be afe6 76bd 2207 2b3d
000001e0: 5ed3 dfbd 2a45 7abe 8be0 82be 70f0 7dbe
000001f0: dccb e73e 317b cbbe 1788 bdbe cdfb f0be
00000200: 6a6d 31be 8b37 9ebe 8868 bdbe 6b70 85be
00000210: c9ce 90be 910e 6fbe c9a3 aabe 8fa7 8dbe
00000220: f6aa 103f ce74 74bb f7e8 87be 35be 04be
00000230: a5ca 9bbe dbdd fbbe 80a0 db3e 2acb a5be
00000240: 0e5a ccbe df0e c13d 824d 4dbe 4e64 213e
00000250: a41a a5be a4cd 86be 675e 023d 4e1f 69be
00000260: a7c3 b1bd bbac 94be 411f 5fbe 2171 273e
00000270: ac40 60be f014 8cbe 62ad e9be cbf1 8bbe
00000280: 3b71 75be f9c7 4c3c 7458 27be 2365 49be
00000290: a617 f1bb 7848 85bd cfd5 213e 1da6 a0be
000002a0: 361e 303e 0781 2dbf a1d3 543f e259 91bd
000002b0: cfe5 febe c430 413e c595 48be 7c51 3f3d
000002c0: a751 5ebe 8c52 a2bd 95c6 dbbe e741 e3be
000002d0: 1a7f 173e 55de d0be eeca a7be abe2 cfbd
000002e0: cdd8 12bf 93fa f3bd 05d3 06bf 518a d53e
000002f0: 346d 82be 57b8 093f 27ed 0d3f 31ea a1bd
00000300: 896a 6dbe a009 80be 6f49 42bd 3dc2 66be
00000310: 4df5 97bd d56f b8bd 3cf2 e2bd f4e9 08be
00000320: 7512 3dbe 20f6 b33b be98 c6bd 38d3 07be
00000330: c855 f53d b18e 5ebe e02f c13b 624a 94be
00000340: d7fd 633e 8993 67be 511e 1f3f f3b4 423e
00000350: 9fb9 f9be 6e33 833e c95b 1fbe 0b4a d23c
00000360: bdd6 28be 2a28 f6bd 5f18 e0be 6751 e2be
00000370: fa7f 31be 9715 02bf 9e7b 2fbd 473a 523e
00000380: 3c23 04be a13a debd 5503 e3bd 9c68 9c3e
00000390: 8fc0 e0be 3a9f 76be 4fb3 58be ed73 95be
000003a0: 8a14 a1be 3c29 b9be cf9e 78be 01c0 16bc
000003b0: d8e9 4cbe a035 f53c 5099 68be d12a eb3d
000003c0: 3664 7fbe 7593 5abe 80be 493e 392e 113e
000003d0: 9c84 bd3d a88c c8be 1edf 8bbe 1550 e03d
000003e0: a8a7 563e 7333 53be d2cb 62be f2af b2bd
000003f0: a430 fb3e c02f f8be 1843 9dbe ac7e debe
-0.0032027673 -0.36160177 -0.13668975 -0.010105921 -0.27598727 -0.088824645 -0.21183126 -0.16262934
-1.0014471 -0.39187363 -0.44393578 -0.022572542 -0.31292593 0.22458448 -0.5753773 0.083767906
0.16471675 -0.54255253 0.13288501 -0.55236405 0.04212063 -0.35463476 -0.2593304 0.13895237
-0.33395645 -0.31596845 -0.284332 -0.43730092 0.0056264373 -0.041913364 -0.009863872 -0.3196997
-0.10257444 -0.16894673 -0.35217217 -0.5085577 -0.34461182 -0.35365131 0.050891228 -0.015387217
0.06021902 0.10368891 -0.657293 -0.3942622 0.14163719 0.03353095 -0.083664484 -0.28235447
0.061519142 0.10479935 -0.07728273 -0.395393 0.03663854 -0.37380198 -0.5568086 0.09411115
-0.3293389 -0.1497299 -0.37130988 -0.52117836 -0.2756829 -0.36525226 -0.307754 -0.14863826
-0.21315168 0.23243791 -0.13848911 -0.3390508 -0.35632882 -0.057503074 -0.26147053 -0.38494754
0.14282975 -0.35658428 0.080836594 -0.24992178 0.2362157 -0.2510295 -0.2030013 0.14435485
-0.21164487 0.224408 -0.4153427 0.05530698 -0.022885563 -0.3182659 0.4752844 -0.0036468182
-0.048733726 -0.37667468 0.285601 -0.05330134 -0.139942 0.8088336 0.22950439 -0.003192894
-0.05582699 -0.053356506 -0.00992063 -0.2160223 0.18221499 -0.5682216 -0.28520885 -0.46355286
-0.51461375 -0.4278657 -0.21033904 -0.41011804 -0.1894287 -0.12519777 -0.40457445 0.14724372
0.113702014 -0.11982519 -0.4954721 -0.72525924 -0.39494443 -0.15885492 -0.06027859 0.04175485
-0.10928987 -0.24440446 -0.25561938 -0.24798751 0.4527272 -0.39742425 -0.3701789 -0.4706711
-0.17326894 -0.3090175 -0.36993814 -0.2606233 -0.28282765 -0.233454 -0.33328083 -0.276669
0.56510866 -0.0037301066 -0.26544926 -0.12963183 -0.30428043 -0.491927 0.4289589 -0.32381564
-0.39912456 0.094266646 -0.20049098 0.1576092 -0.32246888 -0.26328766 0.03182831 -0.22765848
-0.08679896 -0.29038033 -0.21789266 0.16351749 -0.2189967 -0.27359724 -0.45640093 -0.2733291
-0.23968975 0.012498849 -0.16342336 -0.19667487 -0.0073575554 -0.06507963 0.15804218 -0.31376734
0.17199025 -0.67775005 0.8313542 -0.07097222 -0.49784705 0.18866259 -0.19588383 0.04670857
-0.21710835 -0.07925901 -0.42924944 -0.44386217 0.14794579 -0.40794626 -0.3277201 -0.10150655
-0.5736206 -0.119130276 -0.5266574 0.4170709 -0.2547394 0.53796905 0.5543999 -0.079059966
-0.23185171 -0.25007343 -0.047433313 -0.22535034 -0.07419834 -0.09005705 -0.11081359 -0.13370496
-0.18464072 0.005491987 -0.09697102 -0.13264167 0.11979252 -0.2173412 0.0058955997 -0.28963
0.22264801 -0.22614874 0.62155634 0.19014339 -0.4877443 0.25625175 -0.15562357 0.025670072
-0.16488166 -0.120193794 -0.43768594 -0.4420273 -0.17333975 -0.50814193 -0.0428425 0.20530044
-0.12904066 -0.10851026 -0.1108462 0.3054856 -0.4389691 -0.24084178 -0.21162151 -0.29190007
-0.31460983 -0.36164272 -0.2427933 -0.009201051 -0.2001108 0.029932797 -0.22714734 0.11482776
-0.24940571 -0.21345313 0.19701576 0.14177789 0.09253809 -0.39169812 -0.27318662 0.109527744
0.20962393 -0.20625095 -0.22148064 -0.08724965 0.49060547 -0.4847393 -0.3071525 -0.43456018

linear2.bias f4 [4]
00000000: 6f0e 46bf e0a8 d9be c468 f6be 1b1f 00bf
-0.77365774 -0.42511654 -0.48126805 -0.50047463
