model/linear_with_surroungding_input-cpu-2.pth (torch, 65951 bytes, 4 tensors)

linear1.weight f4 [128, 121]
0	0xbe3c0e55	-0.18364842
1	0xbd981f33	-0.07427826
2	0xbe349d6e	-0.1763818
3	0xbdc343d1	-0.09534419
4	0xbdf27de2	-0.118404165
5	0xbde39bec	-0.11113724
6	0xbe27b6bc	-0.16378301
7	0x3dc62bbc	0.096763104
8	0xbded5915	-0.11589257
9	0xbd911167	-0.07083397
10	0xbd9e78c9	-0.07737882
11	0xbe680fed	-0.22662325
12	0x3dc491b6	0.09598105
13	0xbe8f3d20	-0.27976322
14	0xbd4950f0	-0.049149454
15	0xbd25d53b	-0.040486556
16	0x3eb1b1ab	0.34705862
17	0xbe1eda6e	-0.15513012
18	0x3d7fc677	0.06244513
19	0xbd745b38	-0.059657305
20	0xbe2df10e	-0.16986486
21	0xbd67e763	-0.056617152
22	0xbd8184a1	-0.06324125
23	0x3e0bbe8d	0.13646908
24	0xbddec7ee	-0.10877977
25	0xbd8f6daf	-0.07003342
26	0xbe9782c8	-0.29591966
27	0xbd917101	-0.07101632
28	0xbe723daf	-0.23656343
29	0xbdccd1d2	-0.100009575
30	0x3e1cc7d9	0.15310611
31	0xbe519a1d	-0.20468946
32	0xbd7c3c22	-0.061580785
33	0xbdf92ab2	-0.121663466
34	0xbe34e773	-0.17666416
35	0xbd823697	-0.063580684
36	0x3e278ee7	0.16363107
37	0xbe37d3e3	-0.17951922
38	0xbe46e46c	-0.19423074
39	0x3dfe5457	0.1241843
40	0x3e9ba472	0.303989
41	0xbceb2005	-0.028701792
42	0x3e836ce7	0.25669023
43	0x3c8f3dcb	0.01748552
44	0xbcccb68a	-0.024989385
45	0xbd76aa7e	-0.060221188
46	0xbe469230	-0.19391704
47	0xbe44f390	-0.19233537
48	0xbe47a397	-0.19495998
49	0xbda9c7bb	-0.08290049
50	0xbd8602f8	-0.06543535
51	0x3eeb8fec	0.4600824
52	0xbdf3c3a6	-0.11902551
53	0x3e0289e7	0.12747918
54	0xbda97bda	-0.08275576
55	0xbd2b2ff1	-0.041793767
56	0xbe017d64	-0.12645489
57	0xbdc9a8a9	-0.098466225
58	0xbe1b77d4	-0.1518243
59	0xbe4c070c	-0.19924563
60	0x3d625190	0.055253565
61	0xbe68ff79	-0.22753705
62	0xbeabd867	-0.3356354
63	0xbe3cec87	-0.18449603
64	0xbdf764c0	-0.120797634
65	0x3e4a03d3	0.19728021
66	0x3a5731e3	0.0008209033
67	0x3e76606f	0.24060224
68	0xbe42a9e6	-0.19010124
69	0xbea69d92	-0.32542092
70	0x3df4aaf2	0.11946668
71	0xbe5a4cef	-0.2131841
72	0xbe20d4e9	-0.15706219
73	0xbe3d145f	-0.18464802
74	0xbe622b33	-0.22086792
75	0xbe3a076c	-0.18166894
76	0xbc08f519	-0.008359217
77	0x3da42d87	0.08016496
78	0x3ea30888	0.31842446
79	0xbe3ad562	-0.18245462
80	0xbdbb7a19	-0.09154148
81	0xbe35c8cb	-0.17752378
82	0x3d2b6289	0.041842017
83	0xbdb8d287	-0.0902453
84	0xbe2818b3	-0.16415672
85	0xbcdd1bee	-0.026990857
86	0xbc537894	-0.012907166
87	0xbe6d3aed	-0.2316701
88	0xbe0184a8	-0.1264826
89	0x3e8f9c66	0.2804901
90	0xbdc588af	-0.09645211
91	0xbdb8e7c4	-0.09028581
92	0xbdc157da	-0.094405845
93	0x3e5fe608	0.21865094
94	0xbd4b4475	-0.049625833
95	0xbe7ac24a	-0.24488178
96	0xbdd76ff6	-0.10519402
97	0xbd805303	-0.06265833
98	0x3f04aff0	0.5183096
99	0xbe1928b1	-0.14956929
100	0xbe3447c8	-0.17605507
101	0x3daa3c70	0.08312309
102	0xbca2dcf5	-0.019880751
103	0xbe18c997	-0.1492065
104	0xbe3b2bb9	-0.18278398
105	0x3e1468c3	0.14493088
106	0xbe59d360	-0.2127204
107	0xbdddda0c	-0.10832605
108	0xbe4ad596	-0.19808039
109	0x3e72d2ce	0.23713228
110	0xbdc11ea1	-0.0942967
111	0xbc88a303	-0.016679293
112	0xbe4dc510	-0.20094705
113	0x3e8dbef9	0.27684763
114	0x3d7b4f30	0.061354816
115	0xbe476a1f	-0.19474076
116	0xbe3325fb	-0.17494957
117	0xbe6817a1	-0.22665264
118	0xbd8d4ca4	-0.06899384
119	0x3e02cad2	0.12772682
120	0xbd680394	-0.056644037
121	0xbebb75a0	-0.36613178
122	0xbe8e93f0	-0.27847242
123	0xbe8fc840	-0.28082466
124	0x3ee6273a	0.44951802
125	0x3eb32488	0.3498881
126	0x3da76199	0.08172912
127	0xbe6f98af	-0.23398088
128	0xbe096845	-0.13418682
129	0x3d5ee980	0.0544219
130	0x3d935bb0	0.071952224
131	0xbcb1730e	-0.021661308
132	0x3e8794ab	0.26480612
133	0xbe553b61	-0.20823433
134	0xbe825749	-0.25457218
135	0xbd942a08	-0.07234579
136	0xbe96ca1b	-0.2945107
137	0xbea5ba72	-0.3236881
138	0xbeb0516f	-0.3443713
139	0x3c434776	0.011918893
140	0xbe066024	-0.13122612
141	0x3e625cca	0.22105709
142	0xbea4a41b	-0.32156453
143	0xbe87e997	-0.26545402
144	0xbe913c52	-0.28366333
145	0xbe38e09b	-0.1805443
146	0xbe829e29	-0.25511292
147	0xbcdf173e	-0.027232762
148	0xbe5e06b6	-0.21682248
149	0xbe866dbf	-0.26255605
150	0x3c4b5d24	0.012412343
151	0xbe87e518	-0.26541972
152	0xbec84898	-0.39117885
153	0xbec1504f	-0.37756583
154	0xbed4fea8	-0.41600537
155	0x3da65a1a	0.08122654
156	0xbdc3a8f9	-0.09553713
157	0x3e01b404	0.12666327
158	0x3e9295a5	0.28629795
159	0x3ddc2388	0.107489645
160	0xbb82b8fe	-0.003989338
161	0x3ea12f7d	0.31481543
162	0x3e635d6d	0.22203608
163	0x3e7d61ab	0.24744289
164	0x3e45d9f4	0.19321424
165	0xbe935b11	-0.28780416
166	0x3d6879ad	0.056756664
167	0x3f43e10b	0.76515263
168	0xbe8cc927	-0.27497217
169	0xbe914308	-0.28371453
170	0x3d8f8d9a	0.0700943
171	0xbe7c2d63	-0.24626689
172	0xbd04f47d	-0.032459725
173	0xbe82514f	-0.2545266
174	0x3dedf11f	0.11618256
175	0x3db46908	0.088090956
176	0xbde1d85e	-0.11027597
177	0xbd921d21	-0.07134462
178	0x3e0294d3	0.12752084
179	0xbd980201	-0.07422257
180	0xbe7aee51	-0.24504973
181	0x3d197b64	0.03747119
182	0xbea1345c	-0.3148526
183	0xbeb712ac	-0.35756433
184	0x3d855f5c	0.06512329
185	0xbe7800ec	-0.24219102
186	0x3d8e02f8	0.0693416
187	0x3bf87b67	0.00758307
188	0xbe823aee	-0.25435585
189	0xbe9160dc	-0.2839421
190	0xbe795ddf	-0.24352215
191	0xbce5b43e	-0.028040048
192	0xbe9a56dd	-0.30144396
193	0xbea803cb	-0.32815394
194	0xbe94bd76	-0.29050797
195	0x3e940b27	0.2891476
196	0x3ddd91f8	0.10818857
197	0xbe373643	-0.17891793
198	0x3e0bd5a6	0.13655719
199	0x3ee160d2	0.4401918
200	0x3e35ce01	0.17754366
201	0x3c9c6fc5	0.019096265
202	0xbdb61cd9	-0.08892221
203	0xbe2cfbe4	-0.16892964
204	0x3e170bf9	0.14750661
205	0xbe41ad10	-0.18913674
206	0x3dafec8b	0.08590039
207	0xbe20aa4e	-0.15689966
208	0xbd92dd74	-0.07171145
209	0x3e04470a	0.12917724
210	0xbe387d41	-0.1801653
211	0x3d641e16	0.055692755
212	0x3e938f91	0.2882047
213	0xbd44b5f8	-0.0480251
214	0x3b9cacfc	0.0047813635
215	0xbcf1bb68	-0.029508308
216	0x3edd2870	0.43194914
217	0x3db77111	0.089571126
218	0x3c852a2f	0.016255466
219	0xbe79c5e6	-0.24391899
220	0xbd1a4de1	-0.037671927
221	0x3e3958a0	0.18100214
222	0x3e246661	0.1605468
223	0x3e7f41fc	0.24927515
224	0xbde6458d	-0.112437345
225	0x3e07e2b8	0.1327008
226	0x3db84989	0.08998401
227	0xbdba6be3	-0.09102609
228	0xbe1223b4	-0.14271432
229	0x3edabd77	0.42722675
230	0xbe729589	-0.23689856
231	0xbc2e06eb	-0.010621767
232	0x3cb6c215	0.022309342
233	0xbe16f673	-0.1474245
234	0x3c50bc96	0.012740275
235	0xbdac11f8	-0.08401865
236	0x3ddc666d	0.10761724
237	0xbdb547c0	-0.08851576
238	0xbdedfde0	-0.116206884
239	0xbc9699df	-0.018383918
240	0xbe05b40d	-0.13056965
241	0xbe616c50	-0.22013974
242	0xbee28d8f	-0.44248626
243	0xbe984f58	-0.29748034
244	0x3c8ec27d	0.017426724
245	0xbe96d98f	-0.2946286
246	0x3dc27f2b	0.094969116
247	0xbec25761	-0.3795729
248	0xbd4e2dda	-0.050336696
249	0x3e79f618	0.24410284
250	0x3da9fee7	0.08300572
251	0x3e37e3ca	0.17957988
252	0xbe8c1808	-0.27362084
253	0x3ed32a28	0.412431
254	0xbec4852a	-0.38382846
255	0xbef4725f	-0.47743508

linear1.bias f4 [128]
0	0xbca3ba4c	-0.019986294
1	0x3f8e171d	1.1100804
2	0x3f8b6901	1.089142
3	0xbf5ba881	-0.8580399
4	0x3fefaa5f	1.8723868
5	0xbed01951	-0.40644315
6	0x3f01d2c8	0.5071225
7	0xbf16aa75	-0.58853847
8	0x3eb4df8b	0.353268
9	0x3f05ec1e	0.5231341
10	0x40196f13	2.3974044
11	0xbece30ab	-0.40271506
12	0x3ff4dd19	1.9129974
13	0x3f588a7a	0.845863
14	0x3f941c9c	1.1571231
15	0xbed7bb3c	-0.42135036
16	0x3f41fa26	0.7577232
17	0x40190ef3	2.3915374
18	0xbf0f89ea	-0.56069815
19	0x3fd9b86a	1.7009404
20	0xbdfb52b8	-0.12271637
21	0x3f806f68	1.0033998
22	0x3ee009fd	0.4375762
23	0xbf0ee5bd	-0.558193
24	0xbf0c96d1	-0.5491763
25	0x400ed087	2.2314775
26	0x3f975bef	1.1824931
27	0x3fdaccc3	1.7093738
28	0xbdfe5302	-0.12418176
29	0xbefa5069	-0.48889473
30	0x3fa82e86	1.3139198
31	0x3f235072	0.63794625
32	0x3e117e25	0.14208277
33	0xbf46e1b0	-0.7768812
34	0x3fc37c5b	1.5272325
35	0x4000c125	2.0117886
36	0xbe15043e	-0.145524
37	0x3fc52127	1.5400742
38	0xbf3535b3	-0.70785064
39	0xbdbaffa2	-0.09130789
40	0xbf06d319	-0.5266586
41	0x3f679627	0.9046349
42	0x3f761638	0.96127653
43	0x3f8d3cf6	1.1034229
44	0x3fab79f8	1.3396597
45	0xbe3d3522	-0.184773
46	0x3eb211ab	0.34779105
47	0xbf013a42	-0.5047952
48	0xbf4e7f30	-0.8066282
49	0xbeed3fcf	-0.46337745
50	0x3f87100f	1.0551776
51	0xbe51ee69	-0.20501103
52	0x3f2f8e67	0.68576664
53	0x3fec5c54	1.8465676
54	0x400a26c4	2.158616
55	0xbf03cea5	-0.5148719
56	0x4017b9fb	2.3707263
57	0xbed1336d	-0.40859547
58	0x3ff2997c	1.895309
59	0xbebbffef	-0.367187
60	0x3eb24c71	0.34823945
61	0x3f8930d7	1.071803
62	0x3f703d1c	0.93843246
63	0xbe9767d3	-0.295714
64	0x3ea9de6a	0.331775
65	0xbe0567a5	-0.13027819
66	0xbf1211ba	-0.570583
67	0x3f8b2d07	1.0873116
68	0xbe3b4ba9	-0.18290581
69	0xbf575ab1	-0.8412276
70	0x3f24e36c	0.6440952
71	0xbf4555a6	-0.77083814
72	0xbf148120	-0.5800953
73	0xbf4cbaef	-0.7997274
74	0xbf46b83c	-0.7762487
75	0x3f69aa2c	0.91275287
76	0xbf7da190	-0.9907465
77	0xbf21bf90	-0.63182926
78	0xbe434ad8	-0.1907152
79	0x3ebab976	0.3646962
80	0x3f887476	1.0660541
81	0xbf37d0e5	-0.7180312
82	0xbe3a462b	-0.1819083
83	0xbf61fd93	-0.8827755
84	0x3f26e2e5	0.65189964
85	0xbf5ab897	-0.8543791
86	0xbf447e24	-0.76754975
87	0xbf441b36	-0.7660402
88	0x3fcf8926	1.6213729
89	0xbee6965d	-0.45036593
90	0x3f2debef	0.6793813
91	0x3ff73f38	1.9316168
92	0x3fc30261	1.5235101
93	0x3efbb221	0.4915934
94	0xbf4988e4	-0.78724504
95	0x3eb23e50	0.34813166
96	0xbdeb716c	-0.11496243
97	0xbf59c6a1	-0.8506871
98	0xbf3f0ef4	-0.7463219
99	0xbefa1055	-0.48840585
100	0x3f372ab1	0.71549517
101	0x3fb25fa5	1.3935438
102	0xbe40eaa4	-0.18839508
103	0x400987a1	2.1489031
104	0x400f30d8	2.2373562
105	0x3ff2a9f2	1.8958113
106	0x3eb6ee78	0.35728812
107	0xbee5dbaf	-0.44894168
108	0xbea24fc5	-0.31701484
109	0x3f1d5dcb	0.6147124
110	0x3fc4c75c	1.537334
111	0xbeca8fe5	-0.39562908
112	0xbedccee7	-0.43126604
113	0xbf4c6b76	-0.7985147
114	0x3f801d86	1.000901
115	0xbf61c68c	-0.88193583
116	0xbf28ca99	-0.6593414
117	0x3f9b0213	1.2110008
118	0xbebbab13	-0.36653957
119	0x3fbcf0ce	1.4760988
120	0x3fb48bb1	1.410513
121	0xbed6fc57	-0.41989395
122	0x3d83860f	0.06422054
123	0xbc17db40	-0.009268582
124	0xbec34dd6	-0.38145322
125	0x40146706	2.318788
126	0xbde3441f	-0.110969774
127	0x40171cd0	2.3611336

linear2.weight f4 [4, 128]
0	0xbd8dd15c	-0.06924698
1	0xbee4dbac	-0.44698846
2	0xbd6c19dc	-0.05764185
3	0x3b949ea5	0.0045355135
4	0xbca3c699	-0.01999216
5	0xbe1a3207	-0.15058146
6	0xbec10c0f	-0.37704512
7	0x3c54c64f	0.012986734
8	0xbf5e005d	-0.86719304
9	0xbe7bd8e9	-0.24594463
10	0xbdddfd20	-0.108392954
11	0xbeab359a	-0.33439332
12	0x3d172c55	0.036907513
13	0xbd894d8c	-0.06704244
14	0xbf25f59f	-0.64827913
15	0x3dd652b3	0.104649924
16	0xbe36aabd	-0.17838569
17	0xbe5d6a94	-0.21622688
18	0x3e046e20	0.12932634
19	0xbe8a6b95	-0.27035204
20	0x3ef6d243	0.48207292
21	0xbf02d1ff	-0.5110168
22	0xbdbfeb0b	-0.09371003
23	0x3c0c7e8e	0.008575095
24	0xbdc9bf87	-0.09850984
25	0xbde7acf2	-0.113122836
26	0xbe9011fa	-0.28138715
27	0xbf0dbf45	-0.5536998
28	0xbecb42a2	-0.39699274
29	0xbdef7e37	-0.116939954
30	0xbc7ac17d	-0.01530492
31	0x3dd0ca0c	0.101947874
32	0xbe35e4a2	-0.17762998
33	0xbe4b0a3d	-0.19828124
34	0xbf671e9b	-0.90281075
35	0x3dfb2757	0.12263363
36	0xbdddf5c3	-0.10837891
37	0xbe58c714	-0.21169692
38	0xbd8d28f0	-0.06892574
39	0xbb0a832a	-0.0021135309
40	0xbed86c97	-0.42270347
41	0xbce30c1e	-0.027715739
42	0xbd7d8c4c	-0.061901376
43	0x3ecf5eb5	0.40501943
44	0xbeefb98a	-0.46821243
45	0x3d32ca7c	0.043650135
46	0xbdffa8ec	-0.12483391
47	0xbdf4678f	-0.11933815
48	0x3d8be0a1	0.06829954
49	0x3e091e02	0.13390353
50	0xbea7b9de	-0.32758993
51	0xbec11cee	-0.37717384
52	0x3db8718b	0.090060316
53	0xbeda2fb8	-0.42614532
54	0xbe9b48ce	-0.30328983
55	0x3f07c34b	0.5303237
56	0xbdea3193	-0.11435237
57	0x3d392c5d	0.045208324
58	0x3d4fe9ab	0.050759953
59	0xbd943972	-0.07237519
60	0xbe1757a0	-0.1477952
61	0xbea27362	-0.31728655
62	0xbf2f2656	-0.6841787
63	0xbe9a0d40	-0.30088234
64	0xbd505dbf	-0.050870653
65	0x3e3fe02a	0.18737856
66	0x3e9c58b5	0.30536428
67	0xbc743586	-0.014905339
68	0xbe89c80c	-0.26910436
69	0x3e30a617	0.17250858
70	0xbdfcb6e7	-0.12339573
71	0xbd20ffa1	-0.039306287
72	0xbe792f27	-0.24334393
73	0x3dd7b203	0.10532
74	0x3cd79fa5	0.026321242
75	0x3bae4cfb	0.0053192354
76	0x3e363cc2	0.17796615
77	0xbd48a323	-0.048983704
78	0x3d9ea016	0.07745378
79	0x3e655ed7	0.2239946
80	0xbe87c830	-0.26519918
81	0xbe6b0376	-0.22950539
82	0x3e50e8b6	0.20401272
83	0x3e397e93	0.1811469
84	0xbdae1247	-0.0849958
85	0xbde2bc97	-0.11071127
86	0xbcff48bd	-0.031162614
87	0x3de08709	0.10963256
88	0xbf092c44	-0.5358317
89	0xbdc4bbd4	-0.09606138
90	0xbde8df58	-0.113707244
91	0x3cf5b992	0.029995713
92	0xbf2cf3f2	-0.6755973
93	0xbe863054	-0.26208746
94	0x3d71cfd1	0.05903608
95	0xbdc97c8b	-0.09838208
96	0x3f2f7c50	0.6854906
97	0xbbe8d7e7	-0.0071058157
98	0xbdd1654e	-0.102244005
99	0xbee3ad19	-0.44468
100	0xbec06ada	-0.3758152
101	0xbdd8e411	-0.10590375
102	0x3ed0d508	0.4078753
103	0x3cdb2c66	0.02675457
104	0xbf3c8219	-0.73636013
105	0xbe3509cd	-0.1767952
106	0xbed94e4d	-0.4244255
107	0xbe8de6fa	-0.27715284
108	0x3ea11de3	0.31468114
109	0x3c13376e	0.008985383
110	0xbeaa0ea8	-0.33214307
111	0xbb20bafb	-0.0024525512
112	0x3cf8ec2f	0.030386059
113	0x3c963255	0.018334547
114	0xbe9d6a75	-0.30745283
115	0xbeee9d53	-0.46604404
116	0xbf17c3eb	-0.5928332
117	0xbec95eaf	-0.3933005
118	0xbe2f0d21	-0.17094852
119	0xbf430e03	-0.76193255
120	0xbd209cac	-0.039211914
121	0xbe2a000c	-0.1660158
122	0xbe20d7ad	-0.15707274
123	0x3f1b582a	0.606814
124	0x3e774062	0.24145654
125	0xbedc9bc7	-0.430876
126	0x3f74878a	0.95519316
127	0xbe62058c	-0.22072428
128	0x3cb7537f	0.022378681
129	0x3c32544e	0.010884358
130	0xbe44d70b	-0.19222657
131	0xbe112a08	-0.1417619
132	0xbd4be11d	-0.04977523
133	0x3dc990c7	0.09842067
134	0xbea4bfdf	-0.32177636
135	0xbe3e4c18	-0.18583715
136	0x3e7acc76	0.24492058
137	0xbdf8024c	-0.12109813
138	0xbe3375b6	-0.17525372
139	0xbe4d3623	-0.20040183
140	0xbdd80fb1	-0.10549868
141	0xbcea28dd	-0.028583938
142	0xbe83de6d	-0.25755635
143	0xbe580a3e	-0.21097657
144	0xbdef4c6d	-0.11684499
145	0xbe7b4a61	-0.24540092
146	0x3dcf3753	0.10117974
147	0xbd84172d	-0.06449733
148	0xbe70f4f7	-0.23530947
149	0x3e2d6718	0.16933858
150	0xbd2805b1	-0.041021053
151	0xbd2a4d67	-0.041577723
152	0xbd293fad	-0.04132049
153	0xbd22c284	-0.039736286
154	0xbef115d2	-0.4708696
155	0xbe65b870	-0.22433639
156	0xbe8f7a5e	-0.28023046
157	0xbe8162f7	-0.25270817
158	0xbe53f423	-0.206986
159	0x3e36c4a5	0.17848451
160	0x3e364012	0.17797878
161	0xbe3d369c	-0.18477863
162	0x3d648641	0.055792097
163	0xbe9385c7	-0.28813002
164	0x3e8f02bd	0.27931777
165	0xbe94e3db	-0.2908009
166	0xbe16b274	-0.14716512
167	0xbe8b76f8	-0.27239203
168	0xbd4d3c55	-0.050106365
169	0xbe83ac3f	-0.2571735
170	0x3e4eaeb6	0.20183834
171	0xbe5629f8	-0.20914447
172	0xbe6df1d6	-0.23236784
173	0xbe70f60c	-0.2353136
174	0xbeb365ac	-0.35038507
175	0xbe88d86b	-0.26727614
176	0x3d34d9ef	0.04415315
177	0xbde2dfd0	-0.11077845
178	0xbe1321e3	-0.14368396
179	0xbe18324b	-0.14862935
180	0xbf0d9394	-0.5530331
181	0xbd2d748b	-0.042347472
182	0xbec91548	-0.3927405
183	0xbe6b1142	-0.22955802
184	0xbebf1874	-0.37323344
185	0x3e8a5a2a	0.27021915
186	0xbe7a34a0	-0.24434137
187	0x3d4bc7ad	0.049750973
188	0x3df0e2b8	0.11761993
189	0x3e54bc75	0.20775016
190	0x3db87f60	0.0900867
191	0x3d5fb836	0.054619037
192	0xbcf1e181	-0.029526474
193	0x3e09341d	0.13398786
194	0xbe82b094	-0.25525343
195	0xbe8c6bfb	-0.27426133
196	0xbe026cc5	-0.12736805
197	0x3ce253cf	0.027627854
198	0xbc88a782	-0.016681436
199	0x3e4778bd	0.19479652
200	0xbe430692	-0.19045475
201	0xbde91902	-0.11381723
202	0xbd75b107	-0.05998328
203	0xbdf232e3	-0.11826112
204	0xbe5c5317	-0.21516071
205	0xbe6edab0	-0.2332561
206	0xbe57b40f	-0.2106478
207	0xbe703bff	-0.23460387
208	0xbe0abf86	-0.13549623
209	0x3dd82c5b	0.10555335
210	0x3f328ae0	0.69743156
211	0x3cf49e17	0.02986054
212	0xbf143fa2	-0.57909596
213	0x3dd4f1a6	0.10397653
214	0xbd9c91ab	-0.076449715
215	0xbf1f7d02	-0.6230012
216	0x3a442a29	0.0007483089
217	0xbd0b8fed	-0.034072805
218	0xbf0a88b8	-0.54114866
219	0xbe9a549b	-0.30142674
220	0x3f2425c5	0.6412013
221	0xbec4d78f	-0.38445708
222	0xbdce730f	-0.100805394
223	0xbdcc250f	-0.09968006
224	0xbe039db4	-0.12853128
225	0x3d033cc2	0.032040365
226	0xbd864f86	-0.06558137
227	0xbd42c3aa	-0.04754988
228	0xbe561631	-0.20906903
229	0xbe129496	-0.14314494
230	0x3cd0ffa3	0.025512522
231	0xbe2fd03f	-0.17169283
232	0xbe13c67a	-0.14431182
233	0xbd9cc523	-0.07654788
234	0xbd9cbd44	-0.07653287
235	0x3e8f5f45	0.28002372
236	0xbe135d0a	-0.1439096
237	0xbedada72	-0.42744786
238	0xbd603850	-0.054741204
239	0x3cf6b65d	0.030116254
240	0x3e3c7639	0.18404473
241	0x3e2fe4f6	0.17177185
242	0x3b2617e4	0.002534383
243	0xbccec900	-0.025242329
244	0xbd87699b	-0.066119395
245	0xbe697ac3	-0.22800736
246	0xbe5982ea	-0.21241346
247	0xbe15819b	-0.14600222
248	0xbe93550f	-0.28775832
249	0x3c8ab4da	0.01693194
250	0x3df60f4f	0.12014639
251	0x3e03cd8b	0.12871377
252	0x3dc12ba0	0.09432149
253	0xbe93622e	-0.28785843
254	0xbdfe4b0e	-0.12416659
255	0xbe948fb9	-0.29015902

linear2.bias f4 [4]
0	0xbfb2c3ff	-1.3966063
1	0xbf9381ce	-1.1523988
2	0xbf8f0df3	-1.1176132
3	0xbfaca611	-1.348818
