model/linear.pth (torch, 7135 bytes, 4 tensors)

linear1.weight f4 [128, 6]
0	0x3f578f53	0.8420307
1	0x3ecf9f33	0.40551147
2	0x3ea806ba	0.32817632
3	0x3f20b187	0.62770885
4	0x3e56f731	0.20992734
5	0x3d9a0a75	0.07521526
6	0xbe0240af	-0.12719987
7	0xbec61516	-0.38687962
8	0xbdd3c4ca	-0.10340269
9	0x3df005b6	0.11719839
10	0x3e3d2644	0.18471628
11	0x3ca2a259	0.019852804
12	0xbe5af3cc	-0.21382064
13	0xbf45f4af	-0.7732648
14	0xbed062f9	-0.4070051
15	0x3e770a33	0.24124984
16	0x3ec94b3c	0.39315212
17	0x3dd82060	0.1055305
18	0x3e52facc	0.20603484
19	0x3d79a386	0.060946964
20	0xbf983c64	-1.189343
21	0x3e5a7f1c	0.21337551
22	0xbf8099c6	-1.0046928
23	0x3d91c5e4	0.07117823
24	0xbe6889af	-0.22708772
25	0x3f2c2ea6	0.6725868
26	0xbf668939	-0.90053135
27	0x3f11f8eb	0.57020444
28	0xbecb4c09	-0.39706448
29	0x3ea39aee	0.3195414
30	0xbdf27e7e	-0.11840533
31	0x3c957c77	0.018247826
32	0x3d534688	0.051580936
33	0xbebf5443	-0.37368974
34	0xbe0e2b1a	-0.1388363
35	0x3d8ca6f9	0.06867785
36	0x3eadb7a5	0.33929172
37	0xbd470b3b	-0.048594695
38	0xbea31e68	-0.31859136
39	0xbedcedb2	-0.43150097
40	0x3e8cd999	0.27509764
41	0xbe1dd9f6	-0.15415177
42	0xbeb916da	-0.36150247
43	0xbe20e168	-0.15710986
44	0xbea73085	-0.32654205
45	0xbedb355d	-0.4281415
46	0x3c4dfc74	0.012572397
47	0x3e1c2b9a	0.15251008
48	0xbeea9147	-0.45813963
49	0xbe95db37	-0.2926881
50	0xbd6ea94a	-0.058266915
51	0x3b3a1bd1	0.0028397928
52	0xbea042c3	-0.31300935
53	0xbd8eb0a8	-0.06967288
54	0xbf2acace	-0.66715705
55	0xbf944d95	-1.1586176
56	0x3ef91618	0.4864967
57	0x3ef5f09b	0.4803513
58	0xbe157be9	-0.14598049
59	0xbe493e54	-0.19652683
60	0xbe3f7f4c	-0.18700904
61	0xbeb40c60	-0.3516569
62	0x3dac0b87	0.08400636
63	0x3f4c8b6b	0.79900235
64	0x3d16b52c	0.036793873
65	0xbf4b8e11	-0.7951365
66	0x3f89c221	1.0762368
67	0xbf836bf1	-1.0267316
68	0x3f116386	0.56792486
69	0x3f16d9e2	0.5892621
70	0xbe064c3b	-0.13115017
71	0x3de37a32	0.11107291
72	0xbedbdc2e	-0.4294142
73	0xbe9f8622	-0.31157023
74	0xbe9e01af	-0.3086066
75	0xbeb3156f	-0.3497729
76	0x3c789ff2	0.015174853
77	0x3d2d569d	0.04231893
78	0xbda37dcc	-0.07982978
79	0x3c5524b3	0.013009238
80	0xbd3b442f	-0.04571932
81	0xbe3ce194	-0.18445426
82	0xbe4e3d3d	-0.20140548
83	0xbd7d09ef	-0.06177705
84	0xbd406140	-0.046967745
85	0x3dadb1cf	0.0848118
86	0xbeb82a0f	-0.35969588
87	0xbd2c12a8	-0.04200998
88	0x3e3e3392	0.1857436
89	0x3de12ac3	0.10994484
90	0xbf63c105	-0.889664
91	0xbeaff69e	-0.3436784
92	0x3d09c042	0.033630617
93	0x3eb8bb3d	0.3608035
94	0x3e252abf	0.16129588
95	0xbce2803d	-0.02764904
96	0xbc7dd577	-0.0154927885
97	0xbd599282	-0.053118236
98	0xbe4ed822	-0.20199636
99	0xbe16fa76	-0.14743981
100	0xbe01941d	-0.12654157
101	0xbe072e8f	-0.13201354
102	0xbeb237c5	-0.34808174
103	0xbefd7203	-0.49501047
104	0xbf176885	-0.5914386
105	0xbee381a1	-0.44434837
106	0xbe8c4840	-0.27398872
107	0x3d0bcbfa	0.034130074
108	0xbe713eec	-0.23559159
109	0xbe74cf08	-0.23907101
110	0xbf18a7de	-0.59631145
111	0xbe2513e5	-0.1612087
112	0xbe782359	-0.24232234
113	0xbd8c9b2a	-0.06865533
114	0x3f04cb01	0.5187226
115	0xbcb8f8a8	-0.022579506
116	0x3ec62cfa	0.3870619
117	0x3d5aa220	0.05337727
118	0x3f42a272	0.7602912
119	0x3eb684ba	0.35648137
120	0xbf041975	-0.51601344
121	0xbf267511	-0.6502238
122	0xbe27da78	-0.16391933
123	0x3ea4b436	0.3216874
124	0xbd80293a	-0.06257863
125	0x3c327bb1	0.010893748
126	0x3dc69beb	0.09697708
127	0xbdaec90c	-0.085344404
128	0xbdbaed46	-0.091272876
129	0xbe9fd7b1	-0.31219247
130	0x3dd5ab5f	0.10433077
131	0xbd601102	-0.05470372
132	0x3f294475	0.6612008
133	0xbeac3c1c	-0.3363961
134	0x3dd27b01	0.102773674
135	0x3f2249d3	0.63393897
136	0x3e726983	0.23673062
137	0x3eec140f	0.46109053
138	0x3dfb6d72	0.122767344
139	0x3fa7e5e7	1.3117036
140	0x3f2697d8	0.65075445
141	0xbe855726	-0.2604305
142	0x3ee4b065	0.44665828
143	0xbe9da3ae	-0.3078894
144	0x3eba07ae	0.36333984
145	0xbfbf6fce	-1.4955995
146	0x3f41e86e	0.75745285
147	0x3f81829b	1.0117983
148	0x3d624043	0.055237066
149	0x3edadfa1	0.4274874
150	0x3f668748	0.9005017
151	0x3f186a86	0.5953754
152	0x3f83e539	1.0304328
153	0xbf855034	-1.0415101
154	0x3f2d39f0	0.6766653
155	0xbe69b165	-0.22821577
156	0xbea4b6f5	-0.32170835
157	0x3d912c84	0.07088569
158	0x3fa19a6e	1.2625253
159	0x3f0f2196	0.55910623
160	0x3e21ee4f	0.15813564
161	0xbec2c851	-0.38043454
162	0xbec5622a	-0.38551456
163	0x3fc33a92	1.5252249
164	0x3f5e0312	0.86723435
165	0xbd80cc39	-0.062889524
166	0x3e40ade5	0.18816335
167	0xbf19ec12	-0.6012584
168	0x3cbbabc1	0.022909047
169	0x3ed9ced6	0.42540616
170	0xbfa94ad7	-1.3225964
171	0x3efbf8e3	0.49213323
172	0xbefca9c7	-0.4934828
173	0x3e843539	0.25821856
174	0x3f3533ad	0.70781976
175	0xbca7a29f	-0.020463286
176	0x3f001207	0.5002751
177	0xbec54770	-0.38531065
178	0x3f6fa6e1	0.9361401
179	0x3ef3dc1b	0.47628865
180	0x3f90d943	1.1316303
181	0xbede2a8f	-0.43391845
182	0xbe888205	-0.26661697
183	0x3f8dff06	1.1093452
184	0x3b8432ef	0.004034392
185	0x3ef9d453	0.48794803
186	0x3d9f69a7	0.077838235
187	0xbcc50348	-0.024049416
188	0xbd3b121b	-0.045671564
189	0x3dd55915	0.10417382
190	0x3bb7a2b7	0.005604114
191	0x3c4828bf	0.012216746
192	0xbf876b05	-1.0579535
193	0x3eefb796	0.46819752
194	0xbc16bdd9	-0.009200537
195	0xbdc9419f	-0.09826969
196	0x3d7c9ca6	0.06167283
197	0xbf5b859a	-0.85750735
198	0x3dc32cf3	0.09530058
199	0xbf98e880	-1.1945953
200	0x3ef42d15	0.47690645
201	0x3efb2b0d	0.49056283
202	0xbf0c7993	-0.5487301
203	0x3e121417	0.14265476
204	0x3f6f28f0	0.9342184
205	0xbec7f54b	-0.3905433
206	0xbe7f4c0c	-0.24931353
207	0xbf929965	-1.1453062
208	0x3fa069d7	1.25323
209	0xbeb32418	-0.34988475
210	0x3e3bbb68	0.18333209
211	0xbe8407e1	-0.2578726
212	0xbde5066d	-0.11182866
213	0xbe8efb1d	-0.2792596
214	0x3e2c09e1	0.16800644
215	0x3d67d05c	0.05659519
216	0x3e634896	0.22195658
217	0x3e51cfe1	0.20489456
218	0x3e24a7f4	0.16079694
219	0x3eff3721	0.49846748
220	0xbf1d8edf	-0.6154613
221	0xbf311e2f	-0.6918668
222	0xbe48fb3e	-0.19627091
223	0xbe8e1e16	-0.2775733
224	0xbc8a8d3d	-0.01691305
225	0xbf047f82	-0.5175706
226	0xbe0ce736	-0.13760075
227	0xbe431b7c	-0.19053453
228	0xbeab0ee5	-0.334098
229	0xbe0b1351	-0.13581587
230	0xbb18502e	-0.002324115
231	0xbc0e7f32	-0.008697318
232	0xbe0ae0ff	-0.13562392
233	0xbe357cb9	-0.17723359
234	0xbd86fda9	-0.065913506
235	0xbe2248f2	-0.15848139
236	0xbea0a90d	-0.31378976
237	0xbd4fdc59	-0.05074725
238	0xb9b1f19f	-0.00033940093
239	0xbe0184b2	-0.12648275
240	0xbee53032	-0.44763333
241	0x3f80f791	1.0075551
242	0x3f2b832c	0.6699703
243	0x3efb27f8	0.4905393
244	0xbddb4628	-0.107067406
245	0xbf301410	-0.6878061
246	0x3f4403d3	0.76568335
247	0xbd9110ba	-0.070832685
248	0x3c74ebb5	0.014948775
249	0x3f94b86c	1.1618781
250	0xbe9b1b7e	-0.30294412
251	0x3e0134cf	0.12617801
252	0x3e12958f	0.14314865
253	0xbd625ea8	-0.055266052
254	0xbca3f420	-0.020013869
255	0xbd3aae88	-0.045576602

linear1.bias f4 [128]
0	0x3e92feb6	0.28709954
1	0xbed7eef3	-0.4217449
2	0xbe9589b1	-0.29206613
3	0xbe49bd1d	-0.19701047
4	0x3e22127a	0.15827361
5	0xbed69991	-0.41914037
6	0xbeb1c020	-0.34716892
7	0xbe3a8893	-0.18216161
8	0xbee39917	-0.44452736
9	0x3dbadd8e	0.091242895
10	0xbe0c2e11	-0.13689448
11	0xbe0bae6a	-0.13640752
12	0x3d249933	0.040185165
13	0xbf1512e9	-0.5823198
14	0xbefeeba4	-0.49789155
15	0xbe873cce	-0.26413578
16	0xbeb2cbcf	-0.3492112
17	0xbb6313dc	-0.0034649288
18	0xbe630076	-0.22168145
19	0xbe53ba68	-0.20676577
20	0xbef724e0	-0.4827032
21	0xbf1708c5	-0.58997756
22	0xbee09144	-0.4386083
23	0xbbaca63c	-0.00526884
24	0x3eb2978b	0.34881243
25	0x3ea32443	0.31863603
26	0xbdc09de7	-0.094051175
27	0x3e8632f0	0.26210737
28	0x3efc7839	0.49310473
29	0xbd92ccfe	-0.071680054
30	0x3ed05ef9	0.40697458
31	0xbe66e5b8	-0.22548568
32	0xbb4da8e0	-0.0031381175
33	0x3e678b7a	0.226118
34	0x3ed258c2	0.41083342
35	0xbed31550	-0.41227198
36	0x3df04dc5	0.11733583
37	0xbe9bf199	-0.30457762
38	0xbf04aeb0	-0.5182905
39	0xbebef57f	-0.37296674
40	0x3e45d538	0.19319618
41	0x3e397012	0.18109158
42	0xbec1ebaf	-0.37875125
43	0xbed95e07	-0.4245455
44	0xbdab84c5	-0.08374933
45	0xbe14e355	-0.14539845
46	0xbe5f6b82	-0.21818355
47	0x3d9412c3	0.07230141
48	0x3dfb708b	0.12277325
49	0xbe2e78fc	-0.1703834
50	0xbde82c41	-0.11336566
51	0xbef26266	-0.47340697
52	0xbec8eb4c	-0.39242017
53	0x3e519e78	0.20470607
54	0xbec1c755	-0.3784739
55	0x3ea3bc8e	0.31979793
56	0xbf03cb7f	-0.51482385
57	0x3d453233	0.048143577
58	0xbf0c1628	-0.5472131
59	0xbdd7a507	-0.10529523
60	0xbe9a8611	-0.3018041
61	0x3e08aed4	0.13347942
62	0xbcfed62c	-0.031107984
63	0xbe4933d3	-0.19648676
64	0xbdf1f38f	-0.11814033
65	0x3f45205a	0.7700249
66	0x3c72ceca	0.01481981
67	0xbba06b92	-0.004895636
68	0x3e8b6a0e	0.2722935
69	0xbf265762	-0.64977086
70	0xbc969b5d	-0.01838463
71	0xbe39dd70	-0.18150878
72	0xbeb27e77	-0.3486211
73	0xbec1c90a	-0.37848693
74	0x3dd3e008	0.10345465
75	0xbf1b9f07	-0.6078953
76	0x3e64ce62	0.22344354
77	0x3e59fb38	0.21287239
78	0xbebb5086	-0.36584872
79	0x3f13b48f	0.57697386
80	0xbe2855ee	-0.1643903
81	0x3e2cc999	0.16873778
82	0x3dc3cf53	0.09561028
83	0xbec8d8a5	-0.39227787
84	0xbea2cfc3	-0.31799135
85	0x3e5e6484	0.21718031
86	0xbec45a9e	-0.38350385
87	0xbecb6a52	-0.39729553
88	0xbe049098	-0.12945783
89	0xbe2173cc	-0.15766829
90	0xbe9157cb	-0.28387293
91	0xbf09fef5	-0.5390466
92	0xbe655a18	-0.2239765
93	0x3e49f78e	0.19723341
94	0xbee3cf85	-0.44494262
95	0xbe12b606	-0.14327249
96	0x3d2a3954	0.04155858
97	0xbf220d1e	-0.63301265
98	0x3e5c9129	0.21539749
99	0x3eb978bf	0.36224934
100	0x3ea1c0a6	0.31592292
101	0x3e2e938d	0.17048474
102	0x3df6b61c	0.12046453
103	0xbed80c2b	-0.42196783
104	0xbde2ea0a	-0.11079796
105	0xbeaee055	-0.34155527
106	0xbf14c927	-0.58119434
107	0x3d9b6ed4	0.07589498
108	0x3dfd239b	0.12360307
109	0x3e3ee7a3	0.1864305
110	0xbea558cc	-0.3229431
111	0x3dbcb832	0.0921482
112	0x3d5f7bb1	0.05456132
113	0xbf060f56	-0.5236715
114	0xbe54c136	-0.20776829
115	0xbf00a384	-0.50249505
116	0xbf0dc6e3	-0.553816
117	0x3e32ac74	0.17448598
118	0x3f294285	0.66117126
119	0xbf008331	-0.5020018
120	0xbdf971e2	-0.121799245
121	0x3ef64a2a	0.48103458
122	0xbed0d4e2	-0.40787417
123	0xbeadce17	-0.33946297
124	0xbe84e92a	-0.2595914
125	0xbf09372d	-0.53599817
126	0x3d9c471e	0.07630752
127	0xbec48f87	-0.38390753

linear2.weight f4 [4, 128]
0	0xbf008b60	-0.5021267
1	0xbe1e677f	-0.15469168
2	0xbd6359d9	-0.055505607
3	0xbf053d92	-0.52047074
4	0x3d0e0d96	0.034680925
5	0x3cc889e7	0.02447982
6	0xbe08eede	-0.1337237
7	0x3d22095a	0.0395597
8	0xbd90d59b	-0.07071992
9	0x3f1df62e	0.61703765
10	0x3ddead1a	0.1087286
11	0xbf2b973f	-0.6702766
12	0xbd957807	-0.07298284
13	0x3d9d6c75	0.07686702
14	0x3ba70a90	0.0050976947
15	0x3e064b0d	0.13114567
16	0x3d68d621	0.056844834
17	0xbccdc338	-0.025117502
18	0xbd826123	-0.063661836
19	0xbf2c7e81	-0.6738053
20	0x3dd60368	0.104498684
21	0xbcc46f98	-0.023978993
22	0xbf213e06	-0.62985265
23	0x3e071b20	0.13193941
24	0xbda3cf52	-0.079985276
25	0xbe976463	-0.29568776
26	0x3e03c74c	0.12868994
27	0x3ec3f22f	0.3827071
28	0x3e80b1d0	0.2513566
29	0xbf2017e5	-0.6253646
30	0xbf3dc551	-0.74129206
31	0x3d6dd8a9	0.05806795
32	0x3f2f6237	0.6850924
33	0x3b730180	0.0037079751
34	0xbf03693a	-0.5133244
35	0xbc85e309	-0.01634361
36	0xbcd439b9	-0.02590643
37	0xbc05fa1c	-0.0081773065
38	0xbcc59590	-0.024119169
39	0x3ce6c98c	0.028172277
40	0x3eba3a98	0.36372828
41	0xbf16d281	-0.58914953
42	0x3afdb68c	0.0019356771
43	0xbda7084f	-0.081558816
44	0xbcff5000	-0.031166077
45	0xbc31b476	-0.010846248
46	0xbeaddc33	-0.3395706
47	0xbe8b33a1	-0.27187827
48	0x3ced3d2a	0.02895983
49	0xbe31300b	-0.17303483
50	0xbf36a004	-0.71337914
51	0x3d7e73a4	0.062122002
52	0x3c9338f4	0.017971493
53	0x3e62dce0	0.2215457
54	0xbd3ca194	-0.04605253
55	0xbe67b1c6	-0.22626409
56	0x3ead6e3f	0.33873174
57	0xbf6a1b8e	-0.91448295
58	0x3d6845a7	0.05670705
59	0xbe9d749f	-0.30753037
60	0xbe8fe032	-0.28100735
61	0x3e6d483b	0.23172085
62	0xbf1ec6fa	-0.62022364
63	0xbee131a4	-0.43983185
64	0x3ecb7963	0.39741048
65	0x3f62793b	0.88466233
66	0x3f365354	0.712209
67	0xbd44d6d4	-0.04805644
68	0x3f3d7452	0.74005616
69	0xbc880c72	-0.016607497
70	0xbd135f4c	-0.035979554
71	0xbda2d4a2	-0.07950713
72	0xbd2f2cfe	-0.042767517
73	0xbc93832e	-0.018006887
74	0xbf120d09	-0.5705114
75	0xbda7e769	-0.08198435
76	0xbf4f5116	-0.809831
77	0xbf3f4ec6	-0.74729574
78	0xbdcabbf8	-0.098991334
79	0xbf3bd408	-0.7337041
80	0xbeb7fa7b	-0.3593329
81	0x3f1cd184	0.61257195
82	0x3e190403	0.14942937
83	0xbdd66e4a	-0.10470255
84	0x3e8ca7a8	0.27471662
85	0x3ebec964	0.37263024
86	0xbd64de78	-0.055876225
87	0xbd13d52c	-0.03609197
88	0xbf5be116	-0.8589033
89	0xbe5bb227	-0.21454678
90	0xbdcfe40b	-0.101509176
91	0xbcdbed9a	-0.026846696
92	0xbe02cbf9	-0.12773122
93	0xbe9c9e0d	-0.30589333
94	0xbdacbe3a	-0.0843472
95	0xbe861ea1	-0.26195243
96	0x3d8d69be	0.06904934
97	0x3e70a549	0.23500551
98	0xbd85a16d	-0.0652493
99	0xbf7737e2	-0.96569645
100	0x3da9bed0	0.08288348
101	0x3eced515	0.40396944
102	0xbe29de30	-0.16588664
103	0x3cc83826	0.024440836
104	0xbe2da7e2	-0.16958573
105	0x3ec2788a	0.3798259
106	0xbe2eded6	-0.17077193
107	0xbdd87aac	-0.10570273
108	0xbebb94b1	-0.3663688
109	0x3ec641f9	0.38722208
110	0xbe449cdc	-0.19200462
111	0xbc9bb51e	-0.019007262
112	0x3e453d1c	0.19261593
113	0xbdcbd8ac	-0.09953436
114	0x3e7f823b	0.24952023
115	0xbd2541b4	-0.040345863
116	0xbed012c9	-0.40639332
117	0xbf3358ef	-0.70057577
118	0xbe87df99	-0.2653778
119	0xbe3eabc9	-0.18620218
120	0xbec8c2e3	-0.39211187
121	0xbf8a8920	-1.0823097
122	0xbe3dfc84	-0.18553358
123	0x3d418c6f	0.04725307
124	0x3db75048	0.08950859
125	0xbd83e8c9	-0.064408846
126	0x3f042571	0.5161963
127	0xbe3b7dc1	-0.1830969
128	0xbebf82d4	-0.374045
129	0x3d8c19c3	0.06840851
130	0x3dc58e81	0.09646321
131	0xbf01244e	-0.5044602
132	0xbe67422d	-0.22583838
133	0x3e82cf9e	0.25549024
134	0xbeb228f4	-0.3479687
135	0x3c35555d	0.0110677155
136	0xbe5c3e45	-0.21508129
137	0x3f097e3b	0.5370824
138	0xbe522f24	-0.20525795
139	0x3f279608	0.65463305
140	0x3c49c01b	0.012313868
141	0x3dac2573	0.0840558
142	0xbd86f26b	-0.06589206
143	0x3d441640	0.04787278
144	0xbe03b717	-0.12862812
145	0x3de351ae	0.110995635
146	0xbe1d308d	-0.15350552
147	0xbb2ae8ad	-0.0026078627
148	0x3e8e9a03	0.27851877
149	0xbcd2b421	-0.025720658
150	0x3e865e64	0.2624389
151	0xbf64ee89	-0.89426476
152	0x3f513d5f	0.8173427
153	0xbeff61a9	-0.49879196
154	0xbe29d72a	-0.16585985
155	0xbf7fb464	-0.9988463
156	0x3c58b09a	0.013225699
157	0xbcd7b598	-0.026331708
158	0x3dacbb2f	0.0843414
159	0xbcff9fe3	-0.03120417
160	0xbed6dc52	-0.41964966
161	0x3ef8af33	0.48571166
162	0x3d58133b	0.052752715
163	0xbcd65b7f	-0.026166676
164	0xbededf23	-0.43529615
165	0x3db05403	0.08609774
166	0xbde03816	-0.109481975
167	0xbe1a0fad	-0.15045042
168	0xbf28b943	-0.65907687
169	0xbe29f5dd	-0.16597696
170	0xbd8453a1	-0.064612634
171	0x3d1a3414	0.03764732
172	0x3e2acb5f	0.16679142
173	0xbc9ceb39	-0.019155132
174	0xbee94e0d	-0.4556736
175	0xbef054f8	-0.46939826
176	0xbeaafcd3	-0.33396015
177	0x3e75257e	0.23940083
178	0xbda9ef60	-0.0829761
179	0xbd14d620	-0.036337018
180	0xbd0dd74f	-0.034629162
181	0xbf21948e	-0.631173
182	0x3e93d330	0.2887206
183	0xbf444a6c	-0.7667606
184	0xbe7c6c3e	-0.24650666
185	0xbe06529e	-0.13117453
186	0xbd9c4227	-0.07629805
187	0x3d03b625	0.03215613
188	0x3e7cdbb4	0.24693185
189	0xbee44337	-0.4458253
190	0x3e1bb2b8	0.15204895
191	0x3dceda6e	0.10100256
192	0x3bc44f53	0.0059909015
193	0xbdca30ed	-0.09872613
194	0xbe9a4ffb	-0.30139145
195	0xbda38c36	-0.079857275
196	0x3e5c5d61	0.21519996
197	0x3e28b372	0.16474703
198	0xbd9b8358	-0.07593411
199	0x3c83ab1a	0.016072799
200	0xbde87155	-0.11349741
201	0x3eaebff4	0.34130824
202	0xbee910dd	-0.45520678
203	0x3d20cc79	0.0392575
204	0x3e05b958	0.13058984
205	0x3f53bb51	0.827077
206	0xbc746fd3	-0.014919239
207	0x3f512402	0.8169557
208	0xbe669d4c	-0.22520941
209	0xbee19833	-0.4406143
210	0xbc91a2fa	-0.017777909
211	0xbd612269	-0.054964457
212	0xbecff959	-0.40619925
213	0xbe94c9b0	-0.29060125
214	0xbd42d210	-0.047563612
215	0x3d0bffb7	0.034179416
216	0x3f41e5dd	0.7574137
217	0xbeedb220	-0.4642496
218	0xbe2d6a6d	-0.1693513
219	0xbe50e819	-0.20401038
220	0xbd785220	-0.060625196
221	0xbee22d58	-0.4417522
222	0xbaee8b0e	-0.00181994
223	0xbf4108e6	-0.754042
224	0xbf2be168	-0.6714082
225	0xbe824e38	-0.254503
226	0xbddde706	-0.1083508
227	0xbdccbfa1	-0.09997488
228	0xbe9b3133	-0.30310974
229	0xbe9f41f9	-0.3110502
230	0x3f5775c3	0.84164065
231	0xbbc8aaec	-0.006123891
232	0xbf4fceea	-0.811751
233	0x3ebad2a3	0.36488828
234	0xbd9b3e28	-0.07580215
235	0xbec4149a	-0.38296968
236	0xbc51ff24	-0.012817178
237	0xbe26ee4b	-0.16301839
238	0xbf005552	-0.5013019
239	0xbf0c45e0	-0.5479412
240	0xbef67569	-0.48136452
241	0xbe3a8688	-0.18215382
242	0xbcad344a	-0.021143097
243	0x3d72280b	0.05912022
244	0xbee9edf3	-0.45689353
245	0x3f029424	0.51007295
246	0x3ec78486	0.38968295
247	0xbec10989	-0.37702587
248	0xbf350a7e	-0.70719135
249	0xbda2652f	-0.079294555
250	0x3d566a57	0.052347507
251	0xbe53eb0d	-0.20695134
252	0xbd1d1e23	-0.03835882
253	0x3e009be5	0.12559469
254	0x3f3318e1	0.6995984
255	0x39fd6b11	0.0004833569

linear2.bias f4 [4]
0	0xbe95df05	-0.29271713
1	0xbe82d1f4	-0.25550807
2	0xbddc237d	-0.10748956
3	0xbe5d3030	-0.21600413
