model/test_cnn.pth (torch, 5199 bytes, 6 tensors)

conv1.weight f4 [1, 1, 5, 5]
00000000: 96c4 593f f579 c6bf 3e8c 9d3e 97f6 46bd
00000010: 5c89 383e 90c9 10bf 22c7 7d3e e1f1 6ebf
00000020: eb76 21bf f546 2abe 5f95 cbbe d550 0d3f
00000030: c615 9cbe e1d4 f0be 6b4b f13e 52d2 0a3f
00000040: f462 043c 2588 0cbf 6173 5cbe 8e3e b53e
00000050: 0b03 54be 15ef dabe 7897 34bf c099 bbbe
00000060: 5d2f 403e
0.8506559 -1.5505968 0.3077106 -0.04857501 0.18021148 -0.5655756 0.24782994 -0.9333783
-0.6307208 -0.1662863 -0.397624 0.55201465 -0.30485362 -0.47037414 0.47127852 0.54227173
0.008080233 -0.5489524 -0.21528389 0.35399288 -0.20704286 -0.4276053 -0.7054362 -0.3664074
0.18768068

conv2.weight f4 [1, 1, 3, 3]
00000000: ec39 0b3e 281c cbbe 8b7e 29bf c712 ddbe
00000010: f328 153e ef71 a23e 4aa4 ccbe 390a be3e
00000020: 426f 183f
0.13596314 -0.3966992 -0.66208714 -0.43178388 0.14566402 0.3172755 -0.39969093 0.37117174
0.59544766

fc1.weight f4 [16, 36]
00000000: cca5 44bf 9308 81be bfdf 3dbf ebeb ebbe
00000010: f616 74be 37d9 a0be d9b2 05bf 8479 28bf
00000020: f704 fdbe 260e 85bd 263a c1be 098d dbbe
00000030: 4ef5 73be 91b8 b1be e502 6e3e f79a aa3e
00000040: 7ae6 c3bc 0e37 9abe 629b 8bbe 3049 02be
00000050: b037 4d3e 6a76 953e 9d03 64be 5faf e8bd
00000060: 6172 d93d fb14 c83c 54cf ce3e 1612 183e
00000070: c97c fe3d 8e1c b93e 7f19 1d3e 1570 4d3e
00000080: 663f 3c3f c344 053f 9dd5 933e 1be6 843e
00000090: f338 16bf f7c9 61bf f97f 3cbf d5ac fdbe
000000a0: b008 22be ca94 38bf 90f5 0fbf 2175 21bf
000000b0: cd22 f73b 52cb 423e a75b b1bd d577 c0be
000000c0: c90c c5be 2789 94bb 9a13 b3bc 5775 083f
000000d0: e6c5 903e f4e8 41bf e928 2c3e d854 37ba
000000e0: e12d c93e 5d95 ad3e 5079 abbe f9f0 823e
000000f0: 7755 7a3e 3c5f 4dbc 04ed 693e c3d7 243f
00000100: 8198 7d3e 424a 4f3e 2fbf c7bc 4ab9 943e
00000110: 850d df3e 40eb 2f3f e377 973e 60c2 24bf
00000120: c09d 28be f68b 3fbe 877a e0be 2e70 69be
00000130: 55bf dbbe 05f9 b3be e163 17bf bdc0 ccbe
00000140: 5a00 03bf 5ba0 a03e 1d87 09be ce2f 92be
00000150: 902e bcbe ebfa dcbe ffcc 293e 70c3 c63d
00000160: f6f5 933d ebf4 9f3e bc71 0dbf 992c 09bf
00000170: 6d86 c03e 9d60 bd3e c22e 28be a163 9ebe
00000180: 1423 76be a27d 01bf ac15 a33e 2a4f 7dbd
00000190: 30f3 70be 1fe0 64bd 7aeb babe 7ac2 ff3e
000001a0: a494 ee3e 808a 933e 8d06 753e 8726 133f
000001b0: 8894 05bf 5c9e b4bd 7d2e 93be 930c 34bf
000001c0: 155b b7bd 93a1 f9be 6e19 48bf 0c78 2cbf
000001d0: abbe 80be bfa1 093e 8009 89be 350d c1be
000001e0: d1cc 6bbf 44dd 72be c293 b4bd 61a4 243d
000001f0: 807d 29be 7973 9ebe 8542 51be 2ee9 3dbd
00000200: 4e63 893e 4e91 81be c575 b23c 4525 9c3e
00000210: bab8 22bd 2a92 49be ecbe 113f 1301 733e
00000220: 5407 943e 68e6 5b3e 92da 88bc 41f1 0c3f
00000230: 7310 413f 8297 2a3f ecb0 d4bd 048e 07bf
00000240: 0dbc 0d3d 0471 da3e d3f4 bfbe 91a0 02be
00000250: d990 9f3e a0da 9bbe 579d b3be c095 40bf
00000260: b849 18bf 344d 723d 39a3 b1bd 6345 b73d
00000270: 337c 75be 0210 6bbf ffbc 50be acad 0a3e
00000280: b2ab b0be 743b f23e d382 cbbe bca1 4cbf
00000290: c58b 113f 4ebe 383e b121 4abf 8a1c 87be
000002a0: 6cdc 21bf 51bd a7be 705d 543f 6f14 72bd
000002b0: 2c95 aabe 53b1 b1be ff1a 67bd 6143 d23d
000002c0: 1904 373e 0d1a 1abe 82db 1dbe 4764 44bf
000002d0: 72c1 c2be 1011 48be 5eb3 a1be 7d52 b5be
000002e0: ddbc a9bc 3927 cebe 4333 58be d4dd c5be
000002f0: e4fb b3be c4c9 aebd ddd3 8abe 0712 d6be
00000300: 085a 69be eb59 34be e909 1d3d 0fd9 d13e
00000310: c167 7f3c b403 2f3d 218a c1bb be45 60be
00000320: 45aa e93d 6818 963d 40cf a8bd 0eaf 993c
00000330: 9051 173d 4d56 583b ea54 c13e ff2b a23e
00000340: 7ef6 ffbd 3402 a33e 140d 363d 7b7d 193e
00000350: cdc9 c43e b6e4 733e d87e f93d d239 e33e
00000360: 8aa0 fc3e afde 8a3e 9d52 673e 9d7a 133f
00000370: d78c 80be 3e17 eebd 38a1 66bf e43a 94bf
00000380: 0c65 9abe ba83 193f bb44 3c3e 2f25 f8bb
00000390: 8476 10bf ca73 e43d 260d 133f 4eb2 953e
000003a0: 7e8b 463f 3626 483f 6e6f ecbe 28bc 34be
000003b0: e1e8 6f3d b453 d03c 7b6f 05bd 4ca5 f5be
000003c0: a23c 94be 83d4 97be 8b7d e83e d72b 0f3f
000003d0: 6d02 99be d26d ebbd b278 2cbf e6dd 963e
000003e0: 7de5 603f 66ff 62bd ac2b d1bd c544 19be
000003f0: 21ed 7b3d 8093 94be c9eb 87bd 50ca 01be
-0.76815486 -0.25201854 -0.74169534 -0.4607843 -0.23836884 -0.31415722 -0.52226025 -0.6581042
-0.4941785 -0.06496839 -0.37739676 -0.4288104 -0.23824045 -0.34711125 0.23243292 0.33321354
-0.02391361 -0.30120128 -0.27266985 -0.12723231 0.20040774 0.29191905 -0.22267003 -0.113615744
0.10617519 0.024424067 0.40392554 0.14850649 0.12426145 0.36154598 0.15341757 0.20062287
0.7353424 0.5205805 0.28873911 0.25956807 -0.5868065 -0.881988 -0.7363277 -0.49545923
-0.15823627 -0.72102034 -0.56234074 -0.6306935 0.0075419904 0.19022873 -0.086600594 -0.37591425
-0.38486317 -0.0045329514 -0.021859933 0.53304046 0.28275985 -0.75746083 0.16812481 -0.00069935387
0.39292815 0.33903018 -0.33490992 0.25574473 0.24446665 -0.012534913 0.2284432 0.64391726
0.24765207 0.20243171 -0.024383156 0.29047614 0.43565002 0.6871834 0.29583654 -0.6435909
-0.16466427 -0.18705735 -0.4384348 -0.227967 -0.42919412 -0.35150924 -0.5913678 -0.39990798
-0.5117241 0.31372342 -0.13430448 -0.28552097 -0.36754274 -0.43160185 0.16582106 0.097052455
0.07224648 0.31241545 -0.5525167 -0.53583676 0.3760256 0.36987773 -0.16424087 -0.30935386
-0.24036819 -0.50582325 0.31852472 -0.061843075 -0.23530269 -0.0558778 -0.3650778 0.4995306
0.4659778 0.28816605 0.2392828 0.57480663 -0.52179766 -0.08819267 -0.28746405 -0.70331687
-0.089529194 -0.48756084 -0.781638 -0.67370677 -0.25145468 0.13440607 -0.2676506 -0.3770539
-0.921094 -0.23717219 -0.08817245 0.040195826 -0.1655178 -0.30947474 -0.20435531 -0.046364956
0.26833576 -0.2530617 0.021784673 0.30497184 -0.03972695 -0.19684663 0.5693195 0.23730879
0.2891184 0.21474612 -0.016705785 0.55055624 0.75415725 0.6663743 -0.10385308 -0.52951074
0.034603167 0.4266435 -0.37491474 -0.12756564 0.31165197 -0.30440235 -0.35080978 -0.752285
-0.59487486 0.059155658 -0.086737104 0.08948781 -0.2397316 -0.918213 -0.20384596 0.13542813
-0.34505993 0.47310984 -0.39748248 -0.7993429 0.56853896 0.18041345 -0.7895766 -0.2638896
-0.6322696 -0.32761624 0.82955074 -0.05910152 -0.33316934 -0.347056 -0.05642223 0.10266758
0.17872657 -0.15049 -0.15415767 -0.7671551 -0.38038212 -0.19537759 -0.3158216 -0.35414496
-0.02071994 -0.402643 -0.21113305 -0.38645804 -0.35153115 -0.085345775 -0.27114764 -0.4181063
-0.2278825 -0.17612426 0.03833953 0.40985915 0.015588702 0.04272814 -0.005906359 -0.21901605
0.114094295 0.07328874 -0.08242655 0.01876023 0.03694302 0.0033010424 0.37760097 0.3167419
-0.124981865 0.31837618 0.044446066 0.14989273 0.38435212 0.23817715 0.12182397 0.4438005
0.49341232 0.2712302 0.22590108 0.5760897 -0.25107452 -0.11625527 -0.9008975 -1.1580472
-0.30155218 0.59966624 0.18385594 -0.007572792 -0.5643084 0.111548975 0.5744194 0.29237598
0.775566 0.78183305 -0.46178764 -0.17649901 0.0585717 0.025430538 -0.03257702 -0.47977674
-0.2895251 -0.2965432 0.45408282 0.5592627 -0.29884663 -0.11495556 -0.67371666 0.2946617
0.8785017 -0.05541935 -0.10213408 -0.1496764 0.06150544 -0.29018784 -0.06636769 -0.12674832

fc1.bias f4 [16]
00000000: 8a8d 68be 9f0b 80be 63a9 0fbf 6627 3cbf
00000010: b77a a8be 0ffa 5b3b fb12 61bf e0e6 bbbe
00000020: 9691 75be 21bf fe3c 735c d43f 0e9d 94bc
00000030: a134 3bbf a3e6 443e e993 51be bb15 06be
-0.22710243 -0.25008866 -0.5611784 -0.7349762 -0.32906124 0.0033565795 -0.87919587 -0.3669958
-0.23981318 0.031096997 1.6590713 -0.018141296 -0.7312718 0.19228606 -0.2046658 -0.13094227

fc2.weight f4 [4, 16]
00000000: c4ee 56be 1c2e 073e b2e4 903e 5a17 1d3e
00000010: c6a4 e53e 9ecc 13be f20f 51be 3ca6 95be
00000020: 6773 e93d 2c3c 93bd 7961 38bf d26f b13d
00000030: 2029 aabe f1c8 3dbe d85c 0c3f 5d4d 7dbe
00000040: 75f3 31be 8282 03be 7ed7 6b3d c47b 463e
00000050: c2d9 38bd 176b 6abe 743d 153e 4fc8 013b
00000060: e77a 383e 4bc0 713e 03ca 1abf dd49 11bf
00000070: f565 29be a0da 28bf dd88 51be 6a09 b83d
00000080: 1e2b 77bd 7eb9 693e 10e1 d13c dd20 00bd
00000090: 215c 6f3e 57a1 1cbd 5222 dbbd 16ab 443b
000000a0: eae6 17bc 4866 b63d 9225 40bf 45f1 85be
000000b0: f4c6 043e 229d 7fbe 619b 09be 127e 43be
000000c0: e096 b73d eb09 c8bd e09b 60bc 7fb3 153e
000000d0: d5a7 aa3d bf89 67bb 77e0 903e eeef 14bc
000000e0: bcb4 183e 503d 833d 7304 39bf 7595 17bf
000000f0: b1cf 69be c309 17bf e0ac 2f3e 3d5f 803e
-0.2098952 0.13201183 0.2829948 0.15340939 0.44852275 -0.14433524 -0.20416239 -0.2922839
0.113989644 -0.07189211 -0.7202373 0.08663906 -0.332345 -0.18533684 0.5482917 -0.24736543
-0.17378028 -0.12842754 0.057578556 0.1938315 -0.045129545 -0.22892414 0.14574224 0.001980323
0.18015634 0.2360851 -0.60464495 -0.5675333 -0.165428 -0.65958595 -0.20462365 0.089861706
-0.060343854 0.22824666 0.025620013 -0.03128134 0.23374988 -0.038239803 -0.106999055 0.0030009202
-0.009271363 0.08906227 -0.7505733 -0.26160637 0.1296652 -0.24962285 -0.13438179 -0.19091061
0.08964324 -0.09767517 -0.0137090385 0.14619254 0.08332793 -0.0035329906 0.28296253 -0.009090407
0.14912695 0.06408179 -0.72272414 -0.5921243 -0.22833134 -0.5899927 0.1715579 0.2507266

fc2.bias f4 [4]
00000000: 4443 bdbf c271 96bf 80b4 acbf 40d9 9fbf
-1.4786153 -1.1753466 -1.3492584 -1.2488174
