model/test.pth (torch, 20383 bytes, 4 tensors)

linear1.weight f4 [128, 32]
000000 da 6c b5 3d e4 e8 f4 bd 63 8f 1f be e2 e8 f5 3d
       0.088586524 -0.11958483 -0.15582041 0.120073095
000010 b0 1a 26 3c bd f2 04 3e ce 12 f4 3d 19 a6 2a 3e
       0.010138199 0.12983222 0.11917649 0.16664924
000020 f6 22 a8 3d 98 b3 04 bd 26 85 a8 3d 98 a6 32 be
       0.08209793 -0.032397836 0.08228521 -0.17446363
000030 41 a6 19 3e 1a e0 ce 3d cd b9 2d be a8 65 51 3d
       0.15004827 0.10101338 -0.16965409 0.051122338
000040 e0 42 0d 3c 33 76 1f 3e 64 5c 4e bd 39 13 04 be
       0.008621901 0.15572433 -0.05038108 -0.12897958
000050 a0 b6 64 3d 16 48 a7 bd 68 a1 dd bc 94 51 19 3d
       0.055838227 -0.08168046 -0.027054504 0.037431315
000060 79 eb 05 3e 81 fa 00 be 62 19 a8 3d 57 59 23 be
       0.13078107 -0.1259556 0.082079664 -0.15952049
000070 80 c1 50 bd cb 93 c0 bd 10 08 30 3d b9 d3 91 bd
       -0.050965786 -0.09403189 0.04297644 -0.07120461
000080 00 d5 c4 3a ef 92 06 3e 36 d0 c2 3d f3 94 26 3e
       0.0015017092 0.13141988 0.09512369 0.16267757
000090 78 f0 d7 bc c3 79 01 be 56 64 f3 3d 9e 0e f5 3d
       -0.026359782 -0.12644105 0.11884372 0.11965679
0000a0 18 50 f0 3c 7c ec 18 bd aa b1 cf 3d 22 50 dd 3d
       0.029335067 -0.037334904 0.101413086 0.108063
0000b0 dc 8a 5c 3d 67 20 01 3e 12 1b 5b bd 4c 16 24 bd
       0.053843364 0.12610017 -0.053492613 -0.040060326
0000c0 e4 ff 8b 3d 68 e0 7a bd b1 5e 06 3e eb e2 2e be
       0.06835917 -0.061249167 0.1312206 -0.1707875
0000d0 91 03 2d be 9c 86 6d 3d b2 50 cc 3d 30 bc 63 3d
       -0.16895892 0.0579897 0.09976329 0.05559939
0000e0 e7 7e b5 bd 77 78 88 bd 90 5a 89 bc 70 5a 2d 3d
       -0.08862095 -0.06663602 -0.016766816 0.042322576
0000f0 32 dc fe 3d bc 34 50 bd 6e 20 c0 3d 70 68 61 bc
       0.12444343 -0.05083154 0.093811855 -0.01375781
000100 80 d2 56 bc 4f fa 27 3e 8c f1 20 bd 4e ac a9 3d
       -0.013111711 0.16404079 -0.039292857 0.08284818
000110 80 f7 49 3c a0 41 b0 bc 26 43 ed 3d 28 9c d5 bc
       0.012327075 -0.021515667 0.11585073 -0.026075438
000120 65 e1 1c be 78 6a cd 3c e6 3c db bd 36 ee 6f bd
       -0.15320356 0.025075182 -0.10704975 -0.058576785
000130 f4 9b 36 bd eb 52 0c 3e 52 0a 29 be 00 2b c3 3a
       -0.044582322 0.13703506 -0.16507843 0.0014890134
000140 ff 63 1e 3e 9a 7b b5 3d 7b d0 04 3e bc de 70 bd
       0.15467833 0.08861466 0.12970154 -0.058806166
000150 d1 9c 1f 3e 45 7d e1 bd 16 21 0f be 00 5e 58 bc
       0.15587164 -0.110102214 -0.13977465 -0.013206005
000160 c0 e1 34 3d 03 ce 18 3e 40 ed 0e bc 7a 8f ba 3d
       0.044160604 0.14922337 -0.008723557 0.09109397
000170 38 e0 80 3d f0 51 6c 3d 8f f5 90 bd 38 1c a1 3c
       0.06292766 0.05769533 -0.070780866 0.019666776
000180 cf 5f 5e 3e 4c 0c fa bd 48 2b 02 3e b3 59 aa 3d
       0.21716236 -0.12209377 0.12711823 0.0831789
000190 20 12 d3 3c 6d b5 19 bd 58 69 48 3e 35 78 67 bd
       0.025765479 -0.037526537 0.19571435 -0.056511123
0001a0 c9 cd f6 3c 1b 2b 85 3d 17 62 91 bb cc 26 30 3e
       0.030127423 0.06502362 -0.004436742 0.172023
0001b0 27 68 1c bc c9 21 41 3d df 86 30 3d 22 06 5e 3c
       -0.009546316 0.04715136 0.043097373 0.013551267
0001c0 89 1a e0 3d b8 e3 8f bd 77 98 e8 3d c6 90 23 3d
       0.10942561 -0.07025856 0.11357205 0.03993299
0001d0 4a 20 ae bc 2a 21 76 3c 15 df e3 bd e4 3f da 3d
       -0.021255631 0.015022555 -0.11126534 0.106567174
0001e0 94 b6 cc 3d 45 b3 a6 3d 99 29 bc bc eb aa 1d 3e
       0.099957615 0.08139662 -0.022969054 0.15397231
0001f0 d4 9d 2c 3d f2 dc 68 be 32 7c 88 3d 2d 3e 96 bb
       0.042142704 -0.22740534 0.066643134 -0.0045850486
000200 8e 73 9f bd b2 b2 9c 3d da 8a 76 bd 2c 8e 3f 3e
       -0.07785712 0.07651271 -0.060191013 0.18706578
000210 ab a4 0c 3e 8a ba 14 bd 0b 2e ab bd 5d bb 30 bd
       0.13734691 -0.03631071 -0.083583914 -0.043147434
000220 f6 6a 45 3e fd f5 97 3c 80 e3 d9 bd ba 37 54 3e
       0.19279084 0.018549914 -0.10639095 0.20724383
000230 ab 49 bf bc 91 ad 02 3e 4f b4 87 3d ef 10 d6 3d
       -0.023350557 0.12761523 0.06626188 0.104524486
000240 d0 07 a1 bd 62 53 6c 3e 07 8e fa 3d 92 56 42 3e
       -0.07862818 0.23078683 0.12234121 0.18978336
000250 8c 05 9c 3d 4d b7 c7 bd ae 63 25 3c 1a 17 39 3e
       0.076182455 -0.09751759 0.010094566 0.18075219
000260 29 de 85 3c 7c c9 fc 3d d8 63 38 3b e9 b2 1d 3e
       0.016341286 0.123431176 0.0028135683 0.1540028
000270 b8 92 4c bd 80 ed 52 3d 01 d3 48 be 6c be e3 3d
       -0.04994461 0.05149603 -0.19611742 0.111203045
000280 8d 7d 2c 3e ec 76 bf 3d 6e 1b 24 bd f3 04 9e bd
       0.16844769 0.093488544 -0.04006522 -0.07715788
000290 4e 8b 2b 3e bf 57 e8 bd 58 8a 3f bd 82 64 6a 3d
       0.1675236 -0.11344861 -0.046762794 0.057224758
0002a0 80 d9 09 bc 8c 09 d7 3d c7 6d 26 bd b7 60 ab 3d
       -0.008413672 0.10499868 -0.040632036 0.08368056
0002b0 50 21 05 be aa 6d a7 3b 88 49 a0 bd 11 8e 9e bd
       -0.13000989 0.0051095085 -0.07826525 -0.07741941
0002c0 ad ee 2c 3e 19 49 ba bd 42 8a f5 bd a0 10 2a 3e
       0.16887923 -0.090959735 -0.11989261 0.16607904
0002d0 3e 0e a7 b9 7f c1 0a be f2 1a 1d 3b cc 37 c9 bc
       -0.00031863333 -0.13550375 0.002397236 -0.024562739
0002e0 ac 47 09 be 70 9f 2d 3d 84 0b a4 3d bf a5 31 bb
       -0.13406247 0.04238838 0.08010009 -0.002710685
0002f0 63 2d ef bc 51 22 04 bb 1f 58 83 3d c7 af 16 3e
       -0.029196447 -0.0020162056 0.06413292 0.14715491
000300 a2 68 cd 3d 0c b1 5d 3d 90 9d d5 bc b1 4d f0 bd
       0.10029723 0.054123923 -0.026076108 -0.117335685
000310 b6 10 98 3d de 11 dd 3d 30 55 40 bc ad 73 32 be
       0.07425062 0.107944235 -0.01173906 -0.1742694
000320 5a 29 e6 3d ff 8e 17 3e 05 ea 23 be d6 43 c7 3d
       0.11238356 0.14800642 -0.1600724 0.097297356
000330 88 e6 8c 3d d3 f9 2e 3e 28 b5 52 bd 8e 74 ed bd
       0.06879908 0.17087488 -0.051442295 -0.11594497
000340 db d8 04 3e ee ed 18 be 68 25 17 3d e1 91 33 be
       0.12973349 -0.14934513 0.036900908 -0.17536117
000350 6d 81 23 3e bb f2 2f 3e ee 6c 2c be 38 ce d3 bd
       0.15967341 0.17182438 -0.16838428 -0.103420675
000360 52 3b fd 3d 80 17 1a be 32 1b 6d bd 82 50 ec 3d
       0.1236483 -0.15048027 -0.057887264 0.11538793
000370 4b 92 13 3e 6e 9c 99 3d 64 f8 4b 3d 30 52 b1 bd
       0.14411275 0.0750054 0.04979743 -0.08658254
000380 d2 75 83 bd dc df 21 bd a0 a1 4d 3c 3a 68 6c bd
       -0.06418957 -0.03952013 0.012550741 -0.057716586
000390 7e 35 68 bd d9 68 87 bd df 1d 29 3e 86 26 d6 3d
       -0.05669164 -0.06611795 0.16515301 0.104565665
0003a0 a8 b0 42 bd 98 e9 e4 bd b6 d9 f1 3d 72 3b f7 3d
       -0.047531754 -0.11177367 0.11809103 0.12071885
0003b0 49 0d a1 bd 75 ce c7 bd 6d 93 24 3e 3a fa c4 3d
       -0.07863862 -0.097561754 0.16071863 0.096180394
0003c0 94 96 6d 3d a0 87 8f 3b 9d 2f 06 3e 40 cd ce bc
       0.05800493 0.0043801814 0.131041 -0.025244355
0003d0 4f ad a8 bd 9c 71 55 3d 14 73 fb bd 71 37 01 3e
       -0.08236181 0.0521103 -0.12277809 0.12618805
0003e0 40 14 7c bb 6e 8b 27 be 11 a0 1c 3e 65 23 81 bd
       -0.0038464218 -0.16361782 0.15295435 -0.06305579
0003f0 32 f5 ff 3d 50 44 85 bd aa 38 0f be 0c 67 51 bd
       0.12497939 -0.0650717 -0.1398646 -0.051123664

linear1.bias f4 [128]
000000 3e c5 15 be a1 ad 1b 3e a0 51 9e 3c 5c 71 7e bd
       -0.14626023 0.15202953 0.019326031 -0.062119827
000010 bf e0 81 3d f4 c5 09 3d 0a 51 81 bd 48 c9 9e 3c
       0.06341695 0.03363605 -0.06314285 0.019383088
000020 51 53 5e bd 66 03 34 be e0 c7 06 3e 2c 72 64 bd
       -0.054278675 -0.17579421 0.13162184 -0.055772945
000030 cd 39 8f bd 6b 15 0b be 49 5e 22 3e 63 ea 86 bd
       -0.069934465 -0.13582389 0.1585628 -0.065876745
000040 b8 cf 3a 3d 8e 3f 81 bc c0 c8 f9 bd d8 41 da 3d
       0.045608252 -0.015777376 -0.12196493 0.1065709
000050 9a 6a 88 3d c2 21 54 be 0d cb df bd 7c a7 8c bd
       0.06660958 -0.20716003 -0.10927401 -0.068678826
000060 5a f6 a1 3d 83 f1 27 3e 32 12 e5 3d 68 e7 18 be
       0.07908316 0.16400723 0.11185111 -0.14932024
000070 d3 f7 8b bd a2 62 a8 bd f2 4d 83 bb 20 2d d9 3b
       -0.06834378 -0.08221938 -0.0040070945 0.006627694
000080 d2 f3 ed bd 67 bd 35 be 80 0a fe ba 6a a7 a0 3d
       -0.11618771 -0.17748033 -0.0019381791 0.07844432
000090 59 dd 44 be 70 af 1b bc 56 ac c6 3d 32 2f dd 3d
       -0.19225062 -0.009502277 0.09700839 0.108000174
0000a0 90 7f 82 bc 30 43 9f 3c 8e 9f 8f 3d 1f 55 99 bd
       -0.015929967 0.019441217 0.070128545 -0.07486939
0000b0 12 bd 41 be 61 e1 b7 bd ce 53 d9 3d 70 f9 1e bc
       -0.18919781 -0.089785345 0.106116876 -0.009703025
0000c0 62 56 db 3d f0 fa 05 bd 5b 10 9d 3d c1 78 29 3e
       0.107098356 -0.032710016 0.07669135 0.1654997
0000d0 78 38 f5 bd b4 6d 3f 3d e8 90 44 bd 2f 9b e2 bd
       -0.11973661 0.04673548 -0.047989756 -0.11064755
0000e0 ac da db 3d a2 86 b8 bd d0 2e 60 3c aa 67 af 3d
       0.10735068 -0.09010054 0.013683036 0.08564694
0000f0 1e 5a cc 3d d5 4c 9d bd 6f 45 de bd 75 9e 19 be
       0.09978126 -0.0768067 -0.10853087 -0.15001853
000100 2e 45 34 be 86 aa ca 3d 9e 25 2d be c7 7d 10 3e
       -0.17604515 0.09895806 -0.16908881 0.1411048
000110 5f b3 a7 bd 0d 70 8a 3b 0f e3 36 3c e0 fd a6 3b
       -0.08188509 0.0042247833 0.011162533 0.005096182
000120 57 35 00 3e 4e 94 de 3d 5a cc 01 be 44 6d 0c be
       0.12520348 0.108681306 -0.1267561 -0.13713557
000130 a4 1d 2f be 2d 78 03 3e d3 ad 07 3e 55 dd 33 3e
       -0.17101151 0.12838812 0.13249902 0.175649
000140 9b 22 83 3d aa bf 33 be 75 6f d8 3c 07 74 13 be
       0.06403085 -0.17553583 0.026420334 -0.1439973
000150 b8 24 7a 3d f7 5f 17 be 6e fd 8b 3c 3c 35 68 bd
       0.061070174 -0.14782701 0.017088618 -0.056691393
000160 a4 8c 38 be 33 50 2e 3e fb 4a 0f be 23 dd 94 bd
       -0.180224 0.17022781 -0.13993447 -0.07268741
000170 34 86 11 be 7a 79 71 be 66 40 35 be 84 1a 31 3d
       -0.1421135 -0.23581496 -0.17700347 0.043238178
000180 37 59 34 bd d5 0a 05 bd 87 78 83 3d 31 a3 40 be
       -0.044030394 -0.032481033 0.06419473 -0.18812253
000190 5d 7f d3 3c 80 04 73 bc 7a 27 c6 3d d1 e2 91 bd
       0.025817567 -0.014832616 0.09675498 -0.0712334
0001a0 7c b5 24 3d 5c 37 38 3d fa fa 43 bd 17 a3 23 be
       0.04021214 0.04497467 -0.04784677 -0.15980183
0001b0 c9 a2 29 be 13 33 10 3e 28 c4 c2 3d 64 d2 94 bc
       -0.16566004 0.14081983 0.0951007 -0.018166728
0001c0 7a 0d 07 be 64 a0 4e bd 1e b0 00 be 9f 58 b6 3d
       -0.13188735 -0.05044593 -0.12567183 0.08903622
0001d0 36 17 13 3c e6 b7 62 bd 80 d3 95 3d 77 c5 d9 bd
       0.008977702 -0.05535116 0.07315731 -0.106333666
0001e0 d5 f1 37 bc a8 68 cd bd 58 33 bf bd fa 10 07 be
       -0.011227091 -0.10029727 -0.09335965 -0.1319007
0001f0 32 f2 9a 3d 25 68 9e bd 99 58 ec bd 48 ae 8e 3d
       0.07565726 -0.07734708 -0.11540336 0.06966835

linear2.weight f4 [4, 128]
000000 be 3f 5f 3d eb 36 a8 bd c3 f3 05 bd 04 d7 86 3d
       0.05450415 -0.082136 -0.032703172 0.0658398
000010 85 e3 c6 bc b4 b1 ed bc 64 ec 03 3d e4 db a4 bc
       -0.024278412 -0.0290154 0.03220786 -0.020124383
000020 54 f9 6f bd 2a 54 89 bd 12 54 64 3d 80 fd 9c bc
       -0.058587387 -0.06705506 0.05574424 -0.019163847
000030 2f af af 3d b5 2e b0 bd 48 61 13 3c 00 46 ac bd
       0.085783355 -0.08602659 0.008995362 -0.08411789
000040 24 2d 26 bc c1 78 8f bc b6 51 98 3b 84 0c 10 be
       -0.010142598 -0.017513635 0.0046484126 -0.14067274
000050 38 0c ba 3c 39 cb 44 3d 1c 02 00 3d c9 04 8d 3d
       0.022710904 0.04804537 0.03125201 0.06885678
000060 22 93 37 bd 95 b7 84 3d a6 73 b1 bd 8f b2 96 3b
       -0.04481805 0.06480328 -0.08664636 0.0045989226
000070 df 9e 71 3c 4a 17 73 3d 25 df 11 3c 0a 52 47 bd
       0.0147473505 0.059348382 0.008903299 -0.048662223
000080 90 08 67 bc d3 ff f0 bc 7b cc aa 3d 35 90 24 bd
       -0.014101163 -0.029418861 0.08339783 -0.04017659
000090 5a a8 c1 3d 8c 7a 8f 3c 2d 9a c9 3c 2c e0 3c bd
       0.09455939 0.01751449 0.02460965 -0.046112224
0000a0 f6 8a 31 3d ec 0a 95 3c b3 5d 81 bd c0 0f cf bb
       0.043345414 0.018193685 -0.063167 -0.006319016
0000b0 5d 3c 8c 3a 1d 8e 27 bd 03 dc 82 bd 90 cf ce 3b
       0.0010699142 -0.040907014 -0.0638962 0.0063113645
0000c0 28 f5 0f bd 40 5c 0e 3c ec 56 4e bd 85 e0 7e bd
       -0.03514591 0.008688986 -0.050375864 -0.062225837
0000d0 4a 79 a6 3a 50 b0 dd 3b b0 0c af 3c 00 5d 2f bd
       0.0012700942 0.006765403 0.021368355 -0.0428133
0000e0 34 bc 9f 3d 18 69 22 3c 7e f9 23 3d 89 46 41 bd
       0.07799569 0.009912752 0.040032856 -0.04718641
0000f0 c6 84 27 bd 99 a5 34 3d d4 c1 3e bd 8f 51 b8 3c
       -0.040898107 0.04410324 -0.046571568 0.022499828
000100 77 be 10 bd ca 9c 4e bd a9 a5 0f 3c 30 40 eb bb
       -0.03533789 -0.050442494 0.008767524 -0.0071792826
000110 44 8d 5f bc e3 e6 44 3c 31 68 56 3b 85 83 8a bd
       -0.01364452 0.012017938 0.0032715912 -0.067633666
000120 e8 2a 13 3c 1e 19 44 3d 96 f2 da bc 1f 73 02 be
       0.008982398 0.047875516 -0.026727002 -0.12739228
000130 20 e8 f4 3c 7e f1 89 bd fc ce c9 bc 27 94 30 bd
       0.029895842 -0.06735514 -0.02463483 -0.04311004
000140 ed f3 ec bc 24 a3 65 bd ad b2 aa 3d 0c f2 b3 bd
       -0.028924907 -0.056063786 0.08334861 -0.08786401
000150 06 76 5d 3d 8e 86 e6 bd ea d3 52 bd 39 53 4a 3c
       0.054067634 -0.11256133 -0.05147163 0.012348943
000160 ae 7c 49 bd cf ab a0 3d a0 44 5c 3c 0e 6b 3f 3d
       -0.04919117 0.0784527 0.013444096 0.046732955
000170 96 58 67 3d e7 e8 1a bc 80 a0 2f 3c e4 4b 11 3d
       0.056480967 -0.009454942 0.0107194185 0.035472766
000180 13 28 9c 3d 46 fb c3 bd 3d a8 db bc c7 62 96 bc
       0.07624831 -0.09569411 -0.02681362 -0.018357648
000190 4f f9 9f 3c 88 77 85 3c 00 be 57 bd d2 85 2a bd
       0.01952806 0.016292349 -0.052671432 -0.041631527
0001a0 88 f5 f1 3c 30 76 b2 3b 02 e1 84 3c 8e e6 aa bc
       0.029536024 0.005446218 0.016220573 -0.02086189
0001b0 26 b4 90 bd e0 bf c9 3b 0d 22 41 3c e8 77 46 bc
       -0.070656106 0.0061569065 0.0117879035 -0.012113549
0001c0 44 82 70 3b 1a 19 c6 3c 58 b4 05 3d 88 2c f7 bd
       0.0036698738 0.024181891 0.032642692 -0.120690405
0001d0 b0 64 07 3d eb 8a 60 bd de 77 83 bc d2 27 05 bd
       0.033055007 -0.054819982 -0.016048368 -0.03250868
0001e0 fa dc b7 bc fe d6 6d 3d 50 59 c0 3b 50 36 64 ba
       -0.022444237 0.05806636 0.005870022 -0.0008705603
0001f0 20 93 9d bb 7b b7 e1 bc e5 5e 43 bc fe ab 88 3a
       -0.0048087984 -0.02755331 -0.01192448 0.0010427234
000200 22 e1 7d 3d c6 2d 7f 3d 10 0e d8 3b 8a 5b ac 3d
       0.06198228 0.062299512 0.0065934733 0.08415897
000210 da a6 37 3d 6e d6 72 3d 44 60 d0 3c 50 d6 89 bc
       0.044836856 0.059286527 0.025436528 -0.016825825
000220 56 a8 3b 3d e6 19 4c 3d 64 16 5f bc b8 f8 25 3c
       0.045814835 0.049829386 -0.013616178 0.0101301
000230 6d cc 0c 3b ef ae 96 3d 83 46 93 3d 12 72 27 bd
       0.0021484152 0.07357585 0.071911834 -0.04088027
000240 b4 4f 9f 3c 8a 68 1a bd d5 25 78 bd 14 a3 c5 bc
       0.019447185 -0.037697352 -0.060582954 -0.024125613
000250 18 5d 9b bd e2 70 5f 3d ae 6f 16 3d f4 1f 40 3c
       -0.075861156 0.054551013 0.0367276 0.011726368
000260 44 13 51 bd ce 10 4b 3d 88 1d 8a 3c e6 2a 41 bd
       -0.051043764 0.049576573 0.016859785 -0.04716005
000270 55 7b b0 3d 58 8d 88 3c 9e 2e aa 3d f1 02 b5 3d
       0.08617274 0.01666896 0.08309673 0.08838452
000280 9a a6 65 3d 74 b4 2a 3d c0 58 91 3c 64 9a a0 3c
       0.056067087 0.041676 0.017742515 0.01960487
000290 5a 6f b1 3d 08 d9 47 bc 1b 43 32 3c 06 b4 27 3d
       0.08663817 -0.01219774 0.010880257 0.040943168
0002a0 3a ca b0 bd 00 eb 14 ba 42 bf 6a 3d 18 79 03 3c
       -0.08632322 -0.00056807697 0.057311304 0.0080244765
0002b0 e0 4c d9 bb d0 b6 ea bb 38 48 c4 bc 32 5c 2b bd
       -0.0066314787 -0.007162906 -0.023960218 -0.04183597
0002c0 40 52 67 bb f4 0a 87 3c 8e cd 66 bd 80 3f 47 bb
       -0.0035296828 0.016484715 -0.056348376 -0.003040284
0002d0 a0 d9 31 3d 78 df 91 bd 32 d4 05 3d f0 a0 02 3c
       0.043420434 -0.071227014 0.03267307 0.007972941
0002e0 aa f4 17 3d ec 78 f7 bc 10 48 0c 3c 14 9f da bc
       0.037098564 -0.030209027 0.008562103 -0.026687182
0002f0 e0 08 ee 3b c7 64 00 3d 00 d1 32 3b 6b d5 54 bd
       0.0072642416 0.03134611 0.0027285218 -0.051961344
000300 4b 0a ae bd 5b 83 42 bd 4e 80 76 3c a0 52 b9 bc
       -0.08498057 -0.04748855 0.015045239 -0.022622406
000310 bd 40 a0 bd 80 b4 14 bd 49 42 9e bc 30 d2 bd 3c
       -0.07824848 -0.03630495 -0.019318717 0.023171514
000320 ce 15 52 3d 09 2c 38 bd 8e 0a b0 bd 40 db 6d bc
       0.051290326 -0.04496387 -0.08595763 -0.014517605
000330 1e 06 45 3d 00 d3 cf ba eb cd 01 bd a2 5d 28 3d
       0.048101537 -0.001585573 -0.03169052 0.04110492
000340 d0 42 9f 3b 56 72 43 bd fe 17 72 3c d6 ad 53 3d
       0.0048602596 -0.04771646 0.014776228 0.051679455
000350 96 b8 a1 bd 6e 20 7a bd 66 c4 9a bd 6d 39 b3 3d
       -0.07896535 -0.061066084 -0.07556991 0.087511875
000360 90 e4 77 3d a9 aa 4b bd 8a 4b 52 bd 5e 34 11 3b
       0.06052071 -0.0497233 -0.05134157 0.0022156457
000370 b4 e8 18 bd 50 69 89 3b 1a b0 b7 bc 08 b5 a1 bd
       -0.037331298 0.0041934624 -0.022422839 -0.07895857
000380 62 92 ff 3c 6a e8 09 3d 90 57 99 3c b8 29 65 bc
       0.03119773 0.033668913 0.01871851 -0.013986997
000390 01 4a 00 3d ba a7 91 bd 9c cc c9 3c 0c f5 09 3a
       0.031320576 -0.071120694 0.024633698 0.000526265
0003a0 3b b0 88 3d 50 a6 90 3c 1c 51 4e bd 55 0c 18 3c
       0.06674238 0.017657429 -0.05037032 0.009280284
0003b0 78 ce 51 bc 5a 63 0c 3d b2 40 9f bd 4a 7a 59 bd
       -0.012805574 0.034274437 -0.077760115 -0.05309514
0003c0 af 5b 21 bd 41 d2 90 bd 40 71 bc bc ee 80 9e bd
       -0.039394077 -0.07071353 -0.02300322 -0.07739435
0003d0 52 d4 ab 3c e0 1a 6f bd d0 3c fd bb 56 57 91 bd
       0.020975266 -0.05837524 -0.0077281967 -0.07096736
0003e0 b4 58 59 bd 48 0c ed bc fa f4 b2 bd 39 02 65 bd
       -0.05306311 -0.02893652 -0.08738132 -0.055910323
0003f0 47 b5 a9 3d b6 19 60 3d b6 4b 16 3d fc 88 ec 3c
       0.08286529 0.05471202 0.036693297 0.028873913

linear2.bias f4 [4]
000000 03 2e 51 3d b3 c4 6d 3d d1 a2 92 bd 5c 83 a7 3c
       0.05106927 0.058048915 -0.07159961 0.02044838
