model/test.pth (torch, 9295 bytes, 6 tensors)

conv1.weight f4 [1, 1, 5, 5]
000000 6e dd 7f 3e 88 bc 39 3e 22 f5 4a be f1 e3 19 bf
       0.24986812 0.18138325 -0.19820073 -0.60113436
000010 5c 29 a5 be cb 34 8e 3e b1 94 14 3f b7 a9 48 be
       -0.32258117 0.27774653 0.58039385 -0.19595991
000020 ae ca e8 be 71 7b 2e bd 32 73 95 bc 46 c1 e1 3e
       -0.45467132 -0.04259819 -0.018243406 0.44092768
000030 e9 52 b0 bd b6 b5 e6 be 4f 62 94 be b5 4c dd be
       -0.08609564 -0.4506051 -0.28981254 -0.43222585
000040 64 32 b3 3e 94 4f 49 be 2b a0 5a bd 7b 4a 7d be
       0.34999382 -0.19659263 -0.053375404 -0.24735443
000050 1a c4 c1 3d 59 88 f9 3e ae 3b 7c 3d ee 2d ec 3e
       0.094612315 0.48736838 0.061580352 0.46128792
000060 60 49 56 be
       -0.20926428

conv2.weight f4 [1, 1, 3, 3]
000000 fa a0 98 be a8 17 b4 3d 4a fe 57 3e 0a 20 db be
       -0.29810315 0.087935746 0.21093097 -0.4279788
000010 4a 8e 9d 3e bc 5a e3 3e 0f db be be 96 a5 71 3d
       0.3077262 0.44405162 -0.37276503 0.058995806
000020 3a b5 81 be
       -0.25333577

fc1.weight f4 [16, 100]
000000 01 84 a3 be ab a8 01 3f c2 39 54 be 78 6e 89 3e
       -0.31936648 0.5064799 -0.20725158 0.26842093
000010 e9 51 02 3f 52 34 f8 be e2 82 25 3c eb c2 e8 3c
       0.50906235 -0.48477417 0.010102006 0.028413257
000020 7d be 59 3f 80 58 9c be 66 f1 ca be 03 a9 57 3f
       0.8505629 -0.3053627 -0.39637297 0.84242266
000030 66 43 30 be e2 8e 15 3f 2a d3 38 3f 83 d3 55 bd
       -0.1721321 0.58421147 0.7219721 -0.052203666
000040 46 11 33 3e 5b a9 07 3e 9d 02 81 3e e8 7e f5 3e
       0.17487058 0.13248198 0.25197306 0.47948384
000050 66 66 4d be b8 3d 1d 3f 0f e5 41 bd 7c b7 dc 3d
       -0.20058593 0.614223 -0.047337588 0.10777184
000060 34 5c a5 3e ca 5a e9 bd 88 d7 58 3e 4c 69 ce be
       0.32296908 -0.1139427 0.21175969 -0.4031471
000070 8e 92 71 3d a3 10 58 3f eb f8 5a be a4 e6 38 3f
       0.058977656 0.84400386 -0.21384017 0.7222693
000080 43 f5 b9 be f7 3b b5 3e ab 6b 68 3f f5 87 ce 3e
       -0.36319932 0.35397312 0.9078929 0.40338102
000090 65 f4 f7 3e b5 be 0a bf 5a 65 c4 3e e5 86 26 3f
       0.48428646 -0.54197246 0.38358575 0.6504958
0000a0 91 48 5e be 7a c8 07 3f 0d af 1c bf 73 f1 08 be
       -0.2170737 0.5304028 -0.61204606 -0.13373356
0000b0 d1 1c 06 3f 19 3c 38 3f aa 9a 8d 3f 18 42 84 bf
       0.5238772 0.719667 1.1062825 -1.033267
0000c0 06 43 49 3f d8 75 0d 3f e6 6f 81 be c1 97 e2 3e
       0.78617895 0.5525794 -0.25280684 0.44256404
0000d0 ca 80 0c bf a1 d9 36 3d c1 ee 6e be 69 9a 13 3f
       -0.54884017 0.04464114 -0.23333265 0.57657486
0000e0 3a 61 74 3f 53 c6 8c be 9e bc ed 3e 0a a9 6e 3d
       0.95460856 -0.2749506 0.46432966 0.058266677
0000f0 72 0b 0c bc bb eb 6d 3e 3a 3f af be 75 49 9f be
       -0.008547651 0.23234455 -0.34227926 -0.3111073
000100 cc d0 09 bf d2 1c 8e 3f d7 1b 8f 3f 11 a4 f9 3d
       -0.53834224 1.1102545 1.1180371 0.12189496
000110 d3 e9 80 3e 6b f3 b8 bd 3c 84 e4 be 86 ff 1c bc
       0.25178394 -0.09030803 -0.44632137 -0.009582406
000120 50 5f 79 be a8 40 e8 be 3f 0f 9c be 9a 24 28 3f
       -0.24352765 -0.4536183 -0.30480382 0.6568085
000130 c1 36 b3 3f ab fb f4 3d 18 c5 ff 3e f1 60 0c 3e
       1.4001085 0.11962064 0.49955058 0.13708855
000140 58 c3 b6 be 2d cc 11 bf 9a eb f6 be 34 c7 57 bf
       -0.3569591 -0.5695217 -0.48226625 -0.84288335
000150 20 0f c9 be 5d b0 ee 3c 8b 6b 06 3f 61 7a 31 3f
       -0.39269352 0.029136831 0.5250785 0.6932736
000160 c6 ec 65 bd 45 e3 40 be 6c 18 08 bb 2f 3f e0 bd
       -0.056134008 -0.18836696 -0.002076651 -0.10949551
000170 ad a4 14 3d 7c b8 b7 3e 58 74 22 3e 75 68 1b bf
       0.03628986 0.35882938 0.15864694 -0.60706264
000180 b6 da 87 3c be ff 80 3f 96 6d 8e bd 03 45 93 3f
       0.016583782 1.0078046 -0.069544956 1.1505436
000190 1b 6a a9 3e dd 99 66 be 52 d9 81 3e 83 39 c9 be
       0.33088765 -0.22519632 0.25361115 -0.3930169
0001a0 20 55 90 3d 28 7c 30 3e 4a ae a9 be 4e c6 9b be
       0.07047486 0.17234862 -0.33140785 -0.30424732
0001b0 60 85 9d be 1e 97 3a bf 1f f2 72 3e fd 11 29 3e
       -0.3076582 -0.72886837 0.23725174 0.16510768
0001c0 21 39 a6 be 4f 09 0f 3f e2 e6 a3 be 18 63 4f bd
       -0.3246546 0.5587358 -0.32012087 -0.050631613
0001d0 35 36 e8 bd 88 31 d7 be 0f 45 2b bf 3b 58 ed be
       -0.11338464 -0.42029977 -0.6690225 -0.46356377
0001e0 7b 9a cc bd e9 c0 cc be 9f 15 19 3d 9a 65 c1 3d
       -0.09990402 -0.3999093 0.037374135 0.09443207
0001f0 70 9a 08 bf 1d af 91 3e a2 50 a8 3c b2 63 8b be
       -0.5336065 0.28453913 0.020546261 -0.272245
000200 14 09 46 be 96 43 c6 be 0b f3 b9 3d 8d 36 33 bd
       -0.193394 -0.3872344 0.0907956 -0.043753196
000210 3a 55 22 3e 9e 54 ea be f4 16 94 3e ba c5 00 3e
       0.15852824 -0.45767683 0.28923762 0.12575427
000220 5d 87 2f be 12 d5 84 be 9d 5f c5 be 8e c8 c9 be
       -0.1714148 -0.2594381 -0.3854951 -0.39410824
000230 a4 26 df bd f3 79 54 be 30 ed e6 be 2e 25 8b be
       -0.10896042 -0.20749645 -0.45102835 -0.27176803
000240 c9 a6 52 3e fb d2 ad 3d 0d dd 74 3e 86 c1 a1 bd
       0.20571436 0.08487507 0.23912449 -0.0789824
000250 64 58 97 be 4c 0e 83 be 70 9c aa 3e fc 97 8f 3e
       -0.29559624 -0.25596845 0.33322477 0.28045642
000260 09 97 0c be e5 b3 66 3e 80 1c 23 be e9 db f1 be
       -0.1372949 0.22529562 -0.1592884 -0.4723809
000270 b3 b7 be 3d e8 83 c2 3d 27 bd b1 bd c4 fc f0 bd
       0.093123816 0.09497815 -0.08678656 -0.11766961
000280 16 27 28 3f b3 45 52 be 06 e2 ac be 32 00 1a 3d
       0.6568464 -0.205344 -0.33766192 0.037597843
000290 b2 56 e4 be 96 71 1d 3f 96 c3 b2 3e 68 c1 8d ba
       -0.44597393 0.61501443 0.34914845 -0.0010815086
0002a0 ec 46 3d bf e4 01 c6 3d 9e b1 3d 3e 66 ef d6 3d
       -0.73936343 0.09668329 0.18524787 0.104948804
0002b0 e9 9d 25 be cf 99 95 3c 98 1f f4 bc 99 d3 46 3e
       -0.16173519 0.018261818 -0.029800221 0.19416656
0002c0 61 a1 04 bf cd 97 a9 3e a3 20 6d be a7 0a f0 3d
       -0.51808745 0.33123627 -0.23156981 0.11720782
0002d0 2b 21 9b 3d c4 05 08 bf bd d5 d2 bd b8 bc a3 be
       0.07574686 -0.531338 -0.102946736 -0.31979918
0002e0 b1 fa ed 3d cc 5f 5d be 26 53 57 3e 14 a7 d7 bc
       0.11620081 -0.21618575 0.21027812 -0.026324786
0002f0 71 89 1d bf a3 9e 08 bf 90 0f e4 3e 12 e2 e3 bc
       -0.61537844 -0.5336706 0.44543123 -0.02781776
000300 c1 88 63 3e ba d8 3d be f2 94 36 3d 05 17 ab be
       0.22220136 -0.18539706 0.04457564 -0.33416
000310 58 1a 07 3f ff 9b f4 bd e0 17 a8 3d d5 08 93 3e
       0.5277457 -0.119438164 0.08207679 0.28717676
000320 87 3e 27 3e 75 db b5 be d1 69 cb be 19 7c 71 3e
       0.16332446 -0.35518995 -0.3972917 0.23582496
000330 db f9 cf 3d 5d 2a e3 3d 8d 95 96 be 0b 43 58 3e
       0.10155078 0.110920645 -0.29410973 0.21119325
000340 3c c8 99 be d2 af 92 3d ac 76 b9 bd 9e 67 c3 be
       -0.3003558 0.07162441 -0.09055838 -0.3816499
000350 f8 8d 58 ba c1 17 05 3e 63 39 83 be bf 1b 4d be
       -0.0008260901 0.12997343 -0.2562972 -0.20030116
000360 e2 19 d2 3e c8 43 c8 ba 5a b8 d9 be 20 fd 88 be
       0.41035372 -0.001527899 -0.42523462 -0.2675562
000370 04 da c5 bd 44 11 22 bd fa 43 7c be 39 34 94 3e
       -0.09660724 -0.039567247 -0.24635306 0.28946093
000380 0e 98 29 bf 97 1a 30 3e 0a 0d 96 bd de 9c 86 be
       -0.6624764 0.17197643 -0.07326706 -0.26291555
000390 75 3a 94 bd 04 10 33 be 87 b3 09 3d c2 75 68 be
       -0.07237712 -0.17486578 0.033618476 -0.22701171
0003a0 8c 8e 4e be 17 e7 ef 3d 70 b1 1a 3c ee ec c6 3e
       -0.20171565 0.11713999 0.009441718 0.38852638
0003b0 f3 02 05 be a6 6c 50 be 47 00 10 bd 0b cf 14 bf
       -0.12989406 -0.20353946 -0.035156514 -0.5812842
0003c0 1b 4d 25 3e 3a cd d2 be 31 4f 8d bd ba 78 98 3d
       0.16142695 -0.411722 -0.0689987 0.07444902
0003d0 e3 87 27 3e 3c 74 10 be 70 cc 87 bc d6 d6 8f 3d
       0.1636043 -0.1410684 -0.016576976 0.070233986
0003e0 01 b6 ab be 09 da d0 be a8 93 23 3d 3a 99 31 be
       -0.33537295 -0.40791348 0.039935738 -0.17343608
0003f0 e9 4c 6b be de c4 a3 3e 2c 44 da bd a5 54 9b 3e
       -0.22978558 0.31986135 -0.10657534 0.30338016

fc1.bias f4 [16]
000000 61 c7 e9 3f 98 09 20 bc c8 bb b7 be ce 1d 17 40
       1.8263971 -0.009767912 -0.35885453 2.3611941
000010 b1 05 3e bf 8b 4b a0 3e 64 89 90 3f d0 7a 0c 3e
       -0.74227434 0.31307635 1.1291928 0.13718724
000020 09 4e 0e bf 0f 77 20 bf 12 e2 37 bf 5b 2b 21 be
       -0.5558782 -0.6268167 -0.7182933 -0.15739195
000030 11 1f 9a bf 9e 54 1d 3e a3 96 df be cb 35 d7 bd
       -1.2040731 0.1536431 -0.43669614 -0.10508307

fc2.weight f4 [4, 16]
000000 f6 84 04 bf a6 7e 24 be 95 da 86 be 02 67 48 bf
       -0.5176538 -0.16063938 -0.2633864 -0.7828218
000010 77 fe ac bc c7 de 9c be 99 fa b4 be 57 d3 87 be
       -0.021117432 -0.30638716 -0.3534744 -0.26528427
000020 2a 8a ed bc b3 dd b2 bc 6f 15 6a 3d 7e 1e 8d bd
       -0.028996546 -0.02183423 0.057149347 -0.068905815
000030 4b 24 11 3e 80 4a 66 be 31 7e 27 3d aa 94 8a be
       0.14174001 -0.22489357 0.04089183 -0.27066547
000040 7a 24 f2 be da 52 ed bd 8d 60 ea bd 61 93 3b bf
       -0.47293454 -0.11588068 -0.11444197 -0.7327176
000050 e0 b1 f4 be 3d cc cc 3b b1 87 7e be 22 95 81 be
       -0.47791958 0.006249933 -0.2485645 -0.25309092
000060 30 4d b8 bd 52 01 91 bd 9a 7b 02 3e 76 02 3a bd
       -0.08999097 -0.0708033 0.12742463 -0.045412503
000070 e1 eb f4 3d 6b ef 8c be 71 c8 87 3b d7 d1 cb 3c
       0.11959053 -0.2752641 0.0041437675 0.024880333
000080 8c de 01 bf 34 f0 16 be 47 6a c8 bc 74 85 36 bf
       -0.50730205 -0.14740068 -0.02446474 -0.71297383
000090 12 db b4 bd 66 b3 4a be c7 30 91 be 40 f7 30 be
       -0.08830847 -0.19794998 -0.28357527 -0.17281818
0000a0 a3 d1 de 3c 03 c5 43 bc 38 ec 34 3b f0 19 ae bd
       0.027199572 -0.011948827 0.0027606618 -0.08501041
0000b0 84 17 75 bd 22 c7 f3 bd de e4 9d 3d 45 0b 88 be
       -0.05983688 -0.11903216 0.077096686 -0.26571098
0000c0 7a a5 00 bf aa 6b 85 be d4 a1 dd bd e3 11 35 bf
       -0.502525 -0.26058704 -0.10821882 -0.7073042
0000d0 59 3f db bd 2a b0 5d be 67 84 fe be aa f7 2c be
       -0.10705442 -0.21649233 -0.4971039 -0.16891351
0000e0 ed 38 59 be 5d ee 84 be 35 28 ad bd 16 53 96 be
       -0.21213122 -0.25963107 -0.084549345 -0.29360265
0000f0 58 ac 35 3d a2 1e 6c be 4e 61 ea 3e 69 87 e7 be
       0.044353813 -0.2305856 0.45777363 -0.45220497

fc2.bias f4 [4]
000000 ac 70 91 bf 56 b1 88 bf 8e fd 90 bf a9 c8 7f bf
       -1.136251 -1.0679119 -1.1327379 -0.9991556
